saves/final_ai_memory_npc_3_emotion.pth (torch, 15389 bytes, 6 tensors)

fc1.weight f4 [64, 10]
00000000: c0d2 04bd 6c2d d53d 33a8 03be 45b1 8f3e
00000010: de41 513e 8893 6abe a700 3ebe 6cad 55be
00000020: 8876 323e c492 983d 2a6f 283e e235 2fbe
00000030: 324d 153e 281b 7a3d 10da 97bc a280 79be
00000040: 5fd0 69be 6ef9 573e 3c16 90be 7282 96be
00000050: 5ab8 92bd c85f 173d 95b5 9fbe 68d7 333d
00000060: 3a8e 033e 7872 923d 6017 34bd 91eb 983e
00000070: 7975 923e fefa 62be 5024 c33c 50cc 2b3d
00000080: f899 79bd cc3d 57be f067 cd3c 3e7a 773e
00000090: a4d3 383e 081f 283d 9c8d 8abd 7abd e7bd
000000a0: a005 6e3d b0a6 433d 1829 1f3e fd37 9abe
000000b0: 91e4 963e 5eee 7e3e 1ef0 493e 1837 383d
000000c0: 5005 8b3c 57d7 853e c884 77be a03a af3d
000000d0: 2637 2c3e 3cab 32be 6056 f5bd a1d2 913e
000000e0: 605d 02be c038 6c3d 035f 89be 1816 1c3d
000000f0: 7159 9abe c073 d7bb 98b4 173e b03a d13c
00000100: 12ff 4a3e f070 94bc a0c3 4bbc da98 92be
00000110: 9055 2e3e 6791 8b3e d640 02be 3c62 fd3d
00000120: 114f 8bbe 1e28 0dbe 1af7 acbd 2c6d 35be
00000130: 8682 573e 9810 8d3d 4589 4cbe a059 87bc
00000140: 8043 26bd a200 75be 20af 78bc e076 b23c
00000150: 2ef6 52be a6bb 85be e1ab 853e 183a 88be
00000160: 00d4 1bbc e846 b23d e874 2d3d 84dd c23d
00000170: 881b fbbd 40b5 cc3c 0e9a 503e a6c7 523e
00000180: 8066 c8bb 5b2d 8b3e 9cfc d13d fc1a ffbd
00000190: 1ada 603e 1834 623d 6c01 56be dcd6 2a3e
000001a0: 2f95 65be 27f1 993e e689 53be 2ea8 253e
000001b0: 67ff 833e 94e3 23be c3df 0ebe 7775 05be
000001c0: 138f 39be 58ad 5fbd 6a9c 663e edd1 3bbe
000001d0: 3802 20be 80c8 813b 9ac4 a2bd 70b9 51bd
000001e0: 1b9f 903e 5007 93bc 73b3 78be a6a5 81be
000001f0: 8a9e 7c3e 26ac 4b3e 80b8 663b 4867 2fbd
00000200: 5a73 493e 074f 33be 12e7 753e 8f97 8e3e
00000210: f0c3 95be d02e 0b3e 4803 5dbe cae6 283e
00000220: 206b 43bc 900f a4bc f51c 40be b10b 8b3e
00000230: 0ed2 41be 20a8 1ebe 0094 783a d895 2a3d
00000240: 94e9 8dbe 44db d5bd a207 5dbe b8bb 2e3e
00000250: d0ee 883c eea4 81be 60c2 bc3c 7499 b13d
00000260: ae50 183e 40bb 8ebe 64ec 95be 7e19 623e
00000270: 3028 cabc d38b 58be 895b 973e e079 bb3d
00000280: 7c4b 8bbe 4632 613e 99fb 9f3e ddb3 963e
00000290: 409b 273d df33 803e 3b69 973e ed54 9dbe
000002a0: afaf 803e 21ac 75be 9c5d b43d 16eb 773e
000002b0: d1b9 953e 8050 b33b 41d2 a03e da74 95be
000002c0: 584b dbbd 2669 efbd 84e4 36be 9943 55be
000002d0: 9bdb 00be 0af9 6bbe ea7c 5a3e 513e 9bbe
000002e0: 00e3 e83a 4c97 0ebe 7f16 8cbe e30b 903e
000002f0: a8e5 ed3d 086d b03d 9fec 25be 48a3 68be
00000300: f0fd 963d 349b d13d 3a08 433e 2ada 563e
00000310: a04e 363c 94bd 973d 96ed bebd 0a68 c4bd
00000320: 44a6 8b3d 5eca 453e 400a 1b3e 584a a0be
00000330: 0076 333c 6f41 4dbe ac51 033e 7ea7 483e
00000340: f5da 813e b1ab 66be b009 7cbe bc2f b43d
00000350: 2ae5 673e 2845 6c3d 1740 93be b857 8f3d
00000360: 1e67 71be 4eb3 643e dad6 e0bd 1e47 453e
00000370: d75c 8f3e 777c 963e 9420 44be 44fe c13d
00000380: 2262 703e 4c9f 973d 5926 953e 185c 77be
00000390: 206f 2f3c 9680 1c3e 40b5 b03d c000 1dbd
000003a0: 32ff 753e 6848 82bd 0093 aabd 5f2f 883e
000003b0: 68e4 6b3d f856 043d c0a5 78bd 2082 bcbc
000003c0: 096a 873e 7ade 123e c04e 393d ee0a f5bd
000003d0: a0ea 47be 4ae2 243e 6c32 ec3d a2c9 71be
000003e0: d60a 0dbe 0dd8 953e 62d3 603e 85d4 30be
000003f0: 38a2 ba3d 00f4 bdbd ca64 633e b95c a1be
-0.03242755 0.10409054 -0.12857132 0.28064933 0.20435283 -0.22907841 -0.18554936 -0.20866936
0.17428029 0.07449868 0.16448656 -0.17110398 0.14580229 0.061061054 -0.018536597 -0.24365476
-0.22833394 0.21091244 -0.28141963 -0.29396397 -0.071640685 0.03695658 -0.31193224 0.0439066
0.12847224 0.071507394 -0.043967605 0.29867223 0.2860525 -0.22166058 0.023821026 0.041942894
-0.06093785 -0.21019667 0.025073975 0.24167725 0.18049484 0.04104522 -0.06765291 -0.11315437
0.058110833 0.047766387 0.1554302 -0.3012084 0.29471257 0.24895617 0.19720504 0.044974416
0.016970307 0.26140854 -0.24171746 0.08556104 0.16817912 -0.17448133 -0.11979365 0.2848101
-0.12730932 0.05767131 -0.268303 0.038107008 -0.30146363 -0.006575078 0.14814985 0.02554068
0.19823864 -0.018120259 -0.012436777 -0.2863224 0.17024827 0.2725937 -0.12720045 0.12372252
-0.2720876 -0.13784835 -0.084455684 -0.17717427 0.21045884 0.06887931 -0.19974239 -0.016522229
-0.040591717 -0.23926023 -0.015178472 0.0217852 -0.20601723 -0.26119727 0.26107696 -0.26606822
-0.009510994 0.087049305 0.04234782 0.09514907 -0.122611105 0.02498877 0.20371267 0.20583972
-0.0061157346 0.2718304 0.102532595 -0.12456319 0.21958199 0.05522546 -0.2089898 0.16683525
-0.2242019 0.30066797 -0.20658073 0.16177437 0.25780794 -0.16004783 -0.13952546 -0.1303309
-0.18120985 -0.054608673 0.22520605 -0.18341799 -0.15625846 0.003960669 -0.07947655 -0.051202238
0.28246388 -0.017947823 -0.24287204 -0.25321692 0.24669853 0.19889888 0.0035205185 -0.042823106
0.1967291 -0.17510615 0.24013928 0.27850005 -0.2925105 0.13592076 -0.21583283 0.16494289
-0.011927396 -0.020026952 -0.18761046 0.27157357 -0.18927786 -0.15493822 0.0009482503 0.04164681
-0.27717268 -0.10442212 -0.21584943 0.17063797 0.016715437 -0.25321144 0.023041904 0.08671847
0.14874527 -0.27877235 -0.29281914 0.22080037 -0.024677366 -0.21147089 0.29562023 0.09154105
-0.27206028 0.21991834 0.3124664 0.294341 0.040919542 0.25039575 0.29572472 -0.30728856
0.25134036 -0.23991443 0.08806917 0.24210772 0.2924333 0.005472243 0.3141041 -0.29190713
-0.1070773 -0.11689977 -0.1786061 -0.20826568 -0.12583773 -0.2304422 0.21336713 -0.3032098
0.0017767847 -0.13924903 -0.27360913 0.2813407 0.11616069 0.08614546 -0.16203545 -0.22718537
0.073726535 0.10234681 0.19046107 0.2098166 0.011127144 0.07409206 -0.0932266 -0.095901564
0.06818822 0.19315478 0.15140629 -0.3130672 0.010953426 -0.20044492 0.12824124 0.19595143
0.25362363 -0.22526433 -0.2461307 0.08798167 0.22646013 0.05768314 -0.28759834 0.06999153
-0.23574492 0.22334024 -0.1097848 0.1926541 0.2800052 0.29391834 -0.19153053 0.094723254
0.23474935 0.0740343 0.2913082 -0.24156225 0.010707647 0.15283427 0.08628321 -0.038330793
0.2402313 -0.06361467 -0.08328819 0.2659864 0.057590872 0.032309502 -0.060704947 -0.023011267
0.26448086 0.1434268 0.045241117 -0.11964975 -0.19523096 0.16101947 0.11533055 -0.23612073
-0.13773665 0.29266396 0.21955636 -0.1726857 0.09112972 -0.09275055 0.22206417 -0.31516054

fc1.bias f4 [64]
00000000: 4034 693d 02e1 11be ef2e 853e dc29 56be
00000010: c5fd 883e f3f8 21be 64f4 85be b01d fcbc
00000020: 010f 1ebe 62cc 60be 22db 34be b870 7a3d
00000030: 4e74 5a3e d0dc 6ebe 5a86 89bd afd9 99be
00000040: c4f0 9b3d 0e27 0ebe 087c 65bd 9099 25bd
00000050: d79d 913e 508c 81bd 882a 29bd a866 2f3e
00000060: 9bec 82be fbbc 863e 81a9 923e 1ff6 893e
00000070: 354a 99be bf7e 913e f20d 503e e6b1 8dbe
00000080: a00e d3bc a3b3 29be 59d7 95be 6a4c 6d3e
00000090: b82a 5b3d 4048 bfbc 6ec9 d0bd 600e e63d
000000a0: b47b df3d 35d2 62be 126a 54be 404b 4cbd
000000b0: 7230 efbd 80f1 49bc 5b91 953e cc0a 87be
000000c0: 5ee6 053e 094a 953e 72d7 663e 4676 97be
000000d0: a088 923c 3502 92be 8061 a33b 7a25 c8bd
000000e0: 3aab 2c3e 08f0 a33d 005b c7bb 4685 673e
000000f0: 0acc 663e 400e 09bc 1edb 98be c1fe 50be
0.056934595 -0.1424599 0.2601237 -0.20914406 0.2675611 -0.15817623 -0.26163018 -0.030775875
-0.15435411 -0.21952966 -0.17661718 0.061142653 0.21333429 -0.23326421 -0.06715079 -0.30048892
0.07614282 -0.13882086 -0.05602649 -0.04042965 0.28440735 -0.063255906 -0.041300327 0.17129004
-0.2557114 0.26316056 0.28644946 0.26945588 -0.29939428 0.28417012 0.2031782 -0.27674788
-0.02576381 -0.16572432 -0.2926586 0.23173681 0.053507537 -0.023349881 -0.1019467 0.112332106
0.109122664 -0.221505 -0.20743588 -0.04987645 -0.11679162 -0.0123256445 0.2921246 -0.26375425
0.1307616 0.29158047 0.22543123 -0.29582423 0.017887414 -0.2851731 0.004985988 -0.09772773
0.16862193 0.08004767 -0.006083846 0.22609434 0.22538772 -0.008365214 -0.29854673 -0.20409681

fc2.weight f4 [32, 64]
00000000: 5031 113c 78df ad3c 809c 1d3b ee96 91bd
00000010: 7e4c c0bd 8c2b 6abd b6da bebd 049e 26bd
00000020: 2eb4 d3bd aa2c cbbd 3efe e03d e8b6 ee3d
00000030: 7069 213c 7003 f7bc 4a04 fcbd 480b f4bd
00000040: 0026 52bb 9ccd adbd 14cb 793d 80de 8c3d
00000050: d2ab ddbd b601 823d 36a9 d13d f257 993d
00000060: 741b f1bd 4037 5fbb 0038 2b3b c887 5d3d
00000070: 18d1 d43c d0b2 c7bc d8a0 d4bc f0cf c3bd
00000080: b278 b2bd 60f7 613c 80f8 c23b 4091 1fbb
00000090: ba7d 813d 90e6 5b3d 208d 10bd 6a7e 95bd
000000a0: f011 2c3d c031 653c 7eeb c43d 50e7 f83c
000000b0: 30be 8d3c 1481 a03d dcd3 52bd 88c7 acbc
000000c0: 407d f3bb 885c e73d d615 823d f87b 21bd
000000d0: 149e fdbd 4ac0 c9bd 0e17 aebd 5a7b f4bd
000000e0: 08be 203d 64e3 27bd 50e8 a63d aec3 a33d
000000f0: d45b f6bd 0ef3 863d e0d9 d33d e008 31bc
00000100: 604f 513d f073 da3d 46c7 d03d da29 f13d
00000110: b89c 803c a633 d1bd bef0 8cbd e296 b93d
00000120: f818 94bc 9475 a2bd 00f0 a23d 848f 3f3d
00000130: b0b6 45bc 50c9 acbc 641d 16bd a6df 9dbd
00000140: 4c38 323d 28d8 503d 8253 dc3d bc15 ca3d
00000150: 54e5 4fbd d272 a7bd e678 dd3d c06d da3c
00000160: 304d 453d 4010 e6bb f4f7 15bd 30ec acbd
00000170: 0030 7a3b 4e56 a93d 8024 50bc 7ed3 edbd
00000180: 488e d4bc b4e2 48bd 282c 4c3d 282c 52bd
00000190: f06d d63d 2e67 a4bd 725c efbd 201b 403d
000001a0: 00e7 eabb 8011 543d b8ff 71bd deac 8fbd
000001b0: 5052 343c b841 cf3c 584d fe3c d07f 81bc
000001c0: c081 20bb f8fc 4dbd a8c7 cdbc a8b1 c13d
000001d0: 8a6d d5bd e807 1b3d e288 aabd 8060 dabd
000001e0: 1c09 f43d 4835 b5bd 96dd c5bd 603f 78bc
000001f0: a2f9 a0bd fe5f 92bd bc68 36bd 8cf7 44bd
00000200: f84f b3bd bc74 f4bd 4488 f63d aee7 fb3d
00000210: e08f ac3c d0ca ddbc aa7d d5bd 0001 92bc
00000220: dc9e f93d 9065 e93d fe63 d5bd 7c41 7dbd
00000230: 6ae7 b7bd 30d1 0cbd 7caa 27bd 9c97 bdbd
00000240: c091 3ebb a0e8 e6bd 889f eabc 489f 95bc
00000250: 2435 ac3d 4818 ee3d 22ed b1bd 1889 483d
00000260: 10ad 763c 940b 613d bc10 af3d 8c46 cf3d
00000270: 7e6d e03d 8649 e43d 1c80 3e3d 7094 b03d
00000280: 3c3b 2abd 40f8 543b 20f5 0bbc 909f 13bd
00000290: dc93 283d 9085 033c 002e 0a3c 64e0 b1bd
000002a0: 50e1 3cbc 84f8 0f3d 2627 99bd 00d7 733b
000002b0: 3c32 933d 74e8 e6bd 8417 a03d 98af f4bc
000002c0: 9c1f 97bd aaf4 cebd e6d4 e4bd d008 f73c
000002d0: 4636 bd3d 1e51 a23d fa82 fabd 889b 3c3d
000002e0: fef9 a2bd b471 3b3d 34e0 c3bd f040 183d
000002f0: 1adc 84bd 301d 193c 6863 f9bd c43d e5bd
00000300: 1666 97bd 6841 973d f0c3 68bc d820 943d
00000310: b04b 22bd 98f0 dfbc f859 843c 1aa9 d2bd
00000320: a4cc 1c3d 5eb7 bebd 30ed d5bc 6e41 843d
00000330: 3226 afbd d085 58bc 1027 213d 5063 96bc
00000340: 901b 7cbd 860f efbd 7c75 1fbd 9ed1 82bd
00000350: 4069 d03d 286e 253d c421 cabd e0eb 023c
00000360: ac21 7fbd 2a7d bfbd 40c7 e7bc fc4f a53d
00000370: b417 7f3d ba75 92bd d4c2 993d 3429 ae3d
00000380: 0446 f7bd d852 7f3d 047b 72bd b28e c1bd
00000390: 74a2 093d 8ace d5bd 96d7 f53d 702a 3fbc
000003a0: 20c0 9a3c 1a1a e3bd 5ef6 8ebd ae47 d2bd
000003b0: 90a5 a2bc ce5a eebd 84a6 6bbd a089 b43b
000003c0: 40df 473c e653 b8bd eea8 f33d 7c48 b93d
000003d0: 7e41 a33d faeb d6bd 1eed bcbd 1c15 683d
000003e0: 2e4a 9ebd 8ab5 fe3d 7088 c93d ac53 1c3d
000003f0: f09c a93d 3419 833d 4047 cebc d212 c13d
0.008861855 0.021224722 0.002404958 -0.07108866 -0.0938959 -0.057170436 -0.093190596 -0.04067804
-0.10337101 -0.09920628 0.10985993 0.1165598 0.009851798 -0.030153006 -0.123055056 -0.11916214
-0.0032066107 -0.084864825 0.060984686 0.06878376 -0.10823788 0.063479826 0.102373526 0.07487477
-0.117728144 -0.0034060031 0.0026125908 0.05408457 0.02597861 -0.024377257 -0.025955603 -0.09561145
-0.08714427 0.013791889 0.0059500337 -0.002434805 0.063228086 0.05368668 -0.035290837 -0.07299502
0.042009294 0.013988912 0.09615229 0.030383736 0.017302603 0.0783712 -0.051471576 -0.021091238
-0.0074307024 0.11296946 0.06351821 -0.039424866 -0.12383667 -0.09851129 -0.08500491 -0.1193759
0.039243728 -0.04098834 0.08149779 0.07996307 -0.120292336 0.06589328 0.10344291 -0.010805339
0.05110109 0.106666446 0.101942584 0.11775561 0.01569973 -0.10214929 -0.068818554 0.09061982
-0.018078312 -0.079325825 0.079559326 0.046767727 -0.012067482 -0.021092087 -0.036649123 -0.07708673
0.04351072 0.050987393 0.10758115 0.09867427 -0.050755814 -0.08176197 0.10814075 0.026663661
0.048169315 -0.00702098 -0.03661342 -0.08443487 0.0038175583 0.082684144 -0.012704015 -0.116126046
-0.025946751 -0.049044326 0.0498468 -0.051311642 0.10470188 -0.080274925 -0.116875544 0.04690087
-0.0071686506 0.0517745 -0.059081763 -0.07015394 0.011005953 0.025299892 0.03104274 -0.015808016
-0.00244914 -0.050290078 -0.025119618 0.09457713 -0.104212835 0.037849337 -0.083268896 -0.10662937
0.119158 -0.08848053 -0.09661405 -0.0151518285 -0.07860114 -0.07147215 -0.044533476 -0.04808764
-0.08755487 -0.11936328 0.12037709 0.12300049 0.021064699 -0.027074248 -0.10424359 -0.017822742
0.12188503 0.11396325 -0.104194626 -0.06183003 -0.089796856 -0.034379184 -0.04093407 -0.09257433
-0.0029078573 -0.112748384 -0.028640524 -0.018264428 0.08408573 0.11625725 -0.086878076 0.048958868
0.01505591 0.054942682 0.08548114 0.101208776 0.10958384 0.11146836 0.046508893 0.08622062
-0.041560397 0.0032496601 -0.008542329 -0.036040843 0.041156635 0.008027449 0.008433819 -0.08685377
-0.011528328 0.035149112 -0.0747817 0.0037207007 0.07187316 -0.11274806 0.07816985 -0.029868886
-0.07379076 -0.1010526 -0.1117342 0.03015557 0.092388675 0.07925628 -0.12232013 0.046046764
-0.079578385 0.045762733 -0.09564248 0.037171304 -0.064872935 0.009345338 -0.12177163 -0.111934215
-0.07392518 0.07385522 -0.014206871 0.07232827 -0.039622962 -0.027336404 0.016156182 -0.1028616
0.038281098 -0.09312318 -0.026114076 0.06457792 -0.08552207 -0.013215497 0.039343894 -0.018357903
-0.061549723 -0.11672883 -0.0389304 -0.063876376 0.10176325 0.040388256 -0.098697215 0.007990807
-0.06228797 -0.09350045 -0.028293252 0.080718964 0.062278464 -0.07151361 0.07507864 0.085039526
-0.12073901 0.062334865 -0.059199348 -0.09451045 0.033602193 -0.10439785 0.120040104 -0.011667833
0.01889044 -0.11088963 -0.069805846 -0.10267578 -0.019854337 -0.11638413 -0.05753185 0.0055095702
0.012199223 -0.09000377 0.11897455 0.090470284 0.07971476 -0.10494228 -0.09224914 0.056660756
-0.077289924 0.124369696 0.098404765 0.038165733 0.082818866 0.064012915 -0.025180459 0.09427418

fc2.bias f4 [32]
00000000: f060 d2bc 9a1a c6bd 003e b23a 80c3 e83b
00000010: acac 63bd eceb 213d 4cc4 be3d 26f5 fbbd
00000020: 7436 05bd 16dd fa3d 941b 2fbd ea06 d73d
00000030: e8c2 2bbd a049 273c 5ed2 8cbd 2051 e63d
00000040: e060 7ebd 5269 c5bd 9669 bcbd b005 793c
00000050: 408c f9bb e834 8dbd 7ce2 d43d 7045 f3bc
00000060: 922c 9e3d 70d1 58bd 9e0c 803d dc02 0fbd
00000070: 88d3 a23d 8414 203d ce2b 99bd d2e1 e33d
-0.025680989 -0.096730426 0.00135988 0.0071033835 -0.055584595 0.039531633 0.093147844 -0.12302618
-0.032522634 0.122492 -0.04275091 0.10499366 -0.041933924 0.010210425 -0.06876062 0.11245942
-0.062104106 -0.09639229 -0.091998264 0.01519911 -0.007615596 -0.06894857 0.10394761 -0.029696196
0.07723345 -0.05293411 0.062524065 -0.034914836 0.07950503 0.039082065 -0.07479058 0.11127056

fc3.weight f4 [7, 32]
00000000: a476 13bd 3e20 d4bd 7db3 283e f001 16bd
00000010: 22f0 aabd db22 0b3e a5f7 323e 00fc 6f3d
00000020: b111 1a3e e58e 0e3e d994 213e ecff 43bd
00000030: d21d b43d a13d 033e c411 9ebd 227b abbd
00000040: f40b 383d 6514 2ebe 1120 0e3e 720e bc3d
00000050: 635b 033e d544 2e3e a082 6b3d c346 303e
00000060: 3833 bebd 0c10 03bd 70e7 2bbe 187f 27bd
00000070: c802 603d 46f4 d53d b0e2 23bc c116 333e
00000080: a0cf d9bc aefd cc3d 9d5c 013e debd fc3d
00000090: d792 133e c1d0 343e 5ef0 58bd c408 acbd
000000a0: ab07 2d3e 95dd 99bd fc81 44bd 03d6 0d3e
000000b0: 20ba 0c3d 52d5 23be a6db 74bd 01ec 0e3e
000000c0: 029d 8e3d 6389 063e 4c28 123d 8030 3a3c
000000d0: 8227 9d3d 5075 243c 44df 04be d09d 83bc
000000e0: 263c 9b3d 1a83 993d 38f3 de3c c0ca 643b
000000f0: c417 14bd a258 e83d b41f 21be 8048 7fbb
00000100: 9ca6 9abd cbcf 28be 5033 32be 02e7 92bd
00000110: f033 24bc 90dc 2a3d 28ba 6d3d 20cc bf3b
00000120: 0051 9dbd 62bd b73d c0e8 53bd 580a 4ebd
00000130: 9a20 c13d 0352 2d3e faf6 f43d 041e 3f3d
00000140: cd53 c0bd d6d6 d53d 0a08 ea3d e0a1 27bc
00000150: b50b 0d3e d458 7dbd b1fb 2c3e ffea 31be
00000160: cef3 f63d be79 adbd 6cd9 f2bd 48c0 f83c
00000170: 3282 bd3d 5c5b 25be 5e82 71bd 409c ee3b
00000180: 58a9 03bd 600a c73c 9787 093e 782a 583d
00000190: 4b54 d8bd 585c 813c 6cf5 8d3d 90c5 64bc
000001a0: ee69 b53d e7ad 2c3e 23c4 8abd 5919 093e
000001b0: 109b 57bc fcd7 233d 4e26 1abe 5b7c 0ebe
000001c0: 1950 243e 8fd7 1f3e 9e34 f13d e221 2abe
000001d0: 44f6 1abe ac9c 783d c609 fbbd 8778 113e
000001e0: b2e9 d5bd e1d8 073e cc6b 38bd c108 253e
000001f0: 55c3 2b3e f572 233e a0fc d83c 4b79 333e
00000200: 28ee 0d3d 1a4b c7bd 772d 31be 00ee 763b
00000210: 817b b0bd 3a4b 2fbe 8808 06be 501f e3bd
00000220: 1a8f b53d c58a 28be 2ae1 cfbd f75d 16be
00000230: 9dad 0d3e 70be 563c 6ccb 153d 4eea c83d
00000240: a803 943d cdec 0c3e ae6a e4bd d02c c23c
00000250: 9e46 bcbd e4ba 503d 8f83 19be aae7 d83d
00000260: 72fc 1abe c687 04be d989 1d3e e491 903d
00000270: 4021 333d a67c 25be c59d 94bd 4d6e 34be
00000280: d40f 0e3d 5104 17be 06b2 eabd a3a4 27be
00000290: 0847 32be f349 c1bd ee26 d53d 0923 8bbd
000002a0: 6083 133d 3670 e03d f416 1ebd daaa 60bd
000002b0: 3a19 fabd 14ea 51bd 22d6 cb3d 2624 33be
000002c0: d91d 2a3e a6e6 f63d da83 e43d 3bdb 063e
000002d0: 22dd ae3d 98b3 0cbd 2f0b 203e 7dd2 323e
000002e0: 68f5 8bbc de89 66bd db39 153e 77d4 a6bd
000002f0: ae01 ee3d bb92 0b3e 8d78 073e 64a1 f9bd
00000300: 4822 223d 9098 9fbd 146c 6bbd 0fd5 ecbd
00000310: 00c2 583c b8e4 fc3c 3991 333e 89ab 293e
00000320: cae0 db3d 08f4 4b3d d4f4 09bd 343f 34bd
00000330: e016 073d ae07 e5bd 791a 133e 0fa1 073e
00000340: f2b6 dd3d e0fb 823c f3b5 223e 08e9 253d
00000350: 80a3 4c3d aa83 d83d 4096 e6bc e778 1cbe
00000360: a4e9 2cbe 60f2 96bc d340 0b3e d49c 6c3d
00000370: 5219 25be 0e1f 16be 3861 1dbd 3058 b93c
-0.036001816 -0.10357712 0.1647472 -0.03662294 -0.08346583 0.13587515 0.17477281 0.058589935
0.15045811 0.13921697 0.15779437 -0.047851488 0.0879475 0.12816478 -0.07718232 -0.08373095
0.044933274 -0.16999967 0.1387942 0.09182443 0.1282783 0.17018445 0.05749762 0.17214493
-0.09287113 -0.031997725 -0.16787505 -0.04089269 0.054690152 0.10446982 -0.010002777 0.17489149
-0.026588261 0.10009323 0.12632985 0.12340902 0.14411484 0.17657758 -0.052963607 -0.084001094
0.16897456 -0.075129665 -0.047975525 0.1385117 0.03435719 -0.15999344 -0.059779786 0.13957216
0.069635406 0.13138346 0.03568296 0.011364102 0.07673551 0.010037735 -0.12975794 -0.016066462
0.07579832 0.07495709 0.027215585 0.0034910887 -0.036155477 0.1134503 -0.1573475 -0.0038953125
-0.075513095 -0.16485517 -0.17402387 -0.071729675 -0.0100221485 0.04171425 0.05803886 0.005853191
-0.07681465 0.08971669 -0.05173564 -0.050302833 0.094300464 0.16925816 0.119611695 0.046659485
-0.09390984 0.10441367 0.114273146 -0.010231465 0.13773997 -0.06185229 0.16892888 -0.173748
0.12058221 -0.08470486 -0.11857876 0.030365124 0.092533484 -0.16148132 -0.05896222 0.00728181
-0.03214392 0.02429694 0.1343063 0.052774876 -0.105629526 0.015791103 0.06931576 -0.013963118
0.08858095 0.16863213 -0.06775691 0.13388576 -0.013159528 0.0400009 -0.15053675 -0.13914625
0.1604618 0.15609573 0.11777614 -0.16614488 -0.15133005 0.06069629 -0.122577235 0.14206134
-0.104449645 0.13266326 -0.045024678 0.1611662 0.16773732 0.15961821 0.026487648 0.17526738
0.03465095 -0.09731121 -0.173025 0.003767848 -0.086173065 -0.1711854 -0.13089192 -0.11089957
0.08865185 -0.16459186 -0.101503685 -0.14684282 0.1383576 0.013106927 0.03657095 0.09810315
0.0722726 0.13762207 -0.1115316 0.023703009 -0.09193157 0.050959483 -0.14991592 0.105910614
-0.15135363 -0.12942418 0.15384616 0.070590764 0.04373288 -0.16160831 -0.07256655 -0.17620201
0.034683064 -0.1474774 -0.114597365 -0.16371398 -0.17409909 -0.09437933 0.10407816 -0.06793792
0.03601396 0.109589025 -0.03859611 -0.054850437 -0.12211843 -0.051248625 0.09952952 -0.17494258
0.16612948 0.120557114 0.11157961 0.13169567 0.085382715 -0.03435096 0.15629266 0.17463107
-0.017084792 -0.056283824 0.14572851 -0.08145993 0.11621414 0.13630192 0.1322958 -0.12188986
0.039583474 -0.07792771 -0.05747612 -0.11564075 0.013229847 0.03087078 0.17535867 0.16569342
0.107362345 0.049793273 -0.033680752 -0.044005588 0.0329808 -0.111831054 0.14365567 0.13245033
0.1082591 0.015989244 0.1588972 0.04050544 0.049960613 0.10571988 -0.028147817 -0.15280496
-0.16886002 -0.01842612 0.13598947 0.05776675 -0.1612294 -0.14660284 -0.038422793 0.022625059

fc3.bias f4 [7]
00000000: 5026 2e3d 9e7a 0abe c173 1e3e c8c9 dc3c
00000010: 187a 9f3c 38bc 193d 8081 edbb
0.042517006 -0.13523337 0.15473844 0.026951686 0.019467399 0.037533015 -0.0072481036
