saves/final_ai_memory_npc_1_emotion.pth (torch, 15389 bytes, 6 tensors)

fc1.weight f4 [64, 10]
0.031298816 -0.3077642 0.13138741 -0.06616357 0.09730941 0.14409268 -0.009095937 -0.051954716
-0.09332657 -0.2658104 0.10159913 0.047577024 -0.19814783 0.28135505 -0.095343456 0.2702028
-0.07310827 -0.21983102 0.17073226 -0.24314241 0.22075275 0.044210285 -0.08614795 0.24734202
0.27724966 0.112511784 -0.09659304 -0.1547402 0.059833914 0.10877293 -0.0790848 -0.07081081
0.16069749 -0.22920369 -0.04197812 0.17564878 0.14537957 0.036346406 0.23456869 0.29241136
-0.2031267 -0.19362243 0.14010042 -0.13268887 0.15822998 0.12781993 -0.02925837 -0.12966238
-0.031941056 0.033089876 -0.1493542 0.29749265 0.044073343 0.18590972 0.19657496 -0.097982824
0.09178573 -0.10505514 0.026333213 0.1236375 0.24241933 -0.012782723 0.07459587 -0.066858396
0.12376019 0.21199599 0.07333997 0.015678763 0.2744144 -0.0441283 0.21008131 -0.057915628
-0.09325069 -0.2746701 -0.00034165382 -0.09943187 0.3034921 -0.08924648 0.27338716 -0.012778163
0.102345675 0.2361317 -0.19079219 0.3160117 0.1780285 0.016224086 0.02108568 -0.2473462
0.040267646 -0.1592874 0.17852741 0.026625097 -0.1269515 0.24672928 -0.25759453 -0.003654927
-0.13943268 -0.16987427 0.18322554 -0.100155324 0.13175702 -0.20479584 0.28632787 -0.15117271
-0.3027617 0.2057921 -0.02391553 -0.30495518 -0.04398206 -0.31228432 -0.017271996 0.29628298
0.0980846 0.23893854 -0.3116048 0.046922147 0.24962273 0.21632263 -0.18691438 0.13134173
-0.015697002 -0.29389668 0.07791221 0.28357014 -0.22707623 0.19529375 -0.2665474 -0.21495208
0.117592216 -0.09370701 -0.057326406 0.095698744 0.27177903 -0.109605804 -0.021255076 -0.04420051
0.21276125 -0.2247297 -0.26597476 0.101107955 0.12933683 -0.20144325 0.15522793 -0.19755131
-0.1498745 -0.30514598 0.06328577 -0.2080203 -0.20443152 0.121487886 0.19945207 -0.0009480119
-0.074659094 -0.14826943 -0.22427477 -0.08961603 0.2605401 -0.032592475 0.009281009 -0.24766503
-0.16381891 -0.252876 -0.19246195 0.055051774 0.08398503 0.12586638 -0.30202395 0.0073767304
-0.23579325 0.16981128 0.10524124 -0.2490204 -0.04116872 -0.2642425 0.2627515 0.1935316
-0.10397473 0.12560779 -0.3068761 -0.2996054 0.052969933 0.11755785 -0.053205162 0.046246648
-0.07886182 0.284107 -0.21787906 -0.22117794 -0.06433362 0.2109156 0.08577928 0.28191933
-0.2827866 0.12977925 -0.26793072 0.08956438 -0.30949405 0.119074464 -0.18738142 -0.009159923
0.025331259 0.11263892 0.16704136 -0.24668336 -0.01654452 -0.2574116 -0.23766266 -0.19995101
0.039906472 -0.23332596 -0.2720817 -0.28540495 -0.2273551 0.08664945 0.135328 -0.22566986
0.30181625 0.13051215 -0.09950143 -0.21801883 -0.19345878 0.04689789 -0.097593606 0.22858056
-0.24318738 0.08867043 0.07380885 0.27618268 -0.08826533 -0.22639397 0.20700744 0.17736793
-0.30659264 0.27512887 -0.03131336 0.011874974 0.28124997 -0.11483064 -0.21721923 -0.05258718
-0.06423658 0.2722979 0.041107297 0.105047196 -0.053023368 0.264697 0.26570985 0.022636652
0.3115646 0.30002686 0.17465341 0.07672289 0.07316834 -0.19631624 -0.27065733 0.028467417
00000000: 3033 003d 4593 9dbe 6c8a 063e c480 87bd
00000010: 284a c73d 088d 133e 2007 15bc 78ce 54bd
00000020: 0022 bfbd 4d18 88be 3413 d03d 20e0 423d
00000030: 44e7 4abe c50d 903e 6e43 c3bd 0558 8a3e
00000040: cab9 95bd 621b 61be 70d4 2e3e 53fa 78be
00000050: 020d 623e d815 353d 566e b0bd 3a47 7d3e
00000060: abf3 8d3e 946c e63d 92d2 c5bd 3774 1ebe
00000070: 6814 753d 58c4 de3d 36f7 a1bd 4205 91bd
00000080: e28d 243e 5fb4 6abe 40f1 2bbd 46dd 333e
00000090: 62de 143e f8df 143d c632 703e f1b6 953e
000000a0: 7200 50be f544 46be 7c76 0f3e 97df 07be
000000b0: 0a07 223e 3ae3 023e 40af efbc 37c6 04be
000000c0: a0d4 02bd 4089 073d 4ff0 18be f550 983e
000000d0: 4086 343d 1e5f 3e3e f24a 493e 38ab c8bd
000000e0: 28fa bb3d 2627 d7bd c0b8 d73c a835 fd3d
000000f0: c63c 783e a06e 51bc b8c5 983d 0eed 88bd
00000100: fc75 fd3d 7a15 593e 4433 963d c070 803c
00000110: 0b80 8c3e e0bf 34bd 8e1f 573e f038 6dbd
00000120: 38fa bebd 8fa1 8cbe 0020 b3b9 f0a2 cbbd
00000130: 5163 9b3e dcc6 b6bd 67f9 8b3e 805b 51bc
00000140: 9c9a d13d 82cc 713e 075f 43be 49cc a13e
00000150: 1a4d 363e 60e8 843c e0bb ac3c 5248 7dbe
00000160: b0ef 243d 3c1c 23be e4cf 363e e01c da3c
00000170: 93ff 01be 9aa6 7c3e 6ee3 83be 8087 6fbb
00000180: 71c7 0ebe 85f3 2dbe 7a9f 3b3e 3c1e cdbd
00000190: 50eb 063e 00b6 51be 9199 923e 05cd 1abe
000001a0: 9503 9bbe 2abb 523e 80ea c3bc 1623 9cbe
000001b0: 8826 34bd bbe3 9fbe 007e 8dbc 67b2 973e
000001c0: 94e0 c83d 4eac 743e aa8a 9fbe 7031 403d
000001d0: 1a9d 7f3e ae83 5d3e 7c66 3fbe 727e 063e
000001e0: 0097 80bc a079 96be 7090 9f3d 1b30 913e
000001f0: ac86 68be 16fb 473e e778 88be 661c 5cbe
00000200: 30d4 f03d 76e9 bfbd 18cf 6abd b4fd c33d
00000210: 9f26 8b3e 0279 e0bd 201f aebc 980b 35bd
00000220: 16de 593e 8b1f 66be d82d 88be b011 cf3d
00000230: e070 043e 2447 4ebe 12f4 1e3e e44a 4abe
00000240: b378 19be 183c 9cbe f89b 813d 4603 55be
00000250: 7f56 51be a4ce f83d 2a3d 4c3e 0084 78ba
00000260: dee6 98bd f1d3 17be 49a8 65be 9c88 b7bd
00000270: 8365 853e b07f 05bd 600f 183c e79b 7dbe
00000280: 25c0 27be f778 81be bf14 45be f87d 613d
00000290: 5800 ac3d 1ee3 003e e2a2 9abe 80b8 f13b
000002a0: c973 71be 02e3 2d3e b888 d73d 34ff 7ebe
000002b0: 88a0 28bd cb4a 87be 5d87 863e 262d 463e
000002c0: b4f0 d4bd 549f 003e dd1e 9dbe e165 99be
000002d0: 00f7 583d 2cc2 f03d a8ed 59bd 206d 3d3d
000002e0: 4e82 a1bd 7976 913e b01b 5fbe 787c 62be
000002f0: 58c1 83bd 42fa 573e 0cad af3d bb57 903e
00000300: 68c9 90be dae4 043e 372e 89be 886d b73d
00000310: 0176 9ebe 50dd f33d eae0 3fbe 8013 16bc
00000320: 8083 cf3c 3caf e63d e40c 2b3e 909a 7cbe
00000330: 6088 87bc 74cb 83be d75d 73be f5bf 4cbe
00000340: f874 233d 00ed 6ebe 4b4e 8bbe 9920 92be
00000350: c6cf 68be 4475 b13d 6c93 0a3e 0016 67be
00000360: a987 9a3e faa4 053e 68c7 cbbd 5440 5fbe
00000370: 0f1a 46be 0018 403d 28df c7bd 0611 6a3e
00000380: 1d06 79be d898 b53d 1829 973d d167 8d3e
00000390: 74c4 b4bd d2d3 67be c2f9 533e f09f 353e
000003a0: b6f9 9cbe b1dd 8c3e 7042 00bd 408f 423c
000003b0: ffff 8f3e 542c ebbd b86e 5ebe a865 57bd
000003c0: 788e 83bd a16a 8b3e 2060 283d fc22 d73d
000003d0: 082f 59bd 5d86 873e 1f0b 883e 8070 b93c
000003e0: 6585 9f3e 1f9d 993e 58d8 323e e420 9d3d
000003f0: 48d9 953d 2007 49be 9993 8abe 8034 e93c

fc1.bias f4 [64]
0.018959254 -0.13441809 -0.19751637 0.19416943 -0.081455395 -0.18522471 -0.003841877 0.01834315
-0.18976147 0.09822616 0.22386435 0.06716764 0.11055693 0.2819375 0.137483 -0.07072464
-0.03453681 0.22907951 -0.20789337 0.038853347 0.14792001 -0.14380614 -0.18127272 0.27255604
-0.035847783 0.095091015 0.10454181 -0.27833283 -0.06864077 -0.17890564 -0.077754006 -0.19679326
0.120859176 -0.31435454 -0.30437565 -0.1496209 -0.29400447 -0.061490864 -0.17377646 0.006214589
0.19188002 -0.07228342 0.09975493 -0.0340842 0.28170553 0.21528462 0.13633892 -0.22879764
-0.17998415 0.02256298 -0.12918167 -0.26795408 0.080768764 0.13420945 0.23446396 0.03958577
0.045429647 -0.27694744 -0.12209499 0.17577419 0.045894623 -0.17560768 -0.11110781 0.27925244
00000000: 7050 9b3c e5a4 09be bb41 4abe 5ad4 463e
00000010: 16d2 a6bd 8cab 3dbe 00c8 7bbb 6044 963c
00000020: d550 42be cc2a c93d b23c 653e 308f 893d
00000030: ac6b e23d 1d5a 903e 58c8 0c3e 14d8 90bd
00000040: 7876 0dbd d293 6a3e 00e2 54be b024 1f3d
00000050: 5878 173e eb41 13be 8e9f 39be 778c 8b3e
00000060: 20d5 12bd 14bf c23d 041a d63d a481 8ebe
00000070: 8893 8cbd 0a33 37be 7e3d 9fbd 2c84 49be
00000080: 0485 f73d 14f3 a0be 20d7 9bbe 3936 19be
00000090: c187 96be d8dd 7bbd 75f2 31be c0a3 cb3b
000000a0: 327c 443e 5409 94bd 504c cc3d e09b 0bbd
000000b0: b53b 903e 9273 5c3e 6e9c 0b3e ee49 6abe
000000c0: c44d 38be 00d6 b83c 3348 04be 4731 89be
000000d0: 186a a53d 346e 093e 5217 703e b024 223d
000000e0: 7014 3a3d 0ecc 8dbe f00c fabd 26fe 333e
000000f0: 00fc 3b3d 80d2 33be 7e8c e3bd 2dfa 8e3e

fc2.weight f4 [32, 64]
0.03125675 0.010716036 0.036056668 0.09017518 -0.108942375 0.034759983 0.06516798 -0.08445701
0.034466624 0.017687961 -0.0659025 0.033138916 -0.09766203 0.010014191 0.0547425 -0.070616946
-0.0028996319 0.07030894 -0.043193623 0.08717491 -0.039635792 0.08876069 -0.015377998 0.11930376
-0.007713333 -0.008139923 -0.10162826 -0.11264756 -0.056446567 0.08908677 -0.026960865 -0.08856271
0.08641569 -0.0013289601 0.027362108 -0.1038578 -0.020672426 -0.07250509 -0.06695062 -0.08487187
0.11697692 0.08074723 -0.08949791 0.010499224 -0.08348721 -0.035253167 -0.015308052 0.046339855
0.098414645 0.1026444 -0.08314741 0.008976474 -0.031381726 0.08175543 0.0035221577 0.1043116
0.07916859 -0.064509645 0.10698357 0.08574548 0.024037927 -0.011327639 -0.029749274 -0.051967397
0.077984646 0.107971385 0.0026927143 -0.090539426 0.12334399 -0.02961734 0.006228715 0.046393663
0.12383808 0.035917535 -0.063859835 -0.056224808 -0.024024397 -0.08780262 0.08801027 0.057516783
0.059603885 -0.038708836 -0.05167575 -0.026109666 0.044265494 0.08657783 -0.0658655 0.058158234
-0.11981158 -0.09576203 -0.016146675 0.11444433 -0.110038266 0.015527159 -0.07030316 -0.06557046
-0.039311543 0.11151393 -0.07689825 -0.119075865 -0.026792154 0.022033304 -0.119341075 -0.106555864
-0.03172426 -0.076516226 0.0021071285 -0.010007858 0.05948074 0.019271582 -0.05828449 0.012308359
-0.046338797 0.11817585 -0.024148434 -0.021063432 -0.0052978396 -0.025356174 -0.07334632 0.08130224
0.11951092 -0.0026625246 -0.056827664 -0.085538924 0.021611229 0.12247707 0.11556262 -0.04463668
-0.073978394 -0.031135708 0.08279754 0.030953333 -0.08684355 0.113327205 -0.06712507 0.106309086
0.051104844 -0.047533035 0.017813772 -0.038880482 0.006699711 -0.013579056 -0.026835486 -0.032805666
0.11733344 -0.04179722 0.06850374 0.04370907 0.081760034 -0.013563246 0.017111108 0.11262064
0.043297693 0.022760823 -0.012625024 -0.002223894 -0.109213054 0.019769996 0.014219001 -0.06370738
0.0151332915 -0.040492862 0.0776166 -0.11046064 0.057726428 -0.0015252829 -0.05778013 0.03808683
-0.10534912 -0.051969185 -0.09904538 -0.10222539 0.09824078 0.08055557 0.11294465 -0.009676501
0.07215281 -0.12118839 -0.041167498 0.11829467 -0.008550972 -0.05086115 -0.049783304 -0.09074424
0.06706114 0.0042046905 0.040204033 -0.031187192 -0.013290316 -0.09654598 -0.037393704 -0.0918206
0.055560514 0.012338355 0.112194836 0.09763023 -0.070630684 -5.6251884e-05 -0.012623176 -0.029323965
-0.0034153461 -0.09553656 -0.034749895 0.12453112 0.014780447 0.03278795 0.080518514 -0.10607709
-0.0018402934 0.08197506 0.06500059 -0.059948653 0.11922243 -0.058912948 0.08243638 0.0031609237
-0.09321734 -0.02790451 0.011523068 0.0073176324 -0.101413876 -0.08164942 7.672608e-05 0.05944884
-0.119271934 -0.006760046 -0.11123574 0.112317294 0.031531587 -0.057925105 0.09765257 0.088028684
0.034418806 0.06150204 -0.062133253 0.058486402 -0.111973256 -0.025098383 0.026396304 0.124116376
0.019986615 -0.10363671 0.006385982 -0.071260616 -0.11009072 0.021541327 -0.10222286 -0.0779244
0.09862517 -0.045178846 0.052503213 -0.07991715 0.044057325 -0.041414768 -0.041364998 -0.09709418
00000000: 1407 003d 5092 2f3c 28b0 133d c4ad b83d
00000010: 2e1d dfbd 7c60 0e3d ca76 853d ccf7 acbd
00000020: e02c 0d3d 58e6 903c e4f7 86bd acbc 073d
00000030: 0803 c8bd 9012 243c ac39 603d 9e9f 90bd
00000040: c007 3ebb 22fe 8f3d cceb 30bd c288 b23d
00000050: 2459 22bd 2ac8 b53d 00f4 7bbc 8855 f43d
00000060: 20c0 fcbb 505d 05bc 7a22 d0bd c4b3 e6bd
00000070: 8434 67bd 2073 b63d 08dd dcbc 5e60 b5bd
00000080: b6fa b03d 8030 aeba 8026 e03c 66b3 d4bd
00000090: 3859 a9bc 8c7d 94bd 681d 89bd 4ed1 adbd
000000a0: 9891 ef3d ce5e a53d ae4a b7bd f004 2c3c
000000b0: 58fb aabd a065 10bd a0ce 7abc dcce 3d3d
000000c0: 9e8d c93d 3a37 d23d 3049 aabd 1012 133c
000000d0: 208a 00bd 646f a73d 00d4 663b 52a1 d53d
000000e0: 2423 a23d a21d 84bd 341a db3d 549b af3d
000000f0: 30eb c43c 9097 39bc c0b4 f3bc c4db 54bd
00000100: 6ab6 9f3d 1a20 dd3d 4078 303b bc6c b9bd
00000110: c69b fc3d 10a0 f2bc 401a cc3b 4807 3e3d
00000120: d29e fd3d 441e 133d f2c8 82bd fc4b 66bd
00000130: d0ce c4bc dcd1 b3bd ba3e b43d b896 6b3d
00000140: 3423 743d 288d 1ebd f4a9 53bd f0e3 d5bc
00000150: bc4f 353d b84f b13d 7ee4 86bd 5437 6e3d
00000160: c65f f5bd e21e c4bd 0846 84bc ca61 ea3d
00000170: be5b e1bd a065 7e3c 1afb 8fbd ce49 86bd
00000180: 2405 21bd 6a61 e43d d47c 9dbd 0cde f3bd
00000190: 387b dbbc 307f b43c 1869 f4bd f639 dabd
000001a0: 4cf1 01bd 8ab4 9cbd c017 0a3b 00f8 23bc
000001b0: 14a2 733d 70df 9d3c b8bb 6ebd 00a9 493c
000001c0: c0cd 3dbd 2e06 f23d f0d2 c5bc 388d acbc
000001d0: 8099 adbb c0b7 cfbc 9836 96bd ca81 a63d
000001e0: 24c2 f43d c07d 2ebb 20c4 68bd 082f afbd
000001f0: 080a b13c 42d5 fa3d 18ac ec3d f4d4 36bd
00000200: fc81 97bd 5010 ffbc c291 a93d d891 fd3c
00000210: 08db b1bd 1818 e83d de78 89bd 94b8 d93d
00000220: 5053 513d 00b2 42bd 30ee 913c 2441 1fbd
00000230: 4089 db3b b07a 5ebc 18d6 dbbc 3c5f 06bd
00000240: 844c f03d 9033 2bbd b04b 8c3d 4808 333d
00000250: ce71 a73d 6038 5ebc 982c 8c3c a6a5 e63d
00000260: ec58 313d e874 ba3c 30d9 4ebc c0be 11bb
00000270: 18ab dfbd b0f4 a13c d0f6 683c 0479 82bd
00000280: a0f1 773c d8db 25bd 74f5 9e3d 3039 e2bd
00000290: 8c72 6c3d 00ec c7ba dcaa 6cbd f000 1c3d
000002a0: 48c1 d7bd a4dd 54bd 4ed8 cabd 8c5b d1bd
000002b0: 7632 c93d 52fa a43d 864f e73d 308a 1ebc
000002c0: dac4 933d 9e31 f8bd 409f 28bd 7a44 f23d
000002d0: 6019 0cbc c853 50bd 94e9 4bbd 1ed8 b9bd
000002e0: 5a57 893d 80c7 893b fcac 243d 487c ffbc
000002f0: a0bf 59bc e6b9 c5bd 242a 19bd 700c bcbd
00000300: 6c93 633d d026 4a3c 68c6 e53d 5cf2 c73d
00000310: d2a6 90bd 00f0 6bb8 70d1 4ebc d038 f0bc
00000320: 00d4 5fbb aca8 c3bd e855 0ebd 2c0a ff3d
00000330: b029 723c a84c 063d e4e6 a43d f23e d9bd
00000340: 0036 f1ba 8ae2 a73d 081f 853d b88c 75bd
00000350: e42a f43d b44e 71bd 68d4 a83d 8027 4f3b
00000360: bce8 bebd 0098 e4bc 40cb 3c3c c0c8 ef3b
00000370: 14b2 cfbd d037 a7bd 00e8 a038 a080 733d
00000380: d844 f4bd 6083 ddbb 90cf e3bd 9c06 e63d
00000390: 4427 013d e042 6dbd 12fe c73d 6248 b43d
000003a0: bcfa 0c3d 90e9 7b3d 707f 7ebd 708f 6f3d
000003b0: 3c52 e5bd 209b cdbc 103d d83c ba30 fe3d
000003c0: f8ba a33c 7c3f d4bd 8041 d13b 16f1 91bd
000003d0: 3e77 e1bd 7077 b03c 385a d1bd d496 9fbd
000003e0: fefb c93d 740d 39bd 9c0d 573d 9aab a3bd
000003f0: 7475 343d 88a2 29bd 586e 29bd 50d9 c6bd

fc2.bias f4 [32]
-0.11673246 0.112533644 0.11437075 0.04899873 0.022944927 -0.073103994 0.004115835 -0.11766617
0.11861557 0.022687286 0.05700685 0.079315946 -0.019774914 0.011653781 -0.05067557 0.085486054
0.021698505 0.038060337 -0.019417495 0.0019401461 0.035668015 0.06239395 0.07496092 -0.111306876
-0.11811383 -0.08423777 0.023424491 0.11774409 -0.09340881 0.09535813 0.0068591237 -0.047444165
00000000: 6e11 efbd 0a78 e63d 363b ea3d e4b2 483d
00000010: 00f7 bb3c 8cb7 95bd 20de 863b f6fa f0bd
00000020: b8ec f23d b0da b93c 0480 693d 6670 a23d
00000030: 00ff a1bc 80ef 3e3c 3091 4fbd 5013 af3d
00000040: 10c1 b13c 28e5 1b3d 7011 9fbc 804c fe3a
00000050: a018 123d cc90 7f3d 1c85 993d dcf4 e3bd
00000060: aae5 f1bd da84 acbd b8e4 bf3c d023 f13d
00000070: 1e4d bfbd 204b c33d 80c2 e03b d054 42bd

fc3.weight f4 [7, 32]
0.10562734 -0.011409357 -0.1491091 -0.053086884 -0.06659531 -0.16715117 -0.11727755 -0.1591045
0.00605081 0.13261642 -0.06843908 -0.13222338 0.16636379 0.061360374 -0.03415534 0.151078
0.024790287 -0.059459403 -0.11639716 0.08675291 0.16512047 0.12322761 0.13868468 -0.089166775
-0.032582372 -0.056992635 0.12896119 -0.11430767 -0.11938976 -0.032000273 -0.112093545 -0.09567992
0.06265719 -0.04518175 -0.04792507 -0.020604387 -0.10298277 0.17274152 0.16793476 0.16193955
-0.10748774 0.030316949 0.09540172 -0.056054696 -0.008210123 -0.07991491 -0.06517656 0.07257722
0.16363026 -0.16781275 -0.027143091 0.1116475 0.09844701 -0.005827427 -0.07287213 0.13332273
0.13369934 0.14171146 0.11594926 -0.025766417 0.13264959 -0.086713135 0.13199799 -0.071139604
0.14389919 0.04349789 -0.022148192 0.12353684 -0.0057453513 0.025448456 0.15679027 0.12286566
-0.119226225 0.09021734 0.14958058 0.016217366 0.09284882 -0.11833204 0.16057248 0.15625514
-0.040091813 0.050621882 -0.1449914 0.07073785 0.13568686 0.15836366 -0.13981776 0.1307898
-0.016133353 -0.117888734 -0.124540605 -0.11697763 0.08788712 -0.13549933 -0.030640647 -0.054444894
-0.14841774 0.14752562 0.12660362 0.08080952 -0.14385821 0.049703777 0.115078524 -0.009270698
0.01487489 0.08840586 -0.07305528 -0.13836724 0.117932364 0.15475775 0.0049382597 -0.0050367415
-0.0021657795 -0.0564446 -0.13450556 0.07691084 0.017462179 -0.0077465326 0.030916527 0.10547842
-0.098299555 0.13406806 0.0055584908 0.013430595 -0.08740224 0.08596818 0.13372104 0.081773385
-0.14158101 -0.042120323 -0.08644902 0.12649252 0.17559157 -0.031525448 0.073517665 -0.0023332685
-0.08037804 -0.09015038 -0.15947548 0.04473479 0.07459797 -0.09566342 0.079925045 -0.12335219
-0.13290411 0.13180973 -0.047093555 -0.15483537 -0.12031956 0.1749156 -0.08915459 -0.08359707
0.044604644 -0.13391982 0.09195198 -0.06820532 0.06669271 -0.12115014 0.07982601 -0.06156434
-0.013283923 0.15086319 0.07934375 0.04964049 0.032443732 -0.1519628 0.027628526 0.008985519
-0.045800596 0.11069818 0.11067738 -0.07900075 -0.120471984 -0.17249356 -0.04146342 0.13842832
-0.019471824 -0.023743168 -0.062793344 -0.104965694 -0.10812477 0.027073875 -0.13922353 -0.0062759817
-0.16037154 -0.034351602 -0.14520654 -0.16441505 -0.115297735 -0.0008071512 0.060976 -0.060426295
-0.12469661 -0.15142079 0.104618415 0.119608864 0.17252351 -0.11605629 -0.01734908 -0.16028327
-0.015480727 0.10853754 0.047810525 -0.113201 0.14286081 -0.071222946 0.10782026 -0.16963272
-0.16083094 0.051920086 -0.11537252 0.06187147 -0.04598759 -0.088194765 0.1465144 0.09412585
0.110697344 -0.08372482 0.016174078 0.003785044 0.017513782 -0.04938616 -0.124367654 -0.11427534
00000000: 2653 d83d 50ee 3abc 0eb0 18be a271 59bd
00000010: 1f63 88bd ad29 2bbe 362f f0bd 4aec 22be
00000020: e045 c63b 99cc 073e ca29 8cbd 9165 07be
00000030: 455b 2a3e 0455 7b3d 78e6 0bbd 31b4 1a3e
00000040: 0015 cb3c b48b 73bd a261 eebd 82ab b13d
00000050: 5715 293e c25e fc3d 5b03 0e3e 129d b6bd
00000060: 1875 05bd 1c71 69bd 670e 043e 241a eabd
00000070: 9e82 f4bd b812 03bd 4d91 e5bd d5f3 c3bd
00000080: 6a52 803d 8010 39bd 144d 44bd 88ca a8bc
00000090: a1e8 d2bd 27e3 303e 17f7 2b3e 7bd3 253e
000000a0: 8822 dcbd 405b f83c fa61 c33d 9c99 65bd
000000b0: c083 06bc 6eaa a3bd 4a7b 85bd 5ea3 943d
000000c0: b18e 273e 1bd7 2bbe 305b debc 72a7 e43d
000000d0: 969e c93d 00f4 bebb fc3d 95bd c185 083e
000000e0: 7be8 083e cf1c 113e ce76 ed3d 1814 d3bc
000000f0: 4bd5 073e a896 b1bd 7b2a 073e a4b1 91bd
00000100: 4f5a 133e d82a 323d 2070 b5bc e200 fd3d
00000110: 8043 bcbb 4879 d03c a18d 203e fea0 fb3d
00000120: e12c f4bd dec3 b83d a72b 193e 48da 843c
00000130: 8627 be3d 1258 f2bd 1d6d 243e 5901 203e
00000140: 5037 24bd e458 4f3d a078 14be 02df 903d
00000150: 7ff1 0a3e 152a 223e 632c 0fbe c3ed 053e
00000160: 182a 84bc a66f f1bd 250f ffbd f891 efbd
00000170: 2afe b33d 56c0 0abe 1802 fbbc 9c01 5fbd
00000180: d2fa 17be f510 173e 61a4 013e 767f a53d
00000190: 914f 13be 3096 4b3d 4aae eb3d 20e4 17bc
000001a0: d0b5 733c 220e b53d 029e 95bd 24b0 0dbe
000001b0: 8686 f13d d178 1e3e 20d1 a13b 400b a5bb
000001c0: c0ef 0dbb 7432 67bd d3bb 09be 6e83 9d3d
000001d0: d80c 8f3c a0d6 fdbb a844 fd3c 1205 d83d
000001e0: 4751 c9bd 2349 093e 0024 b63b 000c 5c3c
000001f0: f2ff b2bd 1610 b03d 2bee 083e ce78 a73d
00000200: 9dfa 10be 5c86 2cbd 2f0c b1bd 4187 013e
00000210: 47ce 333e d420 01bd 6e90 963d c0e9 18bb
00000220: 3e9d a4bd c3a0 b8bd 8a4d 23be d43b 373d
00000230: d2c6 983d 2feb c3bd beaf a33d 13a0 fcbd
00000240: 0418 08be 21f9 063e 2ce5 40bd 2a8d 1ebe
00000250: 1a6a f6bd 131d 333e af96 b6bd f134 abbd
00000260: 5cb3 363d 4722 09be 5251 bc3d 3baf 8bbd
00000270: 3096 883d 911d f8bd d27b a33d e42a 7cbd
00000280: d0a4 59bc e17b 1a3e fa7e a23d d453 4b3d
00000290: b8e3 043d 239c 1bbe 3855 e23c 0038 133c
000002a0: 6899 3bbd bab5 e23d d2aa e23d 25cb a1bd
000002b0: 04ba f6bd 27a2 30be 8cd5 29bd 27c0 0d3e
000002c0: 6083 9fbc 0881 c2bc cc99 80bd 41f8 d6bd
000002d0: 8570 ddbd 08ca dd3c 9d90 0ebe c0a6 cdbb
000002e0: 7038 24be 44b4 0cbd 06b1 14be 6b5c 28be
000002f0: 3821 ecbd 0097 53ba f8c1 793d 9081 77bd
00000300: f060 ffbd 0d0e 1bbe 2e42 d63d 7ef5 f43d
00000310: 01aa 303e ecae edbd a81f 8ebc 4c21 24be
00000320: e0a2 7dbc ee48 de3d f8d4 433d edd5 e7bd
00000330: 1b4a 123e 56dd 91bd ded0 dc3d 33b4 2dbe
00000340: deb0 24be 28aa 543d 6e48 ecbd f06c 7d3d
00000350: 7c5d 3cbd 759f b4bd df07 163e 0ec5 c03d
00000360: 4ab5 e23d eb77 abbd 807f 843c 800e 783b
00000370: 1079 8f3c 2449 4abd 78b4 febd 3109 eabd

fc3.bias f4 [7]
0.04345058 0.16592021 0.12931503 0.1442848 0.025488332 -0.032418013 -0.07841067
00000000: 3cf9 313d fde6 293e 296b 043e 65bf 133e
00000010: e8cc d03c c0c8 04bd c695 a0bd
