saves/final_ai_memory_player_1_decision.pth (torch, 27469 bytes, 6 tensors)

fc1.weight f4 [64, 20]
000000 4e e8 28 be 98 75 2d 3d 28 88 d9 bc 4c 24 90 3d
       -0.16494867 0.042348474 -0.026554182 0.07038173
000010 50 d8 1b 3e 60 03 4a be cb 95 08 be 0c 0c 06 bd
       0.15219235 -0.1972785 -0.13338391 -0.032726333
000020 cc 85 16 bd 94 5d 9a bd 06 ab a3 bd c0 c2 1a bc
       -0.036748692 -0.0753738 -0.079916045 -0.009445846
000030 ba 45 29 be 00 20 c8 3c 1f 28 2f be e8 c4 cb bc
       -0.16530505 0.024429321 -0.17105149 -0.024874166
000040 88 6b ca bd 42 e8 a8 bd 80 b9 2a 3c 24 2d 1c bd
       -0.09883791 -0.08247425 0.010420203 -0.038128987
000050 2c 07 ac 3d e0 dd 43 3e 28 3c e9 bc ec d5 33 3e
       0.083998054 0.19127607 -0.028471068 0.17562073
000060 84 84 de 3d c8 c8 0b bd 50 e4 65 3d b2 ed 39 be
       0.10865119 -0.034127027 0.05612594 -0.1815708
000070 98 c4 fd 3d 9c 9f 4d 3e 69 99 07 be 88 cd 95 bd
       0.12391013 0.20080417 -0.13242115 -0.073145926
000080 f0 c8 38 bc 70 ef d1 3d 40 c1 76 3d ae 93 07 be
       -0.011278376 0.10250747 0.06024289 -0.13239929
000090 58 f0 4e 3d 9c 9c 50 3e fe 48 88 bd b0 0c 7e bc
       0.05052218 0.20372242 -0.06654547 -0.015505955
0000a0 74 c9 a3 3d a1 98 54 be a8 4b 29 3e 44 98 2a 3e
       0.079974085 -0.20761348 0.16532767 0.16659647
0000b0 40 c2 ab 3d ff 96 20 be 10 c2 46 3e 98 5c 3b 3e
       0.083866596 -0.156826 0.19409966 0.1829704
0000c0 44 35 b2 bd e4 e6 1f be 4e 0e ae bd 28 ea 96 3d
       -0.08701566 -0.15615422 -0.08498822 0.073688805
0000d0 a4 15 12 3e fc db 4e bd 5d 9a 08 be c0 6d 85 bb
       0.14266068 -0.050502762 -0.13340135 -0.004071921
0000e0 1d b1 5c be d8 dd f6 3d 78 cb f1 3d 08 d1 c9 3c
       -0.21551938 0.12054032 0.11806387 0.024635807
0000f0 ca 56 44 be ba f3 d4 bd 48 c1 cc 3c d5 78 56 be
       -0.19173732 -0.1039805 0.024994507 -0.20944531
000100 08 d1 8a 3d 50 45 44 3e 17 c5 63 be 5e f1 0b be
       0.06778151 0.19167066 -0.22243153 -0.13666293
000110 c6 ab 35 3e 8c b3 3d be 50 ca 2b 3e a8 85 2e be
       0.17741308 -0.18525523 0.16776395 -0.17043173
000120 70 ad ee 3c 20 02 17 3c 59 b5 31 be 72 f6 01 be
       0.029135436 0.009216815 -0.17354335 -0.12691668
000130 de b6 28 be 1a 7a 25 3e ae 85 13 be 82 30 1a 3e
       -0.16476008 0.1615986 -0.14406464 0.15057567
000140 24 ce 4d 3e e4 1a 09 3e 8c 45 3c 3e c8 c4 a0 3d
       0.20098168 0.13389164 0.18385905 0.07850033
000150 e4 fa 68 bd 68 41 9e bc 66 87 61 be 80 a4 5b be
       -0.056879893 -0.019318298 -0.22024307 -0.2144947
000160 dc 25 82 3d 2a 97 43 3e 38 b4 46 bd 52 c2 08 3e
       0.06354877 0.19100633 -0.048511714 0.13355377
000170 66 c0 0a 3e a8 2d 0c 3e 48 55 5e 3e e0 1a 5a bd
       0.13549957 0.13689291 0.2171222 -0.053248286
000180 99 1d d5 bd 52 ed 8a bd 26 7e aa bd c8 1a cf 3d
       -0.10406036 -0.067835465 -0.08324842 0.1011253
000190 2a 72 0d 3e b6 fc 06 be 08 c1 0f bd 38 b7 f7 bc
       0.13813081 -0.13182339 -0.0350962 -0.030238733
0001a0 b0 9b df 3c c0 dc 57 3b c8 d4 43 be 2a 7f 31 be
       0.027295917 0.0032937974 -0.19124138 -0.17333665
0001b0 d8 db 86 bd d4 68 a3 3d ec d8 59 3e c0 d4 7f bd
       -0.065849006 0.07978979 0.21274155 -0.062458754
0001c0 28 0f b8 3c 74 a7 0a be 56 99 63 be c8 4a 8c 3d
       0.022468165 -0.13540441 -0.22226462 0.06850201
0001d0 ac fe 5a 3e c8 4e 14 bd 80 d6 7c 3b 18 83 1e 3e
       0.21386212 -0.036207944 0.003858 0.15479696
0001e0 3f 99 14 be 42 43 8c bd 54 a3 2b bd a8 3e fd bc
       -0.14511584 -0.06848766 -0.04190381 -0.030913666
0001f0 98 b7 21 be e8 e5 99 bc 72 a0 2b be 36 53 01 be
       -0.15792692 -0.018786386 -0.16760424 -0.12629399
000200 6e 07 8f bd 3c f5 f1 bd 2c 44 1c 3e 9c 03 36 3e
       -0.06983839 -0.11814353 0.1526038 0.17774814
000210 98 40 3b 3d a6 16 c3 bd b8 ac 8e bc 6a ec 48 3e
       0.0457159 -0.09525804 -0.017416343 0.19621435
000220 70 a5 0a 3e 00 73 01 be ec cc 3a 3e 15 fa 4a be
       0.13539672 -0.12641525 0.18242234 -0.19821961
000230 6a b2 16 be 88 e3 14 3e 5e 5e 11 be dc 66 ec bd
       -0.14716497 0.14539921 -0.14196154 -0.11543056
000240 60 3a e4 bd 90 cb 12 3c 95 af 0e be 98 83 09 bd
       -0.11143947 0.008959666 -0.13934167 -0.033572763
000250 50 22 12 3d 88 53 b1 3d 6e 25 44 3e 38 00 08 be
       0.035677254 0.086585104 0.19154903 -0.13281333
000260 1e 1c 32 be e0 6f 3c be 5e 75 30 3e b4 1c b5 3d
       -0.17393538 -0.18402052 0.17232272 0.08843365
000270 50 d6 c1 3c ff 65 3a be 0c 38 38 3e 3e aa 4a 3e
       0.023661762 -0.18202971 0.1799013 0.19791505
000280 06 ae 47 be f0 03 f1 3d 60 16 90 3b 05 04 d2 bd
       -0.19499978 0.11768329 0.0043971986 -0.10254673
000290 20 4f 4a bc 4c f3 0c be 4c a0 99 bd 76 b2 80 bd
       -0.012347966 -0.13764685 -0.07501277 -0.06284039
0002a0 88 ae fb 3d 40 81 e1 bb 06 76 1b 3e 8c 3a 63 bd
       0.122891486 -0.006881863 0.15181741 -0.055475757
0002b0 82 bd 28 3e e0 e0 2e bd ba 8e af bd 24 fe 5f bd
       0.16478541 -0.042694926 -0.08572145 -0.054685727
0002c0 10 64 19 be e8 86 0a 3d ea 76 01 be 2e 15 57 3e
       -0.14979577 0.033820063 -0.12643018 0.21004173
0002d0 d8 81 d5 bc 44 68 51 3e f2 08 27 3e 38 55 ed 3d
       -0.02606289 0.2044993 0.16312006 0.1158852
0002e0 64 8b 93 3d e0 dd 31 be 80 cd cd bb b2 bb 0f be
       0.07204321 -0.17369795 -0.006280601 -0.14036444
0002f0 a0 dc 2e bd d4 06 9d bd e6 70 19 3e 66 25 89 bd
       -0.042690873 -0.07667318 0.14984474 -0.06696586
000300 d4 40 f0 3d d8 58 53 bd 7a c5 58 be d0 f9 75 bc
       0.11731115 -0.0515984 -0.21169081 -0.015013173
000310 74 1d 86 bd f9 e5 0a be be 43 b0 bd 2a cc 59 be
       -0.065485865 -0.1356429 -0.08606671 -0.21269289
000320 b8 0f d3 3d 70 29 57 3d 14 f3 43 bd 38 42 db 3d
       0.103057325 0.052529752 -0.04783924 0.107059896
000330 d6 ab db bd d2 45 31 3e a0 a9 59 3d 7c 6c b6 3d
       -0.107261345 0.1731179 0.053140283 0.089074105
000340 90 a1 2f 3e 48 e0 c8 3d eb 65 db bd 00 a0 bd bd
       0.17151475 0.09808403 -0.10712799 -0.09259033
000350 c6 8a be bd 36 64 9c bd 9b 48 31 be c0 17 33 bc
       -0.09303813 -0.07636301 -0.17312853 -0.010930955
000360 48 71 39 3d 2a 1e ef bd c8 77 ee bc 88 fc 09 3e
       0.04527405 -0.11675675 -0.02910985 0.1347524
000370 5a b3 d1 bd 7a 09 26 3e bc 69 22 be 9e e4 40 be
       -0.10239287 0.16214553 -0.15860647 -0.1883721
000380 10 80 d9 3c d6 a6 5a 3e e0 d3 a4 3c 50 20 95 3d
       0.026550323 0.21352705 0.020120561 0.07281554
000390 80 1b 5d 3d 40 ca e5 bb f8 61 9d 3c 66 54 33 be
       0.053981304 -0.0070126355 0.019211754 -0.17512664
0003a0 10 2c 2e be ea 46 31 3e a1 2d 60 be 80 58 7a 3b
       -0.17008996 0.17312208 -0.21892406 0.0038199723
0003b0 3e 05 b0 bd 6f 01 62 be 41 7f 62 be 6c 2b 1e bd
       -0.0859475 -0.2207086 -0.22118856 -0.03861563
0003c0 bc 94 c9 3d dc 5f 2f bd 30 8d 03 3e 08 0d 23 3e
       0.09842822 -0.042816028 0.12846828 0.1592294
0003d0 48 c4 76 3d b4 c1 da 3d c1 33 1a be 58 0e 5c bd
       0.060245782 0.10681477 -0.15058805 -0.053724617
0003e0 00 ea 2c bb dc 6f c6 bd d8 71 6c 3d ba 75 51 3e
       -0.0026384592 -0.09689304 0.057725757 0.20455065
0003f0 d0 50 0a 3d ce 95 53 be c0 ec 5e be 4c a2 42 be
       0.033768475 -0.20662615 -0.2177 -0.19007224

fc1.bias f4 [64]
000000 78 42 a0 bd 49 67 3b be 48 76 2f 3e 47 96 d6 bd
       -0.07825178 -0.18301119 0.17134964 -0.10477882
000010 16 db 0d 3e 5e 57 1d 3e 04 67 7b bd e0 b8 4b bd
       0.13853106 0.15365359 -0.06137754 -0.049736857
000020 4e 3f 1c be 00 cb 73 bc 54 af 17 3e 96 9b 23 be
       -0.15258524 -0.014879942 0.14812976 -0.1597732
000030 f4 69 60 be 74 1c a1 bd ac 0a 01 3e 8a e5 5c 3e
       -0.21915418 -0.07866755 0.12601727 0.21571937
000040 0e 46 38 3e 70 3e b2 3d 58 59 01 3d 00 0e 02 ba
       0.17995474 0.08703315 0.031579345 -0.00049611926
000050 cc 56 53 be 74 80 0a 3e 80 b2 95 bd 10 c2 51 3c
       -0.20638579 0.13525563 -0.07309437 0.012802616
000060 f4 48 b7 3d f8 92 01 3e 9d a1 d0 bd 30 b6 8f 3c
       0.089494616 0.1265372 -0.10187075 0.017542928
000070 c2 3a 8b bd 20 07 69 3d e7 1c 48 be c1 11 ff bd
       -0.067983165 0.05689156 -0.19542275 -0.12454558
000080 a0 ca d7 3c 84 04 cf 3d 00 3d 8f bc 12 81 84 bd
       0.026341736 0.10108283 -0.017485142 -0.06469931
000090 7f 6b 4c be f0 f7 52 3d 20 92 01 be 00 8b 71 3b
       -0.19962882 0.051505983 -0.12653399 0.0036856532
0000a0 60 c1 f2 bd ce 3b 4d 3e 14 dd 24 bd 2c 83 ce bd
       -0.118532896 0.20042345 -0.0402499 -0.10083613
0000b0 18 27 7d bd 02 09 15 be 54 72 ed 3d 58 cb 40 3e
       -0.06180486 -0.14554217 0.11594072 0.1882757
0000c0 54 27 37 3e 25 35 26 be e4 a8 3c 3e 68 18 1f 3d
       0.17886096 -0.1623121 0.18423802 0.038841635
0000d0 1a 0a 2f 3e 68 f9 df 3d 00 cc 5a be 90 2c dc bc
       0.17093697 0.10936242 -0.21366882 -0.026876718
0000e0 50 c7 53 3d 70 f1 f9 3d 9c 8e 3d bd 79 74 1a be
       0.05170375 0.12204254 -0.04627858 -0.15083493
0000f0 72 9d 5b 3e 30 d4 00 bd 32 b1 48 3e 26 e4 24 3e
       0.2144678 -0.031452358 0.19598845 0.16102657

fc2.weight f4 [64, 64]
000000 7c 9b 4c 3d 28 e6 8a 3d 38 d3 94 bc 24 60 25 3d
       0.04995297 0.0678218 -0.018167123 0.04037489
000010 54 8c 36 bd d0 41 cb 3c 3a 0f f6 3d 00 b2 c8 3d
       -0.04456742 0.024811655 0.12014623 0.09799576
000020 28 c4 72 bd 14 e7 05 bd e2 fe 82 3d d8 78 ee 3c
       -0.0592691 -0.032691076 0.06396271 0.029110357
000030 84 bf 04 bd e8 11 82 3d ac ae d6 3d d6 9b 84 3d
       -0.032409206 0.063510716 0.10482535 0.06475036
000040 a6 c3 fc bd 44 1a 00 bd 70 8c 8d bc b4 72 d4 bd
       -0.123420045 -0.03127505 -0.01727888 -0.103734404
000050 f8 5e 3d bd a0 a8 28 3c c0 9a c8 bb 98 f5 ca 3c
       -0.046233147 0.01029411 -0.0061219633 0.024775311
000060 94 20 3c 3d 08 a9 b7 3c 28 31 85 bc e8 69 ac bd
       0.045929506 0.022419468 -0.016258791 -0.084186375
000070 04 ba 1c 3d 00 02 f3 bb a8 4c ab 3d 3c f7 c5 bd
       0.038263336 -0.00741601 0.083642304 -0.09666297
000080 78 f6 ac bd 16 de d3 3d 38 39 51 bd 7a 02 dd 3d
       -0.08445448 0.10345094 -0.05107996 0.10791488
000090 c8 e8 cb 3c c0 3c f9 bc c2 f0 e7 3d f4 64 42 3d
       0.024891272 -0.030424476 0.11325218 0.047459558
0000a0 8c cd 49 3d 40 6e 9f bd 00 b7 bc bc dc 96 0d 3d
       0.04926829 -0.077847004 -0.02303648 0.0345677
0000b0 f0 20 03 3d 70 03 6d bd ea 4e b3 bd 5e 97 d5 3d
       0.032013834 -0.057864606 -0.08755286 0.104292616
0000c0 06 c6 a5 3d 70 f7 e6 bc ca a8 94 3d ac 2f b0 3d
       0.080944106 -0.02819416 0.072587565 0.08602843
0000d0 3e 0b af 3d d0 17 36 3c b0 55 cb bc 70 c6 d9 3d
       0.08547066 0.011114076 -0.024821132 0.10633552
0000e0 70 df cc 3c 2e 14 f3 bd 56 44 e5 bd 00 3e 58 bb
       0.025008887 -0.11869083 -0.11194675 -0.003299594
0000f0 7c 35 6e bd 40 db 24 3d 90 c5 73 3c 58 32 a0 bc
       -0.058156475 0.040248156 0.014878646 -0.019555256
000100 e0 d2 91 bb 00 27 78 3b 7e ef d0 bd 78 9c 87 bd
       -0.004450187 0.0037865043 -0.102019295 -0.06621641
000110 bc b9 44 bd 80 98 53 bd a4 7f ea 3d aa ed e3 3d
       -0.048028693 -0.051659107 0.11450127 0.11129315
000120 d4 25 ea 3d d6 f5 9c bd 40 65 87 3b 84 f2 a8 bd
       0.114329964 -0.07664077 0.004131943 -0.08249381
000130 40 e5 1a bb 80 22 b5 3a e4 56 af 3d d4 09 0f bd
       -0.0023635179 0.0013819486 0.08561495 -0.034921482
000140 f8 eb 69 bd 40 cc 62 bc e8 4f 6c 3d c8 3b cd 3c
       -0.057109803 -0.013842642 0.057693392 0.02505292
000150 9c 9e af bd 38 0f 19 bd f0 71 42 3c 00 0e e4 3d
       -0.08575174 -0.03736803 0.011867985 0.11135483
000160 50 60 51 3c 36 de ca bd 6c 71 01 bd 9c 4a b7 3d
       0.01277931 -0.099056646 -0.03160231 0.089497775
000170 ac 33 ec bd 60 85 ec 3c ca 78 8d 3d 4a 1d 9c 3d
       -0.11533293 0.028872192 0.06907804 0.07622774
000180 fa 85 d7 3d 10 41 9b 3d fc 88 c4 3d 28 77 e2 bd
       0.10523601 0.07580769 0.0959644 -0.110578835
000190 8c 91 79 3d 86 2a a7 bd d0 4b 0a bd 0c 3a b4 3d
       0.06092982 -0.081624076 -0.033763707 0.08800134
0001a0 96 60 94 3d 9c 8e a6 bd 3a 40 f6 bd b8 36 1a bd
       0.07244985 -0.08132669 -0.12023969 -0.03764984
0001b0 a0 89 f5 bb 48 06 ea 3d 50 16 38 bd b0 83 7c 3c
       -0.007493213 0.11426979 -0.044943154 0.015412256
0001c0 2a 95 ae 3d 18 9b 35 bd a8 ac c5 bc 50 4d fb 3c
       0.085245445 -0.044337362 -0.02413018 0.030676514
0001d0 44 f7 43 bd b4 19 25 3d 00 03 80 3a 20 bc eb 3b
       -0.047843233 0.040307716 0.0009766519 0.007194057
0001e0 80 5c ea ba 28 cd 81 bc 64 b3 51 3d c2 2f df bd
       -0.001788035 -0.015844896 0.05119647 -0.10897781
0001f0 a0 d0 7f 3d a8 01 d1 3c 00 ac 16 bb 18 da e2 bc
       0.06245482 0.025513485 -0.0022990704 -0.027691886
000200 10 f4 28 3d 1a 38 ac 3d 40 65 78 bb ca d0 f1 bd
       0.04124838 0.08409138 -0.0037902147 -0.118074015
000210 f8 61 13 3d 88 0f 9a bd c8 c4 8d bd 18 f8 ef bd
       0.035982102 -0.075224936 -0.06922299 -0.11717242
000220 90 95 1b 3d 60 98 5b 3d d6 bc e9 3d 30 42 07 3d
       0.03798443 0.053612113 0.11412971 0.033022106
000230 d8 ba 9c bd c0 43 73 bd 6c e8 ee 3d 04 d3 c2 3d
       -0.07652825 -0.059390783 0.11665425 0.09512904
000240 dc 5c 63 bd ce 01 bb 3d 94 c9 3a bd 30 ec 6b bc
       -0.05550848 0.091312036 -0.045602396 -0.014399573
000250 38 aa 44 bd 94 e9 e2 3d 40 15 8d 3b e0 a7 4d bd
       -0.048013896 0.11079708 0.0043055117 -0.050208926
000260 0e 5b b6 bd 38 d7 e6 3d 1a 14 b7 bd ac 86 8c 3d
       -0.08904086 0.112715185 -0.08939381 0.06861624
000270 64 47 64 3d 10 49 15 bc a8 00 d3 bc d0 d4 ee bc
       0.055732146 -0.009111658 -0.025757149 -0.029154211
000280 d2 3f 96 3d 58 7e ad 3d 98 83 3b 3d 56 6a 98 bd
       0.073363915 0.08471364 0.045779794 -0.07442157
000290 00 30 9b bb 90 89 18 3c 18 13 b0 bd b0 c7 6d 3c
       -0.0047359467 0.009310141 -0.08597392 0.014512941
0002a0 80 53 06 bd ea 15 e3 bd 08 0c 20 bd 10 53 75 3d
       -0.032794476 -0.11088164 -0.039073974 0.059893668
0002b0 a8 76 44 3d 48 7a cb bc 02 ba d9 bd 7c b7 23 bd
       0.047964722 -0.024838582 -0.10631181 -0.039969906
0002c0 50 76 73 3d e4 16 29 3d 40 87 c1 3c b6 67 d6 3d
       0.059439003 0.041281596 0.023624063 0.10469
0002d0 44 d7 81 bd 10 4a 7c bc ca 7c d2 bd 2c 28 97 bd
       -0.06339887 -0.015398517 -0.10277708 -0.07380709
0002e0 08 76 ab bc f0 bf 63 bc 16 1a dc 3d a8 cd c8 3d
       -0.020930305 -0.013900742 0.10747163 0.09804851
0002f0 00 03 04 bb 58 af fd bc 96 02 e1 bd 18 6a 33 bd
       -0.002014339 -0.0309674 -0.10986821 -0.04380235
000300 9a a2 9a 3d 84 79 67 bd 00 c7 b5 3d a4 42 7e bd
       0.07550545 -0.05651237 0.08875847 -0.062075272
000310 00 3a 12 3a 12 99 d4 3d 4e 1e 9d 3d 4e 04 a8 3d
       0.00055781007 0.10380758 0.07671796 0.08203946
000320 3c 7a 88 bd 58 e5 47 bd ee d4 e5 bd c0 d5 6d bb
       -0.06663939 -0.048802704 -0.11222254 -0.0036290735
000330 c0 68 8b bb e8 49 b5 bc da 92 86 bd 60 fc 40 3d
       -0.0042544305 -0.022129968 -0.065709785 0.047115684
000340 0c 89 c5 3d fe dd 8c 3d f0 9f b9 3d 6e d5 bc 3d
       0.0964528 0.06878279 0.09063709 0.09220396
000350 82 e6 c7 bd 44 79 c0 3d f0 53 ac bd 6c 8f 79 3d
       -0.09760763 0.093981296 -0.08414447 0.060927793
000360 10 d6 59 3d 7e ba 9a 3d 16 e6 ab 3d 12 54 9e 3d
       0.05318266 0.07555102 0.08393495 0.07730879
000370 06 c8 a5 3d a8 d1 fe 3c cc 5b 54 3d d4 02 2e 3d
       0.08094792 0.031105831 0.051845357 0.042483166
000380 00 16 df bb f4 7b f2 bd 84 e8 55 3d 94 87 b7 bd
       -0.0068080425 -0.118400484 0.052223697 -0.08961406
000390 30 7c 54 bc 74 07 9d 3d a4 2f da 3d 08 8a 31 3d
       -0.012969062 0.07667437 0.10653618 0.043344527
0003a0 1c d8 34 bd 60 75 a5 bc 06 8c cb bd 00 4a 14 bc
       -0.04415141 -0.02019757 -0.09938817 -0.009050846
0003b0 c0 7c a2 bc 48 bc b6 bd 32 84 eb bd fe 6b ee 3d
       -0.019834876 -0.089226305 -0.11499824 0.116416916
0003c0 56 30 c6 3d 08 67 e5 3d 52 45 e7 3d a0 47 94 bc
       0.09677188 0.11201292 0.11292519 -0.01810056
0003d0 b8 1e 63 3d 1c b1 bc 3d f0 27 17 bd be 2e c2 3d
       0.055449218 0.092134684 -0.03690332 0.094815716
0003e0 3e 5b 86 bd 68 1d 46 3d 1c 7d 7b 3d ec c7 ab 3d
       -0.06560372 0.048367888 0.06139861 0.083877414
0003f0 8c 2d 37 bd 78 af 36 bd 20 ab 3a 3c 08 fe f1 3d
       -0.04472117 -0.044600934 0.011393338 0.11816031

fc2.bias f4 [64]
000000 a2 b5 cd bd 58 92 1e bd a2 80 b1 bd 30 51 b7 3d
       -0.10044409 -0.038713783 -0.08667113 0.08951032
000010 f0 08 eb 3c d4 6e 29 bd ba 08 d6 3d ec ae dc bd
       0.028690785 -0.04136546 0.10450883 -0.10775551
000020 80 78 5e 3d 16 48 94 bd 6c 6a 76 bd 50 00 b9 3c
       0.054314137 -0.07240312 -0.060160086 0.022583157
000030 80 4d d9 bb 00 80 33 3c 00 28 67 39 a6 cf a8 bd
       -0.006631553 0.010955811 0.00022044778 -0.08242731
000040 24 c1 68 3d 68 f6 5c 3d e6 c3 bf 3d 9a ec b4 bd
       0.05682482 0.05394593 0.093635365 -0.08834191
000050 7c 15 23 3d e0 1c 98 bc 1c b2 b0 3d 74 42 fa 3d
       0.03981541 -0.018568456 0.08627722 0.12219706
000060 58 8d 74 3d 54 2a f3 bd 40 e0 bf bb e0 df a9 bd
       0.05970511 -0.11873308 -0.00585559 -0.08294654
000070 9e 80 f7 3d 58 37 22 3d ae b3 fe 3d b0 d4 de bd
       0.12085079 0.03960356 0.12436615 -0.10880411
000080 1a 43 d1 bd 1a 33 eb 3d 80 39 c6 bc e0 fe f4 3c
       -0.10217877 0.11484356 -0.02419734 0.02990669
000090 4c e5 ea bd fc 8a 4c 3d 68 8c fb bd f0 5b e4 3d
       -0.11469516 0.049937233 -0.1228264 0.11150348
0000a0 08 5e b6 3c e0 aa ae bb 7c 1b 3b bd a0 5e 42 bc
       0.022261634 -0.0053304285 -0.045680508 -0.011863381
0000b0 7c f8 7c 3d 2a 83 bc bd 78 36 a9 bd 0a d0 b9 3d
       0.06176041 -0.09204705 -0.08262342 0.090728834
0000c0 c6 d7 f4 3d 50 27 5d bc cc 70 9f bd c8 a6 01 bd
       0.11955218 -0.013498142 -0.07785186 -0.031653196
0000d0 26 3a c1 3d 92 a3 c4 bd bc fc 33 bd b0 71 82 3d
       0.09434919 -0.09601511 -0.0439422 0.063693404
0000e0 24 cf 79 3d 20 aa f7 bc 18 43 13 bd 58 dd bf bd
       0.06098856 -0.03023249 -0.035952657 -0.0936839
0000f0 d0 fb 53 3d f8 6d c2 bd 44 2c ab 3d 04 86 3e 3d
       0.05175382 -0.09493631 0.083580524 0.046514526

fc3.weight f4 [8, 64]
000000 40 d2 51 bc e4 59 85 3d 48 7e 16 bd 00 22 95 b9
       -0.012806475 0.06511286 -0.036741525 -0.00028444827
000010 24 36 7f 3d da 05 e9 3d f8 3c a1 bc 30 f7 d9 bd
       0.062307492 0.11378069 -0.019682392 -0.106428504
000020 d6 4c f2 3d 68 1e b6 3d e8 b3 f2 3d 5c d5 53 3d
       0.118310615 0.08892518 0.11850721 0.051717147
000030 d4 bc e2 3d e0 8d b9 bc c0 7e 4d bd 9c c4 bd bd
       0.11071172 -0.02265066 -0.050169706 -0.09266016
000040 3c b3 e7 3d 6c 4c 94 3d 38 9c 3b bd 90 70 61 3c
       0.11313483 0.07241139 -0.04580328 0.013759747
000050 f8 82 92 bc 5e 4b f1 3d e0 4a 0e bd 42 30 d4 bd
       -0.017884716 0.11781953 -0.034739375 -0.10360767
000060 24 67 2a bd c0 94 e7 bc 8c ad 1a 3d 10 39 cd bc
       -0.04160227 -0.028269172 0.037763163 -0.025051624
000070 b4 7f 34 3d 96 5e 86 bd 5a c5 f1 bd 46 2e 86 3d
       0.0440671 -0.065610096 -0.1180522 0.06551795
000080 e0 d3 4c 3c 08 96 e5 3c 30 72 de bd 10 d1 78 3d
       0.012501687 0.028025642 -0.10861623 0.060746253
000090 2a bd 92 3d f8 e4 4f bd 68 27 42 bd d0 83 48 bd
       0.071649864 -0.05075547 -0.047400862 -0.04895383
0000a0 40 49 b6 bc 84 b3 3a 3d c0 ad c2 bb 20 0a 85 bd
       -0.022251725 0.045581356 -0.005941123 -0.06496072
0000b0 e6 54 ab bd 84 92 6e 3d da c8 c8 3d 60 a8 d7 bd
       -0.083658025 0.058245197 0.098039344 -0.10530162
0000c0 68 12 b1 3d 46 c9 d0 3d 20 74 9f bc d0 de e1 3c
       0.08646089 0.1019464 -0.019464552 0.027572066
0000d0 24 3e 24 bd ec b0 40 bd aa fb f6 3d 2a d8 ef bd
       -0.040098324 -0.047043726 0.1205972 -0.11711152
0000e0 48 9f 38 bd d8 09 ae 3d 50 ff 7a 3d b0 e8 d9 3d
       -0.045073777 0.08497971 0.06127864 0.10640085
0000f0 60 a9 b8 bd 84 d3 52 3d f8 09 68 bd 90 95 23 3c
       -0.09016681 0.05147125 -0.056650132 0.009984389
000100 04 2e 8c bd a0 b9 b4 3b 9e 88 9f bd 34 5f 6e bd
       -0.06844714 0.0055152923 -0.077897295 -0.05819626
000110 88 88 6f bd d0 90 ac 3d 48 ca e7 bd b0 7b 60 3c
       -0.058479816 0.08426058 -0.11317879 0.013701364
000120 f8 af 8d bc b2 d3 fc 3d ac bf 81 3d 44 8e 76 bd
       -0.017295823 0.12345065 0.06335387 -0.06019427
000130 3a 60 a8 bd e0 df fe bc 00 c6 fc 3a 0c c5 b3 3d
       -0.08221479 -0.031112611 0.0019285083 0.08777818
000140 0c b8 8b bd 78 cf b9 bc 6c 64 0e 3d 30 8b 95 3c
       -0.068222135 -0.022681937 0.03476374 0.018254846
000150 d8 9a a7 3d 88 f7 48 3d 08 fb cd 3d e0 37 b0 bd
       0.08183831 0.04906419 0.10057646 -0.08604407
000160 72 b4 a4 bd 1c 7a 74 bd 38 b6 ad bd 20 8a e1 3c
       -0.0804223 -0.059686765 -0.08482021 0.027531683
000170 4c 7d 28 3d b0 67 13 bd 04 47 c0 3d c8 f5 26 bd
       0.041135117 -0.035987556 0.09388545 -0.04076174
000180 00 f8 05 3d 80 5c 28 bb a6 38 b2 3d 3c 27 d5 bd
       0.032707214 -0.00256899 0.08702211 -0.10407874
000190 1e 1b cf 3d 88 4c ba 3d 34 ed 95 3d 8e 1c c2 3d
       0.10112594 0.090966284 0.073206335 0.094781026
0001a0 12 7d 84 3d 1e 56 9d 3d b8 24 b9 3c 00 90 06 39
       0.06469168 0.07682441 0.022600517 0.0001283288
0001b0 b0 b6 3c 3c a8 8e 81 bd de 60 f3 3d 96 2e f2 3d
       0.0115181655 -0.06326038 0.1188371 0.11825292
0001c0 44 6f b7 3d b0 60 6c bd 94 49 67 bd e8 62 be 3c
       0.08956769 -0.057709396 -0.056466654 0.023240522
0001d0 14 d0 00 3d 98 97 36 3d c8 59 70 bd 98 d8 c8 3d
       0.03144844 0.044578165 -0.058679372 0.09806937
0001e0 48 95 5a 3d cc 84 c3 3d 22 de ca bd fc ae 95 3d
       0.053365022 0.09546813 -0.0990565 0.07308766
0001f0 c0 b7 32 3c 00 42 1a bb 44 b7 fb 3d 9c 99 91 bd
       0.010908067 -0.0023537874 0.122908145 -0.07109377
000200 50 fb 45 bd 60 17 cc bc 00 b9 02 ba 30 df b4 bd
       -0.048335373 -0.02491349 -0.00049866736 -0.08831632
000210 76 d7 8f 3d 3a 1a fa bd e8 fb 08 3d 78 80 2c bd
       0.07023518 -0.122120336 0.03344336 -0.042114705
000220 ac b4 32 3d d8 6c 0a bd 12 9a c4 bd c0 32 e9 3c
       0.043629333 -0.033795208 -0.09599699 0.028466582
000230 7c 3b 1d 3d 5a 83 e7 bd 00 5f ae 3c 1c f0 a9 3d
       0.038386807 -0.1130435 0.021285534 0.0829775
000240 08 83 32 3d e8 06 14 bd 76 d0 c2 3d ca 55 c4 3d
       0.043581992 -0.0361394 0.09512417 0.095866755
000250 68 4a 04 3d e0 cb 2b bd 7e 5d cb bd dc 32 fa bd
       0.03229752 -0.041942477 -0.099299416 -0.12216732
000260 b8 e5 b3 bc 68 46 61 bd 60 44 17 3c 74 64 17 3d
       -0.021960124 -0.054998785 0.00923261 0.036961034
000270 7e ea b2 3d a0 12 82 bb 4a d0 d7 3d 00 7a 4d 3a
       0.08736132 -0.0039695054 0.10537775 0.0007838309
000280 50 f9 d1 3d bc 8e 2a bd 48 ee eb bd 00 bf 59 bc
       0.10252631 -0.04164003 -0.11520058 -0.013290167
000290 94 95 13 bd 84 38 15 3d c0 89 20 3c 1c f7 8f 3d
       -0.03603132 0.03643085 0.009798467 0.07029554
0002a0 b8 e1 9a bc e0 54 e7 3d 9e 7d c5 bd 80 0a 1c 3b
       -0.01890646 0.112954855 -0.096431 0.002380997
0002b0 54 76 6d 3d 14 92 b6 3d 80 6b c8 bd b0 6f 03 3c
       0.057974175 0.08914581 -0.09786129 0.008022234
0002c0 98 db 15 bd e2 c9 cb bd b8 83 bc bd c0 53 b7 bd
       -0.036586374 -0.099506155 -0.09204811 -0.08951521
0002d0 aa 3e a9 bd 80 1b 67 bc 58 6e 26 bd 42 b4 d1 bd
       -0.08263905 -0.014105678 -0.040632576 -0.102394596
0002e0 50 5d cb 3d 6e d8 85 bd 10 20 39 bd 7c ab 40 3d
       0.09929907 -0.06535421 -0.045196593 0.04703854
0002f0 0c 04 d1 3d d8 f6 e9 3d 10 96 79 3c 3c 4e fc bd
       0.1020585 0.11424035 0.015233532 -0.123196095
000300 00 84 96 bb 7c 0f 66 bd 08 11 9a bd ba 05 d8 3d
       -0.0045933723 -0.05616711 -0.0752278 0.10547967
000310 28 54 77 bd f0 30 4f 3d 70 05 a2 bd 9c 71 f6 3d
       -0.060382992 0.05058378 -0.07911193 0.12033388
000320 64 d2 e1 3d 8c 29 f6 3d 24 27 49 bd f6 13 a8 bd
       0.11026457 0.12019643 -0.049109593 -0.08206932
000330 40 04 51 3c 18 a3 50 3d 88 53 b1 3d 10 e3 d6 bc
       0.012757361 0.05093679 0.086585104 -0.026231319
000340 0a ee b4 3d d8 5d 6a 3d 9a a1 a0 3d 44 e8 73 bd
       0.08834465 0.057218403 0.07843323 -0.059547678
000350 86 17 e6 3d 80 7a a1 3c 00 1d 5e 3a 58 e7 2c bd
       0.112349555 0.019711733 0.0008472949 -0.042212814
000360 00 dc e2 3a e0 70 de 3d 00 7c 4d bc ec 87 41 3d
       0.0017307997 0.10861373 -0.012541771 0.047248766
000370 26 b4 a6 bd b8 da 97 bc 00 52 90 3c 1e 51 ca bd
       -0.08139829 -0.01853691 0.017617226 -0.09878753
000380 14 cd c7 bd b0 c4 2d bd 1a 6a 90 3d c8 78 6f bd
       -0.097559124 -0.042423904 0.07051487 -0.058464795
000390 24 44 e1 bd 40 0c 9b 3b f8 49 92 bd 64 f2 db 3d
       -0.10999325 0.004731685 -0.07143015 0.10739592
0003a0 30 e7 87 bc f8 64 cf 3d ce bf dd bd 74 0a 54 3d
       -0.016589731 0.1012668 -0.108275995 0.05176778
0003b0 68 51 09 3d c0 2c cb 3c 98 c2 86 3c c0 58 e9 bb
       0.0335249 0.024801612 0.016450211 -0.0071211755
0003c0 08 e2 9d bc 5c 89 1f bd c4 30 b3 3d 60 b3 ae bd
       -0.01927282 -0.038949355 0.08749536 -0.08530307
0003d0 70 6d fb bd f0 fc 3d bd 86 1b ed bd 44 82 f0 bd
       -0.12276733 -0.046383798 -0.11577515 -0.11743596
0003e0 c8 c9 af 3c 9a 2c 91 3d 0c 77 bd 3d c2 e7 83 3d
       0.021458521 0.07088585 0.09251222 0.06440689
0003f0 60 25 1c 3d 08 26 ab bd 30 73 2a 3c 70 39 19 bc
       0.03812158 -0.08356863 0.010403439 -0.009352073

fc3.bias f4 [8]
000000 9a 4b e6 3d 80 b5 f1 bc 84 4c 58 bd 60 aa 31 3c
       0.112448886 -0.029505491 -0.052807346 0.010843843
000010 8c ec 76 3d 18 56 2c 3d 8c bb e0 3d 7c 6b 60 bd
       0.060284182 0.042074293 0.10973272 -0.054790005
