saves/final_ai_memory_npc_2_emotion.pth (torch, 15389 bytes, 6 tensors)

fc1.weight f4 [64, 10]
0	0x3e6820a6	0.22668704
1	0xbe5ee326	-0.21766338
2	0xbe78cb08	-0.242962
3	0xbe475380	-0.19465446
4	0x3e6943e2	0.22779801
5	0x3d666340	0.056246996
6	0xbe8f7bcb	-0.28024134
7	0x3e885447	0.266268
8	0xbe267ed4	-0.16259319
9	0x3e90bbf3	0.28268394
10	0xbd7b9398	-0.061420053
11	0xbc0f1da0	-0.0087350905
12	0x3d2f37f8	0.042777985
13	0x3e009fb8	0.12560928
14	0xbe9acc2b	-0.30233893
15	0xbe10686e	-0.14102337
16	0xbcca4380	-0.02469039
17	0xbe19c410	-0.15016198
18	0x3e62e00a	0.22155777
19	0x3e85ddbd	0.26145735
20	0x3ce4aef0	0.027915448
21	0x3c558180	0.0130313635
22	0x3e623ed2	0.22094277
23	0xbe022e3a	-0.12712947
24	0xbe8a68a1	-0.2703295
25	0x3e95c873	0.29254493
26	0x3cef0eb0	0.029181808
27	0x3e636e9a	0.2221016
28	0x3e453a1e	0.19260451
29	0x3e7c9e92	0.24669865
30	0xbd085360	-0.033282638
31	0x39337800	0.00017115474
32	0x3e2c250e	0.1681101
33	0xbe1222e4	-0.14271122
34	0x3e92c387	0.286648
35	0xbe8cf3b1	-0.27529672
36	0xbe98ce33	-0.29844818
37	0xbd06e5a8	-0.03293386
38	0xbda87910	-0.08226216
39	0xbe2d2b66	-0.16911086
40	0x3d14f748	0.03636864
41	0xbe4bb96c	-0.19894952
42	0x3e70095e	0.23441073
43	0xbdf59108	-0.11990553
44	0xbe1c893e	-0.15286729
45	0x3cc3bf10	0.023894817
46	0x3e10865a	0.14113751
47	0xbe1c880c	-0.15286273
48	0x3daf3970	0.08555877
49	0x3e87b41d	0.26504603
50	0xbe8fdfd8	-0.28100467
51	0xbd3ab308	-0.045580894
52	0xbe5c0e32	-0.2148979
53	0x3e11e658	0.14248025
54	0x3e99ecd9	0.30063513
55	0x3d889688	0.066693366
56	0x3e1a32ec	0.15058488
57	0x3cbd1840	0.023082852
58	0xbd702ff8	-0.058639497
59	0xbd1a2598	-0.03763351
60	0x3dfd1dcc	0.12359199
61	0xbe4e4db6	-0.20146832
62	0xbe850655	-0.25981393
63	0x3e83b2bb	0.25722298
64	0xbdbe6514	-0.09296623
65	0xbdee55a4	-0.116374284
66	0x3e9ea0df	0.3098211
67	0xbe824ef6	-0.25450867
68	0xbca03a40	-0.019559026
69	0x3d92c620	0.071666956
70	0xbe4eb1fa	-0.2018508
71	0xbdf215ba	-0.1182055
72	0xbe54b034	-0.20770341
73	0xbdcca37a	-0.09992118
74	0x3e81ea71	0.25374177
75	0xbcdd3290	-0.02700165
76	0x3e803fc9	0.25048664
77	0xbe22adc3	-0.15886597
78	0x3e38d8c0	0.18051434
79	0x3e81e905	0.25373092
80	0xbd77f660	-0.060537696
81	0xbe82d5a4	-0.2555362
82	0x3e9d47a9	0.30718735
83	0x3cb3da00	0.021954536
84	0x3c531bc0	0.012885034
85	0x3e9a3581	0.30118945
86	0x3e00193e	0.12509629
87	0x3e81d913	0.25360927
88	0x3dcaa750	0.098951936
89	0x3e91c173	0.28467903
90	0xbd63e7d0	-0.055640996
91	0xbe4817b8	-0.19540298
92	0x3e091fd0	0.13391042
93	0x3d966090	0.073426366
94	0x3e19bb96	0.15012965
95	0x3d81fb18	0.063467205
96	0xbe48fef6	-0.1962851
97	0x3cfbfc10	0.030759841
98	0xbe0e1db3	-0.13878517
99	0x3e69d43a	0.22834864
100	0x3afe9e00	0.001942575
101	0xbe4f8130	-0.20264125
102	0x3e32c748	0.17458832
103	0xbe920ea6	-0.285268
104	0x3e14d216	0.14533266
105	0x3e9bb419	0.3041084
106	0xbd9ac766	-0.075575635
107	0xbe505f9f	-0.20348977
108	0xbdbd740c	-0.0925065
109	0x3e3df97e	0.18552205
110	0xbd5d85b0	-0.054082572
111	0x3e221b48	0.1583072
112	0x3e98e5ad	0.2986273
113	0xbe9a083a	-0.300844
114	0xbdec5512	-0.115396634
115	0xbddc2fb2	-0.10751285
116	0x3d9bb4dc	0.076028556
117	0x3d79a368	0.060946852
118	0x3e5376b6	0.20650753
119	0x3cbeaa70	0.02327463
120	0x3dc14054	0.09436098
121	0xbe59e1a3	-0.2127748
122	0xbe78a617	-0.24282108
123	0xbd257af8	-0.040400475
124	0xbbb5b100	-0.0055447817
125	0x3e4c45fa	0.19948569
126	0xbda0850c	-0.07837877
127	0x3e9821bb	0.29713234
128	0xbe197cf3	-0.1498907
129	0x3e5e8e96	0.2173408
130	0x3dfa4bb4	0.122214705
131	0xbe1b95d8	-0.1519388
132	0x3db3b040	0.087738514
133	0xbd415d98	-0.0472084
134	0xbe8545c0	-0.26029778
135	0xbe93d879	-0.28876093
136	0x3d9766cc	0.07392654
137	0xbe6c1eb6	-0.2305859
138	0x3e1dc576	0.15407357
139	0xbe44034f	-0.19141887
140	0xbd5b8270	-0.05359119
141	0xbe9ee1e6	-0.31031722
142	0xbd65c6e0	-0.056097865
143	0x3d2831a8	0.04106298
144	0xbdd89f7a	-0.10577293
145	0x3e9fdbc3	0.31222352
146	0xbe11f1de	-0.14252421
147	0xbd135400	-0.03596878
148	0x3aad6d00	0.0013231337
149	0xbd8010d0	-0.06253207
150	0xbe701264	-0.23444515
151	0x3b104d80	0.002201885
152	0x3e464c82	0.19365123
153	0x3e7d2bda	0.2472376
154	0xbdd310b6	-0.10305922
155	0x3e87909b	0.26477513
156	0xbe79d77f	-0.24398611
157	0xbe126286	-0.14295396
158	0xbe487d96	-0.19579157
159	0x3e5f6fe6	0.2182003
160	0xbd1d7c30	-0.038448513
161	0xbcccd270	-0.025002688
162	0x3c10ede0	0.008845776
163	0x3d4abd98	0.049497217
164	0xbe37a9e9	-0.1793591
165	0x3e3b17f0	0.1827085
166	0xbe848596	-0.25883168
167	0x3e026fbe	0.12737939
168	0x3cfd6250	0.030930668
169	0x3e562012	0.20910671
170	0xbe2dfad5	-0.16990216
171	0x3c4c7f80	0.01248157
172	0x3e5b2e6e	0.2140443
173	0x3e89ac1f	0.2688913
174	0x3e5bba72	0.21457842
175	0xbe0fa67b	-0.14028351
176	0xbd1095b8	-0.035299033
177	0x3e626dc6	0.22112188
178	0x3d49e618	0.0492917
179	0xbe6c08ec	-0.23050278
180	0x3e902c25	0.2815868
181	0x3d98b188	0.074557364
182	0x3c9c65f0	0.019091576
183	0x3dffe8d0	0.12495577
184	0xbe4faf98	-0.20281827
185	0xbd9487b4	-0.07252446
186	0x3d845b50	0.06462729
187	0xbb772f80	-0.0037717521
188	0x3e645606	0.2229844
189	0xbdc01d5c	-0.093806
190	0x3d47cbb8	0.048778266
191	0x3e1d2c7e	0.15349004
192	0x3b15d200	0.0022860765
193	0x3e53fa9e	0.20701072
194	0x3e38fd6e	0.18065426
195	0xbe84a313	-0.25905666
196	0x3e8231eb	0.2542871
197	0x3e633862	0.22189477
198	0xbe9191e4	-0.28431618
199	0x3e37853a	0.17921916
200	0x3ea0ad41	0.31382182
201	0x3e7e9832	0.24862745
202	0xbd49ca90	-0.049265444
203	0xbd1c46b0	-0.03815335
204	0xbe44390a	-0.19162384
205	0x3dbb1318	0.09134501
206	0x3d3c29f0	0.045938432
207	0xbe8e8a67	-0.27839968
208	0xbe0ca8ed	-0.13736315
209	0x3e4f10e2	0.20221284
210	0xbe801269	-0.25014046
211	0xbe95fdf6	-0.2929532
212	0xbd1d4b58	-0.03840193
213	0x3e975797	0.29559013
214	0x3e9ff91f	0.31244752
215	0xbe7f7c94	-0.24949867
216	0x3e641af6	0.2227591
217	0x3e79270a	0.24331298
218	0xbe8107fa	-0.25201398
219	0x3d0a2f90	0.033736765
220	0xbe15a3aa	-0.14613214
221	0x3d26c4d8	0.04071507
222	0x3d8f1cb0	0.069878936
223	0x3cccb370	0.024987906
224	0x3d3f8998	0.04676208
225	0xbde3339e	-0.110938296
226	0xbe3d6261	-0.1849456
227	0x3d7c66b0	0.061621368
228	0xbea1969c	-0.31560218
229	0xbdef7192	-0.11691584
230	0x3e831289	0.2560008
231	0x3d354868	0.044258505
232	0xbe855bc6	-0.2604658
233	0x3e2b31dc	0.16718239
234	0xbe80c14e	-0.2514748
235	0x3e89dafb	0.2692488
236	0x3d72e308	0.059298545
237	0xbdd66d5e	-0.10470079
238	0xbd649a38	-0.055811137
239	0xbe9c1e35	-0.30491796
240	0xbdb9c92c	-0.090715736
241	0xbe8e67b2	-0.27813488
242	0xbce63e10	-0.028105766
243	0xbe90d327	-0.28286096
244	0xbdc4b50a	-0.09604843
245	0xbe8e64c8	-0.27811265
246	0x3e209bb4	0.15684396
247	0xbd97a94c	-0.07405338
248	0x3dfb399c	0.122668475
249	0xbc7152a0	-0.014729172
250	0xbb0d6800	-0.0021576881
251	0x3dbafbac	0.09130034
252	0x3e106c9e	0.14103934
253	0xbd9bbd02	-0.0760441
254	0x3e9e8341	0.30959514
255	0xbe2a6132	-0.1663864

fc1.bias f4 [64]
0	0xbe966e91	-0.2938123
1	0x3e139004	0.14410406
2	0x3c828c10	0.015935928
3	0xbe7a3343	-0.24433617
4	0xbe37b01e	-0.17938277
5	0xbe9b380d	-0.303162
6	0xbe25307f	-0.16131781
7	0x3e0658ac	0.13119763
8	0xbe9f09ad	-0.3106207
9	0x3e9498ab	0.29022726
10	0x3e771362	0.24128488
11	0x3e76c29a	0.24097672
12	0x3d90c41c	0.07068655
13	0x3e10f896	0.14157328
14	0x3db6d168	0.0892666
15	0xbe384213	-0.17993955
16	0x3e8deeed	0.27721348
17	0xbe577e00	-0.21044159
18	0x3d4ea0d8	0.05044636
19	0xbdc43446	-0.09580283
20	0xbdc326e4	-0.09528902
21	0xbd9fe87e	-0.07808016
22	0xbe8bc46d	-0.27298298
23	0xbe85f10a	-0.2616046
24	0xbe72cee8	-0.23711741
25	0xbe5ab208	-0.21356976
26	0xbd89b35a	-0.06723662
27	0x3d069950	0.032861054
28	0x3b0d8b80	0.002159804
29	0xbdf7daec	-0.12102303
30	0x3e809353	0.251124
31	0x3e34225a	0.17591229
32	0xbdb75e60	-0.089535475
33	0xbe3acd84	-0.1824246
34	0x3e9a059d	0.30082408
35	0x3bdc0940	0.00671497
36	0x3e3d6efa	0.18499365
37	0x3e6886c2	0.22707656
38	0x3df30184	0.118655235
39	0x3da1f9b4	0.07908955
40	0xbd21cc38	-0.0395014
41	0xbe5f805d	-0.2182631
42	0x3e80d919	0.25165632
43	0x3c82c190	0.015961438
44	0xbda56c82	-0.08077337
45	0xbe6c3ce6	-0.23070106
46	0x3d7ee1d0	0.06222707
47	0xbe713573	-0.23555546
48	0x3e0facfc	0.14030832
49	0xbe0573ad	-0.13032408
50	0xbe80cce9	-0.25156334
51	0x3dc35134	0.09536973
52	0x3add1600	0.0016867518
53	0xbe3a6b98	-0.18205106
54	0x3e36b04e	0.17840692
55	0x3e1dc04a	0.15405384
56	0xbe7b2fe8	-0.24529994
57	0xbe739f06	-0.23791131
58	0x3e824bef	0.25448558
59	0xbe516a57	-0.20450722
60	0x3e95824b	0.29200968
61	0x3e0ea14a	0.13928714
62	0xbd9c93c4	-0.076453716
63	0x3e91c753	0.28472385

fc2.weight f4 [32, 64]
0	0x3dc6b960	0.09703326
1	0x3c984b10	0.01859048
2	0xbd446db0	-0.04795617
3	0xbdd53a80	-0.104115486
4	0xbd93b1da	-0.07211657
5	0xbc45c570	-0.012070999
6	0x3df95766	0.12174873
7	0xbd1d7188	-0.03843835
8	0x3c9beb68	0.019033149
9	0x3d9668ac	0.07344183
10	0xbd598088	-0.053101093
11	0xbd2ce670	-0.04221195
12	0xbd777030	-0.060409725
13	0x3da4ead2	0.08052601
14	0x3d0ba804	0.03409578
15	0x3df63cba	0.120233014
16	0xbd145700	-0.036215782
17	0x3d2c65e0	0.042089343
18	0x3d48c278	0.049013585
19	0x3dd07864	0.10179213
20	0x3dcc37d6	0.09971587
21	0xbc498a50	-0.012301043
22	0x3df76be0	0.120811224
23	0x3d936b96	0.07198255
24	0xbd483b78	-0.04888484
25	0xbdc682da	-0.09692927
26	0x3dfad3a0	0.122473955
27	0xbc959f38	-0.018264398
28	0x3de42688	0.11140162
29	0x3de80628	0.11329299
30	0x3d99acbe	0.07503651
31	0xbda84a10	-0.08217251
32	0x3c4e9520	0.012608796
33	0x3da07b86	0.0783606
34	0xbd36ca00	-0.044626236
35	0x3d530ddc	0.05152689
36	0xbcadb358	-0.021203682
37	0xbdeb8e30	-0.115017295
38	0xbd134584	-0.035954967
39	0xbd064764	-0.032782927
40	0xbdff0ed4	-0.12454
41	0x3ce91648	0.028453007
42	0x3ddc0aac	0.10744223
43	0xbd529f7c	-0.051421627
44	0xbd749d48	-0.059720308
45	0xbd332120	-0.043732762
46	0xbd886660	-0.066601515
47	0x3d5f3d1c	0.054501638
48	0xbdf37394	-0.11887279
49	0x3bd0b860	0.0063696355
50	0x3dace21e	0.08441566
51	0xbd3310f4	-0.04371734
52	0xbc8c2538	-0.017107591
53	0x3dda3282	0.10654165
54	0x3ddd44a8	0.10804111
55	0xbcf53d50	-0.029936463
56	0xbc0c04b0	-0.008546039
57	0x3d3d5510	0.0462237
58	0xbcd91600	-0.026499748
59	0xbd91e3be	-0.071235165
60	0x3accab00	0.0015614927
61	0x3dff066e	0.12452398
62	0xbd0e7468	-0.034778982
63	0xbd608788	-0.054816753
64	0x3ddde456	0.10834567
65	0xbcb22d50	-0.021750122
66	0xbc36cc30	-0.0111570805
67	0x3d83257c	0.06403634
68	0xbcf7fb90	-0.030271322
69	0xbda1f1d4	-0.07907453
70	0x39bb4800	0.00035721064
71	0x3d67d158	0.05659613
72	0xbdbadc6e	-0.09124075
73	0xbc279630	-0.010228679
74	0xbd8177f0	-0.063217044
75	0xbde0aef8	-0.10970873
76	0xbcd4ae48	-0.02596201
77	0xbdf01c0c	-0.117240995
78	0xbcf05b90	-0.029340535
79	0xbc8946b8	-0.016757354
80	0x3de4d93c	0.11174247
81	0x3c8f9cd8	0.017530844
82	0x3b913900	0.0044318438
83	0xbd72e2b8	-0.059298247
84	0x3c5f8af0	0.013643965
85	0x3df5e9a2	0.120074525
86	0xbd44ce38	-0.048048228
87	0x3db5d862	0.08879162
88	0x3d599ea0	0.053129792
89	0x3cef29f0	0.029194802
90	0x3de09350	0.10965598
91	0xbd926c40	-0.07149553
92	0xbdf08ece	-0.11745988
93	0x3da04fe0	0.07827735
94	0xbdc00a48	-0.09376961
95	0x3dc4203a	0.09576459
96	0x3dbc728c	0.092015356
97	0xbd862078	-0.06549162
98	0x3d941510	0.0723058
99	0x3de6dc3e	0.112724766
100	0xbdb5b456	-0.08872287
101	0xbcad8958	-0.021183655
102	0xbd4df050	-0.050278008
103	0xbcbe74e8	-0.023249105
104	0xbdcc1e98	-0.09966773
105	0xbd2880e8	-0.04113856
106	0x3ab1f500	0.0013577044
107	0x3d6d7244	0.0579703
108	0xbd97aafa	-0.07405658
109	0x3cd53b10	0.02602914
110	0x3cec2050	0.028824002
111	0x3c219200	0.009861469
112	0x3da76fd4	0.081756264
113	0x3db72a24	0.089435846
114	0x3cf49400	0.029855728
115	0xbdd6833e	-0.10474251
116	0x3c0fcaf0	0.008776411
117	0x3db658e2	0.08903672
118	0xbc80f160	-0.015740097
119	0xbda0ba12	-0.0784799
120	0xbbf03c60	-0.007331416
121	0x3df1668a	0.11787136
122	0x3c768840	0.015047133
123	0xbdf0b768	-0.11753732
124	0x3ddf977e	0.10917567
125	0xbd8e63a0	-0.06952596
126	0xbdcbc248	-0.099491656
127	0x3dfbf574	0.12302676
128	0xbdf87fd4	-0.12133756
129	0xbc8cb4c8	-0.017176047
130	0x3c252050	0.010078505
131	0x3dfa14de	0.12211011
132	0x3d457ebc	0.048216566
133	0x3c341140	0.010990441
134	0xbbeb8260	-0.007187173
135	0x3d7a18cc	0.061058804
136	0x3de0741a	0.109596446
137	0xbd6ee980	-0.05832815
138	0xbce4f9a0	-0.027951062
139	0xbdc999b8	-0.09843773
140	0xbda245a2	-0.07923438
141	0xbd6366e4	-0.055518046
142	0xbdc25000	-0.09487915
143	0xbdeb50cc	-0.1149002
144	0xbd457cc0	-0.048214674
145	0x3c88d348	0.01670231
146	0x3d5052b4	0.05086012
147	0x3b886c40	0.004163295
148	0x3d0ffba0	0.035152078
149	0xbd1478ec	-0.036248133
150	0x3c0fcee0	0.00877735
151	0xbd87bde6	-0.06628017
152	0xbd15ad58	-0.036542267
153	0xbdfca566	-0.12336235
154	0x3bad8180	0.0052949786
155	0xbdc36068	-0.095398724
156	0x3dc45cf0	0.09588039
157	0xbcad29c0	-0.021138072
158	0xbc943190	-0.01809004
159	0x3dbc9872	0.09208764
160	0x3df33c24	0.11876705
161	0x3c4b1330	0.012394711
162	0xbccc9988	-0.024975553
163	0xbcf7acb8	-0.030233726
164	0x3dd6ed24	0.1049445
165	0xbdd509c0	-0.1040225
166	0x3dcc9896	0.09990041
167	0x3dbec27e	0.0931444
168	0xbdef33d4	-0.11679807
169	0x3d50ab64	0.0509447
170	0x3ccde238	0.025132284
171	0x3dd1d9aa	0.10246594
172	0xbdaf96be	-0.08573674
173	0xbdf56d5a	-0.11983748
174	0xba91a300	-0.00111112
175	0xbdf52774	-0.11970416
176	0x3dcb26d8	0.09919518
177	0x3d351a6c	0.04421465
178	0x3dac4efc	0.084135026
179	0x3df65b08	0.120290816
180	0xbd163bbc	-0.03667806
181	0xbdaf0d02	-0.08547403
182	0x3d974588	0.07386309
183	0xbdd4ff58	-0.104002655
184	0x3ddcbdc8	0.107783854
185	0xbdd44a24	-0.10365704
186	0xbcd89e78	-0.026442751
187	0xbdfd09b8	-0.12355369
188	0xbdae7e3a	-0.085201696
189	0x3dfa5348	0.12222916
190	0xbcdb0e50	-0.026740223
191	0x3c0b63c0	0.008507669
192	0xbdaf717a	-0.08566566
193	0x3d4d8fc0	0.05018592
194	0x3d8bb72e	0.06822048
195	0xbcdcf520	-0.026972353
196	0x3d30de30	0.043180645
197	0xbd82af06	-0.06381039
198	0xbd6b1420	-0.05739224
199	0xbd375e04	-0.044767395
200	0xbaa7e500	-0.0012809336
201	0xba788300	-0.000947997
202	0x3dbee2ac	0.09320578
203	0x3d8bbd90	0.068232656
204	0x3d432908	0.047646552
205	0xbdfdf84a	-0.12400873
206	0xbd758164	-0.05993785
207	0xba502600	-0.0007940233
208	0x3dcaefee	0.09909044
209	0xbdc5b81e	-0.09654258
210	0xbdf6d374	-0.1205205
211	0x3dd61128	0.10452491
212	0xbd46b41c	-0.04851161
213	0x3de62e84	0.11239341
214	0x3d4f4e30	0.050611675
215	0xbd1ed484	-0.03877689
216	0x3dbfcdee	0.0936545
217	0xbddb936c	-0.10721478
218	0xbd98753e	-0.07444237
219	0xbda84646	-0.082165286
220	0x3d87ad9e	0.06624912
221	0xbde1f9b4	-0.11033955
222	0xbd31993c	-0.043359026
223	0xbdfdc894	-0.12391773
224	0x3d5c6600	0.053808212
225	0x3d54b708	0.051932365
226	0x3de17636	0.11008875
227	0xbd5a5b5c	-0.053309783
228	0xbdf4a346	-0.119452044
229	0xbd6081bc	-0.054811224
230	0xbd790cd0	-0.060803235
231	0xbc779230	-0.015110537
232	0x3df769d2	0.120807305
233	0xbbe3e700	-0.0069550276
234	0xbdeb2f76	-0.11483662
235	0xbcf6f728	-0.03014715
236	0x3c7d3d90	0.015456572
237	0xbbf52200	-0.0074808598
238	0xb95d9000	-0.00021129847
239	0xbdbdc288	-0.092656195
240	0x3db029b4	0.08601704
241	0x3de6ec6e	0.11275564
242	0xbd81f6e4	-0.06345919
243	0xbd77a2c8	-0.060457975
244	0x3d92b8ea	0.07164176
245	0x3d681288	0.056658298
246	0x3df1a1d2	0.11798443
247	0xbdf840b4	-0.12121716
248	0xbd68ef2c	-0.056868717
249	0x3deb1908	0.11479384
250	0x3db3a4a0	0.08771634
251	0x3d8a29de	0.06746267
252	0xbd720a98	-0.059092134
253	0x3d90e088	0.07074076
254	0x3d80bb06	0.06285672
255	0xbcb10e28	-0.021613196

fc2.bias f4 [32]
0	0x3bbf13e0	0.0058312267
1	0x3da696b6	0.081342146
2	0xbd6f6f5c	-0.05845581
3	0xbce87360	-0.028375328
4	0xbd871bbe	-0.06597088
5	0xba07ae00	-0.00051757693
6	0x3d7b1240	0.0612967
7	0x3dec29a2	0.11531378
8	0xbde46616	-0.11152284
9	0x3d844336	0.06458132
10	0x3dceff7e	0.10107325
11	0x3da639b8	0.08116478
12	0x39b9b000	0.0003541708
13	0xbc794100	-0.015213251
14	0xbdbd5b5e	-0.092459425
15	0x3d5297d8	0.05141434
16	0x3daca040	0.08429003
17	0x3d6c1918	0.05764112
18	0x3dd278f4	0.10276976
19	0xbdb1cc40	-0.08681536
20	0xbd5f7adc	-0.054560527
21	0x3da699dc	0.08134815
22	0x3cb01ac8	0.021497145
23	0x3c89f200	0.016839027
24	0xbdc59b42	-0.09648754
25	0xbcd53b88	-0.026029363
26	0xbd8f354c	-0.069925874
27	0xbc19aad0	-0.009379104
28	0x3db9f9b2	0.09080829
29	0x3d25cd0c	0.04047875
30	0xbcb8b408	-0.022546783
31	0x3d953934	0.07286301

fc3.weight f4 [7, 32]
0	0x3d892068	0.06695634
1	0x3e0dbf2d	0.13842459
2	0xbe132326	-0.14368877
3	0x3da5e5ce	0.081004724
4	0x3d7d186c	0.06179087
5	0xbdc47aea	-0.095937565
6	0x3d9c52e2	0.07632996
7	0x3ccc9ec0	0.024978042
8	0xbe3324b8	-0.17494476
9	0xbd95a100	-0.07306099
10	0x3e2d780f	0.1694033
11	0xbdf04ad2	-0.11733021
12	0x3b3af000	0.0028524399
13	0x3e15dfe3	0.14636187
14	0x3db091c6	0.08621554
15	0x3dbf8286	0.09351067
16	0xbdec2e97	-0.11532324
17	0x3d7fb10c	0.062424704
18	0x3e0c94d3	0.13728647
19	0xbd820217	-0.06348055
20	0x3e14800d	0.14501972
21	0x3e18e793	0.14932089
22	0xbe194fab	-0.14971797
23	0x3e0f7df9	0.14012899
24	0xbd93b0e9	-0.07211477
25	0x3dec2ab2	0.11531581
26	0x3e310529	0.17287125
27	0xbd82e04f	-0.0639044
28	0x3de6d2d2	0.112706795
29	0x3dd0623a	0.10174985
30	0x3cc5b6a8	0.024134949
31	0x3dd0a0ae	0.10186897
32	0x3dd3f342	0.10349132
33	0x3b6c4040	0.0036049038
34	0xbca72950	-0.020405442
35	0x3de1e94e	0.110308275
36	0x3dd1998e	0.10234366
37	0x3c842c38	0.016134366
38	0xbdb20c8b	-0.08693799
39	0xbd678d9a	-0.056531526
40	0xbc30d320	-0.010792524
41	0xbdfe895e	-0.124285445
42	0x3ce2a0c0	0.027664542
43	0x3ce5ac88	0.02803637
44	0xbdd5d646	-0.1044126
45	0x3d4f27cc	0.050575063
46	0xbcea3398	-0.028589055
47	0x3e2235d9	0.15840854
48	0x3ce87d68	0.02838011
49	0xbd2f9b50	-0.042872727
50	0xbdd4323b	-0.10361143
51	0x3dbaad5e	0.091150984
52	0x3d0f9fbc	0.035064444
53	0xbe122a4a	-0.14273944
54	0xbd0fff28	-0.035155445
55	0x3b28b300	0.0025741458
56	0x3d9b9826	0.075973794
57	0x3d8fb9ac	0.07017836
58	0x3b9470a0	0.0045300275
59	0x3e0836d7	0.1330217
60	0xbcfc2f60	-0.030784309
61	0x3e2cbd4b	0.16869085
62	0x3dba02f6	0.09082596
63	0x3dea430e	0.11438571
64	0xbcbd2100	-0.023087025
65	0xbcd35238	-0.02579604
66	0xbe1e61ca	-0.15466991
67	0x3d581f1c	0.052764043
68	0x3d3f2b40	0.046672106
69	0xbdabf9e2	-0.08397271
70	0xbe1e3f32	-0.15453795
71	0xbe1e718e	-0.15473005
72	0xbe0e1dc6	-0.13878545
73	0xbdfb5af8	-0.1227321
74	0xbdd98bad	-0.10622344
75	0x3e12e2e5	0.14344366
76	0xbc2d7b40	-0.010588467
77	0x3dd8bdba	0.105830625
78	0xbddd7008	-0.10812384
79	0x3cacdf48	0.021102563
80	0xbd848d1d	-0.06472228
81	0x3e34089d	0.1758141
82	0x3d1d468c	0.038397357
83	0xbd70a7e4	-0.058753863
84	0x3d8c2724	0.06843403
85	0x3db6ba22	0.08922221
86	0x3d82a77c	0.06379601
87	0xbc83e468	-0.016100124
88	0xbd4cf5d0	-0.050039113
89	0xbd13fd80	-0.03613043
90	0xbe0b8dfc	-0.13628381
91	0xbd6284a2	-0.05530227
92	0x3e2c984f	0.16854976
93	0x3d07fe88	0.033201724
94	0xbddb770f	-0.10716068
95	0x3e1ce60d	0.15322132
96	0x3db8676e	0.09004103
97	0xbda1f66f	-0.079083316
98	0xbcc7d088	-0.024391428
99	0xbcf23508	-0.029566303
100	0xbdb6edd9	-0.089320846
101	0x3e216161	0.15759803
102	0x3d8fb006	0.07015996
103	0xbde75390	-0.11295235
104	0x3d478d9c	0.048719034
105	0x3da6000a	0.08105476
106	0x3e0cc749	0.13747896
107	0xbddf38cd	-0.10899506
108	0xbc09a7e0	-0.008401841
109	0xbdac76a7	-0.08421069
110	0xbe1e9861	-0.15487815
111	0xbdefd037	-0.11709636
112	0xbbf87e60	-0.0075834244
113	0x3d9db8da	0.07701273
114	0xbd668470	-0.056278646
115	0x3e135e0b	0.14391343
116	0x3e2b4fd9	0.16729678
117	0x3db0cbfa	0.086326554
118	0xbbcd0a00	-0.0062572956
119	0x3d4b4ae0	0.049631953
120	0xbd1eea70	-0.038797796
121	0x3d1e11e4	0.03859128
122	0x3d36dc58	0.04464373
123	0x3dd08cee	0.1018313
124	0x3d53c658	0.051702827
125	0x3cb192a8	0.021676376
126	0xbe313bac	-0.1730792
127	0xbd1d5178	-0.038407773
128	0x3db1f4ee	0.08689295
129	0x3df6b756	0.12046687
130	0x3dcef72a	0.101057366
131	0x3d9b3d36	0.075800344
132	0x3de42db6	0.11141531
133	0xbb7a3d80	-0.003818363
134	0xbe1b7925	-0.15182932
135	0xbca2afa8	-0.01985915
136	0xbe2d7fbf	-0.16943263
137	0x3c8ae6e8	0.016955808
138	0x3e1ac2a9	0.1511332
139	0x3e152523	0.14564948
140	0xbe25da99	-0.1619667
141	0xbe055e1a	-0.13024178
142	0x3dc78e86	0.09743981
143	0x3d3df5c8	0.046376973
144	0x3cdc2a58	0.02687566
145	0xbe121f20	-0.14269686
146	0xbe17c401	-0.14820863
147	0x3da71192	0.08157648
148	0xbe00af01	-0.12566759
149	0x3e2f5417	0.17121921
150	0xbd8844ae	-0.066537246
151	0x3dc077ae	0.09397827
152	0xbe2f12b1	-0.17096974
153	0x3e1eeb01	0.15519334
154	0x3d822602	0.06354906
155	0xbe1b5a19	-0.15171088
156	0xbd51e6e8	-0.0512456
157	0x3ba273a0	0.004957631
158	0xbe0d8008	-0.13818371
159	0x3d41311c	0.047165975
160	0xbd27ed20	-0.040997624
161	0xbcf0c5e0	-0.02939123
162	0xbdb7c444	-0.089729816
163	0xbd29dd74	-0.04147096
164	0xbd1f9d68	-0.038968474
165	0xbd91edb3	-0.07125416
166	0xbd9a4dab	-0.07534345
167	0xbe216edc	-0.15764946
168	0xbd0eb38c	-0.034839198
169	0xbdcff17f	-0.101534836
170	0xbce505a0	-0.027956784
171	0xbc5fbf70	-0.013656482
172	0xbcee75e8	-0.029108956
173	0xbe33001b	-0.17480509
174	0x3d6be238	0.057588786
175	0x3dfb2c5a	0.12264319
176	0x3cf6fb28	0.030149058
177	0xbc840ef0	-0.016120404
178	0xbdbb6e58	-0.09151906
179	0x3dab658e	0.083689794
180	0xbd4a2348	-0.049350053
181	0xbe07f541	-0.1327715
182	0xbdfe98e2	-0.12431504
183	0xbd64a40c	-0.05582051
184	0x3df3ecbe	0.11910389
185	0xbdbea13a	-0.09308095
186	0x3b934440	0.00449422
187	0xbd5fb122	-0.054612286
188	0xbe1bb230	-0.15204692
189	0xbe248e68	-0.16069949
190	0x3cba0308	0.022706524
191	0x3e04c6a3	0.12966399
192	0x3dcc767e	0.09983538
193	0x3defd4ba	0.11710496
194	0xbe03544e	-0.12825128
195	0x3d1ab99c	0.037774667
196	0x3d8375c6	0.06418948
197	0xbdb4b320	-0.08823228
198	0xbddc5a51	-0.10759414
199	0xbda022d6	-0.078191444
200	0x3dc3c912	0.095598355
201	0x3a77c100	0.00094510615
202	0x3dd73526	0.10508184
203	0xbc8deeb0	-0.01732573
204	0x3dd08cfa	0.10183139
205	0xbd829506	-0.0637608
206	0x3dddf76a	0.10838206
207	0x3d8a045c	0.06739113
208	0x3e03c917	0.12869678
209	0x3c5236d0	0.012830451
210	0xbcb10f88	-0.021613851
211	0xbdc4955a	-0.09598799
212	0xbe25835b	-0.1616339
213	0x3c3faf70	0.011699542
214	0x3c476850	0.012170866
215	0xbe03c3f6	-0.12867722
216	0x3e198f33	0.14996032
217	0x3e116615	0.14199097
218	0x3db51d92	0.08843531
219	0x3d5de1c0	0.05417037
220	0x3c8a7d98	0.01690559
221	0xbd6b3e4c	-0.057432458
222	0x3d65dd18	0.056119055
223	0xbc4b0590	-0.012391463

fc3.bias f4 [7]
0	0x3e07bda5	0.13255937
1	0xbdb94bac	-0.090476364
2	0xbdaaea1f	-0.08345436
3	0xbdd7823a	-0.105228856
4	0x3ded347a	0.11582275
5	0xbd16d238	-0.036821574
6	0xbdcdcfe2	-0.10049416
