saves/final_ai_memory_npc_2_decision.pth (torch, 27433 bytes, 6 tensors)

fc1.weight f4 [64, 20]
00000000: 04f2 d1bd b0ba 353e 48a1 0ebd 5c42 32be
00000010: e0fb ae3c 72c0 5f3e 5228 b6bd d6ba 11be
00000020: 407a 5b3e 982b 8bbc 26cb 47be 4802 3d3d
00000030: 8260 4d3e c213 21be b842 62bd 250a cebd
00000040: 80ac 983c 9420 a7bd 3c60 88bd 0a6f 36be
00000050: 58d2 673d 9ab4 063e 3863 583d 7c3e 57be
00000060: b45d 01be 125c 223e 2891 13be 34a6 9b3d
00000070: 3091 093e 1cf9 e23d e4b5 de3d c0a1 33bd
00000080: 1449 69bd c2fd bbbd 449b 8e3d e80a 4abd
00000090: 2490 81bd 706c 13bd 559b cbbd f839 d13d
000000a0: 3685 2ebe 86b0 29be 7261 0dbe 40f4 423c
000000b0: 5093 8fbd 4ece 063e 644b 28be a8d6 b83c
000000c0: d417 f93d 4091 473d 1c7c 2ebd cfcb 54be
000000d0: 75d8 4abe d81b a83d 80e3 a53d 90c4 b33c
000000e0: 244c 5fbe aab1 333e 5e6e eebd 62cb 253e
000000f0: 9616 263e 8e4a 513e d0b1 583e d9dc f1bd
00000100: a422 4fbd 2557 4ebe 783a 5c3e 40be 28bb
00000110: 20a3 033d 4444 393e d22f 243e ecfb 603e
00000120: d054 27be e027 1fbd f6b4 1dbe e00a 4bbd
00000130: 40a3 be3d 363a 123e 12c9 113e cc58 89bd
00000140: 8c9d 02be 6cdf b7bd 4013 65bc e4b2 0cbd
00000150: 90e7 133c 6836 c43d 940a 20be 7ee2 2b3e
00000160: ca9e 80bd ba9f 0abe f607 4cbe 8856 503e
00000170: 9292 13be 846e 263e 5b9d 43be 84ca 4abe
00000180: 006e cb3d e0e8 16be 2ca6 593e 64ed 523e
00000190: 5bee d1bd 5c22 c13d fac3 ecbd 2c4f 203e
000001a0: 80bb af3d 1e74 19be b031 9a3d 8809 71bd
000001b0: 9832 bd3d ca0a 44be e0d1 c03b 0a01 153e
000001c0: f06c 24bd d0ed b83c 9827 173d 66fc 39be
000001d0: f276 01be f0eb 713d 6a8a 40be 88e4 d13c
000001e0: e05e b93d 2879 773d 5e7d 463e c82a 5b3d
000001f0: 263f 4bbe 28bd 59be 34b7 1e3e 7a24 19be
00000200: 9034 003d a0bd 4c3e 4868 3ebe f077 853d
00000210: 6ab1 503e 1009 533d a8e1 fd3d 5680 82bd
00000220: 9cbd f83d 57ac 25be 54fe 3abe 4cf0 69bd
00000230: 0631 1c3e 706f 49bd a458 abbd b48a 63be
00000240: 18fa b8bd 3a9f bbbd 1a1a 02be 1493 92bd
00000250: 84f4 d53d a8b2 2d3d e224 83bd 3caf fe3d
00000260: 3aa6 a1bd 1a9a 233e 1034 ce3d 51b0 48be
00000270: 28dc 31bd 9249 2b3e b2c7 53be 4ac1 abbd
00000280: 3403 0a3e 9e65 b8bd ecf9 4dbe 3060 023d
00000290: 4074 f5bd 5c6a e33d 7fc8 5cbe 8256 cfbd
000002a0: 5c3d 25be de14 2ebe 107b 693d 78c0 c93d
000002b0: 7a77 193e 2ce7 2b3e 92dc 553e 2052 8b3c
000002c0: b622 bebd c302 07be 6048 d83d c0de 123d
000002d0: b805 d8bc 2b2a 58be 48aa a83d 8342 eebd
000002e0: 4831 d93d 6e19 263e c8f4 653d a020 cebc
000002f0: 6a38 3e3e c2d9 56be c6d8 1e3e 4654 053e
00000300: ac2b 2c3e a2ff 563e 2c8d a13d ec5a 2abe
00000310: be9e 463e c6e0 93bd a0e2 543e 7880 b2bd
00000320: 40be 3fbc f04a 1f3d 1f52 3cbe 409f 243d
00000330: 4f1c 30be 16a7 583e f086 0c3d ecab 563e
00000340: 9897 63be 85eb 18be 4052 3ebb 2473 e93d
00000350: 8aa4 4fbe b882 013e 8c85 c6bd b052 513e
00000360: 08aa 38bd 303f 833d c208 56be f0de 29be
00000370: 1c07 eabd 20b3 54be e4b0 0e3e 241e e43d
00000380: 3a7c 203e 22f0 2c3e c4b0 9abd 387b 7dbd
00000390: 887c 2b3d 959d f2bd c818 293e e83e 143d
000003a0: c0eb a6bb 80ff babb 9a31 b9bd 3692 0a3e
000003b0: 4dd2 18be c0fd 9f3d 2ead 5c3e 38f7 b5bd
000003c0: 076d d0bd 0686 1bbe 86f1 163e c299 19be
000003d0: 017b 64be b631 343e d4d7 883d 0410 823d
000003e0: 96fb 483e 94b0 a23d ff62 29be b663 283e
000003f0: 6849 433d f6f5 d3bd 5498 1bbe c0d8 7b3d
-0.10251239 0.17746997 -0.03482178 -0.17408127 0.021360338 0.21850756 -0.08894409 -0.14231429
0.21433353 -0.01698856 -0.19511089 0.046144754 0.20056346 -0.15730193 -0.05523941 -0.10060529
0.018636942 -0.08160511 -0.0665898 -0.17815796 0.056597084 0.13154832 0.052828997 -0.2101993
-0.12633401 0.15855435 -0.14410841 0.0760006 0.13434291 0.1108267 0.10874537 -0.04385543
-0.05695446 -0.0917926 0.06963208 -0.049326807 -0.06326321 -0.035992086 -0.099417366 0.10216135
-0.17043003 -0.16571245 -0.13806704 0.011899054 -0.070105195 0.13164636 -0.16435009 0.022563294
0.12162748 0.048722506 -0.04259883 -0.20780872 -0.19809134 0.08208436 0.08100033 0.021944314
-0.21806389 0.17548242 -0.116421446 0.16190866 0.16219553 0.20438597 0.2116158 -0.118097015
-0.050570145 -0.2015043 0.21506679 -0.0025748163 0.03213799 0.18092448 0.16033867 0.219711
-0.16340947 -0.038856387 -0.15401062 -0.049570918 0.09308481 0.14280018 0.14236858 -0.0670639
-0.12755412 -0.08978161 -0.01398164 -0.03435029 0.009027377 0.0958069 -0.15629035 0.16785619
-0.062802866 -0.13537493 -0.19924912 0.20345509 -0.14411381 0.16253096 -0.19102995 -0.19803816
0.0993309 -0.14737272 0.21254796 0.2059837 -0.10250541 0.09430382 -0.11560817 0.15655202
0.08580685 -0.14985701 0.075290084 -0.05884698 0.092381656 -0.1914474 0.005884394 0.14551178
-0.040142953 0.022574335 0.036902994 -0.18162689 -0.1264303 0.0590629 -0.18802801 0.025621668
0.09051299 0.060418278 0.19383761 0.053507596 -0.19848308 -0.21263564 0.15499574 -0.14955321
0.031300128 0.19994211 -0.18594468 0.06517017 0.20380178 0.051522315 0.12396556 -0.063721344
0.1214554 -0.16179024 -0.18261081 -0.05711393 0.15253076 -0.04917854 -0.08366516 -0.2222088
-0.090320766 -0.091612294 -0.1270527 -0.07156959 0.10447028 0.042406708 -0.06403519 0.12435767
-0.07893033 0.15976754 0.10068524 -0.1959851 -0.043422848 0.16727284 -0.20681646 -0.08386476
0.13477784 -0.09003757 -0.20114869 0.031830013 -0.119850636 0.11104271 -0.21560858 -0.10123922
-0.16136688 -0.17000148 0.057002127 0.098511636 0.14986983 0.16787404 0.20884922 0.017006934
-0.09283964 -0.13184647 0.105606794 0.035856962 -0.026369914 -0.21109836 0.082356036 -0.1163378
0.10605103 0.16220638 0.056141645 -0.025162041 0.18576208 -0.20981506 0.1551238 0.13020429
0.16813534 0.20995954 0.078882545 -0.16636246 0.19396493 -0.072206065 0.20789576 -0.0871591
-0.011703074 0.038889825 -0.18390702 0.040190935 -0.17198299 0.21157488 0.034308374 0.2096402
-0.22225797 -0.14933594 -0.0029040724 0.113989145 -0.2027761 0.12647521 -0.09693441 0.20441699
-0.04508403 0.064085364 -0.20901778 -0.1658895 -0.11427137 -0.20771456 0.13934666 0.11138561
0.15672389 0.16888478 -0.075532466 -0.06188509 0.04186681 -0.11846463 0.1651336 0.036192805
-0.0050940216 -0.0057067275 -0.09042664 0.13532338 -0.14923973 0.07812071 0.21550438 -0.08885044
-0.10177045 -0.15187845 0.14740571 -0.1500006 -0.22312547 0.17597088 0.06681791 0.06350711
0.19627222 0.07943836 -0.1654167 0.16444287 0.047677428 -0.10349648 -0.15194827 0.061486006

fc1.bias f4 [64]
00000000: a02d 623d c430 eb3d f8ab f23d e672 5abe
00000010: 80e7 13be d4b8 bbbd b80a b53d 7ce7 58be
00000020: dfd9 62be 247e cf3d 0495 0cbd 98c1 613e
00000030: 98eb c5bd e8ce 34be 20b4 2c3c c087 61bc
00000040: 9654 143e 9031 8c3d e6e4 1dbe 3c07 00be
00000050: 90d6 a93c ae24 80bd 3815 523e ed97 d5bd
00000060: a80e 5bbe 6cc6 8d3d 482e 17bd 83d3 11be
00000070: 1483 aabd 1b37 f5bd d817 683d 409f 88bb
00000080: a086 c23c 02a8 1e3e d8f0 40bd 7adf 21be
00000090: f144 3bbe 2034 503e 687a 543d b23e cfbd
000000a0: 848a ea3d 6e48 1e3e 404f 613e 96f8 18be
000000b0: 5d4e febd b0e1 3fbd a0a4 c33b 48d6 21be
000000c0: c019 ea3b 50a3 04bd 4e7b 32be 2030 82bb
000000d0: d0e4 393d c4e5 5f3e 9ca4 8f3d 461d 643e
000000e0: ccb0 883d a06a 6a3d 7e5f 42be e069 ec3c
000000f0: 8b69 fdbd 98e4 0b3d ac58 1d3e 7a35 023e
0.055219293 0.11483911 0.11849207 -0.21332893 -0.14443779 -0.091661125 0.08839935 -0.21182054
-0.22153424 0.10131481 -0.0343218 0.22046506 -0.096640766 -0.17657053 0.010540992 -0.0137652755
0.14485392 0.06845391 -0.15419349 -0.1250276 0.020732194 -0.06256996 0.20515907 -0.10429368
-0.2139231 0.069226116 -0.03690937 -0.14240842 -0.083257824 -0.11973401 0.056663364 -0.0041693747
0.023745835 0.15493777 -0.047104686 -0.15807906 -0.18288018 0.20332384 0.05187455 -0.1011938
0.11452201 0.15457317 0.22002888 -0.14938578 -0.1241729 -0.04684609 0.0059705526 -0.15804398
0.007144183 -0.03238231 -0.1742985 -0.003973022 0.04538423 0.21864992 0.070138186 0.22276792
0.06674346 0.05723059 -0.1898174 0.028859079 -0.12373646 0.03415355 0.15365857 0.12715712

fc2.weight f4 [64, 64]
00000000: a6e8 883d 4095 483d b482 08bd b02d d8bc
00000010: a8b9 ab3d b0a2 a0bd c0b9 37bb 8002 9b3d
00000020: e002 373d 605d 853c c0e3 ec3d 020a f4bd
00000030: 7069 19bd 567d ddbd 102f dbbd 246e 46bd
00000040: 2e3d c3bd 7c4c 893d ae4a d0bd f041 bebc
00000050: 80f9 d33d 78ab 373d 606c 3c3d 8ac1 b53d
00000060: 8e10 b4bd 1054 b5bd f011 813d 6065 553c
00000070: 58e1 9dbd 0063 613b 006d 5ebb 92fe f0bd
00000080: dcf7 6dbd e439 633d 94bd 19bd 6095 92bd
00000090: e00f 023d 5a15 fcbd 6016 5fbd 24f4 cabd
000000a0: 806b f03d d81b 9ebd d037 ebbd 406e 383d
000000b0: b491 cabd 4037 f2bd 4865 f83d 60eb d93d
000000c0: b066 2b3c 0498 36bd 0ef9 ca3d 6cd3 3fbd
000000d0: 2048 513d 68a7 21bd 80f3 aebd c615 b73d
000000e0: f85a aabc b4c0 5cbd a89f b6bc 00d0 87ba
000000f0: 00d8 1f39 e092 cd3c 18ae a93c d813 a9bd
00000100: 68e0 3c3d b688 e13d a068 9f3c 6078 863c
00000110: 389b 6d3d b0cb ce3d 98b7 72bd 92f3 97bd
00000120: 9c63 063d 7828 b93c c037 253d 724d ca3d
00000130: f013 f5bc 74e6 49bd 908b 8b3c 6873 863c
00000140: 9cd6 9ebd 147e 7e3d ca1e 9c3d 24b4 42bd
00000150: c0fd 89bd 4eae fd3d 30e1 c2bc f811 edbc
00000160: 8023 c2bd d876 2cbd 804c 3b3d 40b3 cd3b
00000170: ec28 9fbd 4406 a7bd ecfa 3bbd 0e09 a2bd
00000180: 80a5 dc3a 84b9 943d b466 293d c2ed 93bd
00000190: 82c4 80bd 2cba 5ebd 1421 693d ba37 8b3d
000001a0: 80ed 7dbd a81d 9c3c 0ef6 ffbd 206c 68bc
000001b0: 485c 9abc ec9f 563d 1cfe 043d 349a 71bd
000001c0: 006e e2bd ce50 abbd 8cbf 86bd 5e36 8e3d
000001d0: a06b b23d 5a73 8e3d aa81 adbd c681 85bd
000001e0: c4b1 2d3d e034 853d 3adf 8c3d a852 fc3c
000001f0: 8c81 a73d b431 febd 5834 f2bc 5ccb ba3d
00000200: 9224 933d fe21 c0bd 34f9 3cbd 0e8e b4bd
00000210: 2886 f8bd 68d2 c93d 44d5 223d b894 c0bd
00000220: 80bb 383c a073 483c 50fe 54bc c2b7 b0bd
00000230: 8806 cebc e41d 72bd 18c5 8b3c 80dc e4ba
00000240: 507f 493c a00c f63b 5892 fcbd 98da d5bd
00000250: 30e1 0c3c 26d5 833d 0078 b53c 7a8a b83d
00000260: d2c2 ff3d 2abc a63d a4cd e7bd 1ca1 2d3d
00000270: be46 82bd 0a10 9e3d d254 edbd 10fd 53bd
00000280: eae1 c2bd 00b4 21b9 003d 083a 6040 13bd
00000290: e08b 48bd d49a 98bd fc26 22bd d846 933c
000002a0: ea64 eabd 986f d7bd 82f0 dfbd f484 ffbd
000002b0: 0043 ac3b 605d 3e3c 58d3 f7bd 2e98 fabd
000002c0: e4fc 81bd 3c00 95bd 00a0 05b8 408e 43bd
000002d0: 1e02 db3d 0655 843d 40e9 c23d 5ecb a5bd
000002e0: 6c3e 87bd 34fc d0bd 827b 9a3d 54c1 c33d
000002f0: fc3e 26bd 2c15 15bd 5219 973d d40c 0d3d
00000300: 08f1 fcbc 6c53 86bd 34dd 6f3d 10ba b7bd
00000310: b658 a6bd d438 a9bd b0a2 d93c eccb 67bd
00000320: 7adf a2bd e075 723d e0f6 d13b 00f7 183c
00000330: b00f 89bc 7614 e03d 560f f1bd 4648 993d
00000340: 2872 bdbd 70e5 383d 94ff 0fbd a8b9 c1bc
00000350: 90a4 bc3d b87b 293d e0dd cc3d 6c7c b23d
00000360: be76 83bd 7c2b a7bd 64f2 a0bd f824 043d
00000370: 8875 ed3d 98f8 a53c a04e 163d d0ee c43c
00000380: 56df fc3d 940f 48bd 3816 ee3d 40c5 603d
00000390: 28df 4a3d bc6e 4d3d e4e6 15bd a4b0 213d
000003a0: 3022 dd3c c822 febc c08e 39bd 8ec7 c23d
000003b0: a011 b53c 8018 65bb accd 42bd c02a 0e3c
000003c0: 9083 98bc 162c c6bd a85f 2d3d e02e 15bc
000003d0: 203f babd 72b3 b33d 8896 a8bd 00ef 033a
000003e0: 58c6 c7bc 4cce e43d e817 ea3d a05e 8dbd
000003f0: 84af 92bd 701a 2fbd a86a 343d 00c7 cd3d
0.06684999 0.04897046 -0.033327773 -0.026388973 0.083850205 -0.0784353 -0.00280343 0.07568836
0.044680476 0.016279876 0.11566877 -0.11915971 -0.03745407 -0.108149216 -0.10702336 -0.048444882
-0.095331535 0.06704041 -0.10170494 -0.0232248 0.10350323 0.04484126 0.046001792 0.08874805
-0.0879222 -0.08853924 0.063022494 0.013024658 -0.077089965 0.0034391284 -0.003393948 -0.117673054
-0.058097705 0.05547513 -0.03753431 -0.07157397 0.03175342 -0.1230876 -0.054464698 -0.099098474
0.11739254 -0.077201545 -0.11485255 0.045027018 -0.09891072 -0.11826944 0.12128693 0.10640597
0.010461494 -0.044578567 0.09910785 -0.046832487 0.051094174 -0.03946629 -0.08542538 0.089397
-0.02079533 -0.053894714 -0.022292927 -0.0010361671 0.00015243888 0.02509445 0.020712897 -0.08255738
0.046112448 0.11012404 0.019459069 0.016414821 0.058009356 0.10097444 -0.05925712 -0.07419504
0.03280984 0.022602305 0.04033637 0.09878053 -0.029916734 -0.049292043 0.017034322 0.016412452
-0.07755777 0.062131956 0.0762306 -0.047535077 -0.06737852 0.123867616 -0.023789018 -0.028939232
-0.09479427 -0.042105526 0.045727253 0.006277472 -0.07771477 -0.08155492 -0.045893595 -0.07911883
0.0016833991 0.07261947 0.04135771 -0.07223083 -0.06287481 -0.054376766 0.05691631 0.067977384
-0.061994076 0.01905711 -0.12498103 -0.014185935 -0.018842831 0.052398607 0.0324689 -0.05898495
-0.11056137 -0.08365022 -0.065795034 0.069439635 0.08711934 0.06955595 -0.08471997 -0.06518893
0.04240586 0.06504226 0.068785146 0.030801132 0.08179006 -0.12411824 -0.029565975 0.09120819
0.071847096 -0.093814835 -0.046136096 -0.08816157 -0.12134963 0.09854585 0.039754167 -0.09403366
0.011275172 0.012234598 -0.013000086 -0.08628799 -0.025149599 -0.059110537 0.017061755 -0.0017460734
0.01229842 0.0075088292 -0.123326 -0.10442084 0.008598611 0.06437139 0.022151947 0.09010787
0.12488331 0.08141358 -0.1131852 0.042389974 -0.06361149 0.07717903 -0.11588444 -0.05175501
-0.09515746 -0.00015421212 0.0005197078 -0.035950065 -0.04896152 -0.07451406 -0.03958796 0.017978117
-0.11445029 -0.10519332 -0.10934545 -0.12476531 0.0052570105 0.011618942 -0.121008575 -0.12236057
-0.06347063 -0.07275435 -3.1858683e-05 -0.047743082 0.10693763 0.064615294 0.09517145 -0.0809543
-0.06603703 -0.10204354 0.075430885 0.09558359 -0.04058741 -0.036397144 0.07377876 0.034436062
-0.030876651 -0.0655888 0.058560565 -0.089710355 -0.08122389 -0.08262792 0.026566833 -0.05659096
-0.07952781 0.059194446 0.0064076036 0.009336233 -0.016731113 0.109414026 -0.11770503 0.07484488
-0.09250289 0.045140684 -0.035155848 -0.023648098 0.09211075 0.041377753 0.10003257 0.08715138
-0.06419133 -0.08162591 -0.07858732 0.03226182 0.11594683 0.02026014 0.036696076 0.024039656
0.123472854 -0.04884298 0.11625332 0.054875612 0.049529225 0.050154433 -0.036597148 0.0394751
0.026993841 -0.031022444 -0.045302153 0.09510718 0.02210313 -0.003495723 -0.047559425 0.008677185
-0.018617421 -0.096763775 0.042327553 -0.009105414 -0.090940714 0.08774461 -0.082318366 0.0005032867
-0.02438657 0.111721605 0.11430341 -0.06902814 -0.07162383 -0.042749822 0.044047028 0.10047722

fc2.bias f4 [64]
00000000: 4c1d 423d ec85 793d 2a15 f1bd 128a a1bd
00000010: 10ec 7e3c 38ef da3c 749b 533d fcde bd3d
00000020: 9048 243c e68c 813d 8230 803d a084 a7bd
00000030: c017 0d3c 7cb7 e83d aecf a53d 8c61 b43d
00000040: 0807 683d c0be c3bc 4a22 a63d 44cb a4bd
00000050: a077 5dbd c8f0 e63d cc80 173d bced bebd
00000060: fc87 843d ec96 953d 008d 24bd 166c bc3d
00000070: eec9 c63d 748d e13d 5ca7 d03d 2cfc 3fbd
00000080: a46f 203d 0455 8bbd 6871 e0bc 6054 ac3c
00000090: c4b9 0f3d 34d6 e2bd e271 b6bd bef4 c9bd
000000a0: 5209 d5bd 264e 853d 169a 87bd c43f 1ebd
000000b0: 9e87 a73d e019 d2bb c052 9ebc c870 d13c
000000c0: a819 c93d b8e2 a23d 202c 1abd 14e2 81bd
000000d0: a29e f9bd 60fe ad3c 8094 0ebc f078 443d
000000e0: 1231 bbbd 12a3 c33d 38f1 d03d 7260 8bbd
000000f0: 3cc5 273d 00da ea3c f037 c03c 50c3 8bbc
0.04739122 0.060918733 -0.11771615 -0.07887663 0.015559211 0.026725397 0.051661924 0.092710465
0.010027066 0.06325702 0.06259252 -0.08179593 0.0086116195 0.11363122 0.080962524 0.08807668
0.05664733 -0.023894668 0.08112009 -0.08046582 -0.05406916 0.11276394 0.036988065 -0.09322688
0.064712495 0.07304177 -0.04017353 0.09200303 0.09706484 0.11013308 0.10188171 -0.04687135
0.03916897 -0.06803325 -0.027397826 0.021036327 0.03508927 -0.11076012 -0.0890844 -0.09861134
-0.10402168 0.06509046 -0.066211864 -0.03863503 0.08180164 -0.006411776 -0.019326568 0.025566474
0.09819347 0.079533994 -0.037639737 -0.06341949 -0.1218846 0.02123946 -0.008702397 0.047966897
-0.09140219 0.095525876 0.10202259 -0.06805505 0.04095958 0.028668404 0.023464173 -0.017060906

fc3.weight f4 [8, 64]
00000000: d0b2 b83c a21c 803d 6889 d23d f06b e63d
00000010: 2416 47bd 70b3 a5bd 742c 783d 3025 14bc
00000020: 6edd c8bd 707b d2bc f270 fe3d 40f8 213b
00000030: d8b2 3c3d e8be 33bd bc01 09bd b8d9 afbc
00000040: 401c f8bb cad2 ab3d 80aa e83d 92e7 b93d
00000050: b0e2 953d c0d2 633c dcd2 5d3d eceb 76bd
00000060: 3055 b73c 38c1 dabd e049 77bc 4abd bc3d
00000070: eedd 82bd dc2a 253d 4afc f9bd 3ed8 e53d
00000080: b0ce 893c b4e0 32bd c084 1f3d 30bb 393c
00000090: 7442 07bd 80c7 c3bb 62c8 d3bd 8075 d53a
000000a0: 186e f63d 70a7 6bbc b03c d8bd 448a 113d
000000b0: 3809 8bbd 2451 8dbd 149d 51bd 6872 fc3d
000000c0: 5469 7d3d 00b3 633d 0050 79ba e03b ffbc
000000d0: a297 873d 28a5 e53c d01d c6bc 5c6e a23d
000000e0: a275 d43d 8072 8bba 84a0 cbbd 74d0 38bd
000000f0: eafb 99bd 4267 cd3d 2814 86bc a027 1fbc
00000100: ec55 10bd 2ccc ccbd a8f8 373d c449 d33d
00000110: a4df c3bd 30ce 153c 0070 12b9 705d 6c3c
00000120: 841c a23d dac9 98bd b430 7a3d 0c98 a03d
00000130: b66c e23d bc30 c4bd 9226 973d dc90 133d
00000140: 103d e23d 0061 773a e2fd 9abd 5c05 9d3d
00000150: 9af2 b9bd d4fc 21bd 0044 99bc 1474 b9bd
00000160: 96e6 a3bd 782f b1bc d063 69bc ca3c 993d
00000170: 005e 0abc e0ca 6e3d 2c5a da3d 448d e0bd
00000180: a064 bb3d f0fb 103c e07e 73bc d8d2 d83c
00000190: be4d ad3d 8edc bebd 2028 39bc 0c6d e33d
000001a0: b8ac 883c 1279 e2bd 96ba 88bd 061e ea3d
000001b0: 70b2 773d 0040 90bc 30d2 603c 085c 6c3d
000001c0: 20c3 253d 40d2 63bb ecab 123d b245 ab3d
000001d0: 2ce9 d83d 20d3 f8bd f8ca 06bd 9eeb c2bd
000001e0: 2caf eb3d f07d d03d 9057 723c d899 b1bd
000001f0: 02b0 b3bd 844d cc3d ac5f ebbd 68b3 e43d
00000200: c8f9 e13c 2281 da3d c00f 69bd f0f3 f23c
00000210: e8a7 43bd 0c15 9dbd 5044 25bc d8f0 01bd
00000220: f03f 06bd f025 093c 2422 8bbd e0b9 2e3d
00000230: 1484 723d a484 6abd 4a87 d8bd f2c8 883d
00000240: 7c62 07bd b84c 1cbd 7ec6 a4bd d066 5abc
00000250: 4e39 883d e0db 0fbc 540c 6cbd 2636 e73d
00000260: 403d 4a3c f800 bb3d 20be f43c 0821 1f3d
00000270: be3c f53d a81b 963d a88c 8d3d f29f ebbd
00000280: 00c3 43bb 5e5f a73d 98a8 4fbd faf7 88bd
00000290: 10f8 0a3c 98ee 663d a0b9 88bc 3a59 8dbd
000002a0: a8cf 3ebd d4a6 633d 1e0b bcbd 4020 92bc
000002b0: 486b b4bc 4c8e 0bbd a866 f63d 30e9 aabd
000002c0: 6858 47bd 005c e4ba ac02 75bd 8021 4cbd
000002d0: 6cef 1bbd 8cf1 ffbd e019 563c c00d 07bd
000002e0: 6e5a c6bd 9cdb d03d d44a ae3d 10b5 073c
000002f0: 1086 46bd 0ea2 dd3d 601a 11bc 3e4b 94bd
00000300: 7e1f ff3d fcb7 eabd f0ef a8bc d092 d5bc
00000310: d094 e53c da4f c6bd 788f 903d f0b2 313d
00000320: 0014 913b 300b b4bc ba54 dfbd 3012 2fbc
00000330: 28cc e0bc 6849 4d3d 00cc 133c 6a5c ea3d
00000340: 286f a2bc c097 93bb b805 e43d 00f4 843c
00000350: d04f bfbd 40cc 853b 6c78 593d d456 e5bd
00000360: 1a4a 843d a8e1 bbbd a024 383d 40d7 2b3d
00000370: aa18 f2bd 0066 12bd 3474 82bd 8086 2abb
00000380: c29e f53d 3c7b 82bd 048a 7fbd b204 86bd
00000390: 68d9 b33c eebc c1bd 50e7 fb3c d49b 9a3d
000003a0: 94b9 9c3d 60f5 e33c 46b6 92bd 7c79 45bd
000003b0: 2a6a cbbd a85d 92bc 9074 8c3c dac7 b43d
000003c0: 4c84 f93d ac87 0a3d 1c50 24bd 2a00 86bd
000003d0: b4c5 f23d f6ca c63d 241e a83d 68a3 df3d
000003e0: 2c1d 133d 10f0 9ebd 18a8 263d 0089 d73d
000003f0: 3259 c9bd b0a1 4c3d dc28 b63d 02a9 dbbd
0.022546202 0.06255461 0.102801144 0.11251056 -0.0486051 -0.080908656 0.06058927 -0.009042069
-0.09807859 -0.025693625 0.12423886 0.002471462 0.046068996 -0.043883234 -0.03344892 -0.021466121
-0.007571727 0.08389814 0.11360645 0.09077372 0.07318628 0.013905227 0.05415617 -0.060283586
0.022379488 -0.10681385 -0.015093297 0.092157915 -0.06389986 0.040324077 -0.122063234 0.112228855
0.01682219 -0.043671325 0.03894496 0.011336133 -0.03302236 -0.00597471 -0.10340954 0.0016285628
0.120327175 -0.014383182 -0.1055845 0.03553225 -0.06788868 -0.06900242 -0.051175192 0.12326509
0.061868027 0.05559063 -0.0009510517 -0.03115648 0.066207185 0.028032854 -0.024184138 0.07931206
0.10373999 -0.0010638982 -0.09942725 -0.04512067 -0.07518752 0.100294605 -0.016367033 -0.009714037
-0.03523819 -0.0999988 0.04491487 0.10316804 -0.095641404 0.009143397 -0.00013965368 0.014426574
0.07915595 -0.07460375 0.061081603 0.07841501 0.11055891 -0.09579608 0.073804036 0.03602682
0.11046803 0.00094367564 -0.075679556 0.07667038 -0.09079476 -0.039547756 -0.018709183 -0.09055343
-0.08002965 -0.02162908 -0.014244989 0.07482298 -0.008445263 0.058298945 0.1066173 -0.10964444
0.09150052 0.008849129 -0.014861792 0.026467726 0.08462094 -0.09319411 -0.01130107 0.111047834
0.016683921 -0.110582486 -0.066762134 0.11431508 0.060472906 -0.017608643 0.013721988 0.057704955
0.04046929 -0.003476277 0.03580849 0.08362903 0.10591349 -0.12149644 -0.03290841 -0.09517597
0.11508021 0.10180271 0.014791384 -0.086719215 -0.08773805 0.099757224 -0.11492857 0.111670315
0.027584925 0.106691614 -0.056899786 0.029657334 -0.04776755 -0.0767003 -0.010087088 -0.031723827
-0.03277582 0.008370861 -0.06793621 0.042657733 0.05920799 -0.057255402 -0.10572679 0.06678952
-0.033052906 -0.038159102 -0.08045672 -0.0133301765 0.06651555 -0.00878045 -0.057628945 0.11289625
0.012343705 0.09131044 0.029875815 0.03884986 0.11974476 0.07329494 0.06911594 -0.115051165
-0.0029870868 0.08172487 -0.050697893 -0.06687923 0.008481994 0.056379884 -0.016690075 -0.06901784
-0.046584755 0.05557902 -0.09181808 -0.017837644 -0.022023812 -0.03407125 0.12031299 -0.08345258
-0.048668295 -0.0017422438 -0.059817 -0.049836636 -0.038070127 -0.12497243 0.0130676925 -0.032972097
-0.09685217 0.10198137 0.08510366 0.008282915 -0.048467696 0.10821925 -0.008856386 -0.07240914
0.124571785 -0.114608735 -0.020622224 -0.026070982 0.02802506 -0.09683199 0.070586145 0.04338354
0.004427433 -0.02197799 -0.10904832 -0.010685489 -0.0274411 0.050118834 0.009020805 0.11443408
-0.019828394 -0.004504174 0.11133903 0.01622963 -0.09341395 0.0040831864 0.05309336 -0.11198202
0.06459446 -0.091739 0.044956803 0.041953325 -0.118211105 -0.035741806 -0.0636982 -0.002602011
0.11993171 -0.06371161 -0.06238748 -0.06543864 0.021954253 -0.094598636 0.030749947 0.07549253
0.07652584 0.027826965 -0.07163672 -0.04821156 -0.099323586 -0.017866924 0.017145425 0.08827181
0.12183437 0.033820793 -0.04011546 -0.06543 0.11854115 0.097066805 0.08208874 0.10919839
0.035916492 -0.07760632 0.04068765 0.105241776 -0.09831466 0.049958885 0.08894512 -0.10725595

fc3.bias f4 [8]
00000000: 7e7d febd d063 afbc 08cd b3bc 168f c5bd
00000010: 003f bd3b 8c72 d83d 4497 6fbd 8031 c83a
-0.124262795 -0.021409899 -0.021948352 -0.09646432 0.0057753325 0.10568723 -0.058493868 0.0015273541
