saves/final_ai_memory_player_1_decision.pth (torch, 27469 bytes, 6 tensors)

fc1.weight f4 [64, 20]
0	0x3d9d67c8	0.0768581
1	0x3e3f8832	0.18704298
2	0xbe3fe4a2	-0.1873956
3	0x3ccf5e80	0.025313616
4	0xbe2a136a	-0.16608968
5	0xbe24dd96	-0.16100153
6	0xbc11d850	-0.008901671
7	0x3e58dac6	0.21177205
8	0x3e075b9a	0.13218537
9	0x3d81ff8c	0.0634757
10	0xbe63228b	-0.22181146
11	0x3d232e38	0.039839
12	0xbe32cb06	-0.1746026
13	0x3e168fac	0.14703244
14	0x3c19c130	0.009384438
15	0xbe43f329	-0.19135727
16	0xbcd5b7a8	-0.02608855
17	0x3e5c42ec	0.21509904
18	0x3e4b9c2e	0.19883797
19	0xbd8cc678	-0.068737924
20	0x3d8145b0	0.0631212
21	0xbd645210	-0.055742323
22	0xbd8cd14a	-0.06875856
23	0xbc8df6f0	-0.017329663
24	0x3e1dc5f0	0.15407538
25	0x3c0a6710	0.008447424
26	0xbe0bce98	-0.13653028
27	0xbdde2192	-0.10846247
28	0xbe54e382	-0.20789912
29	0x3c0f92f0	0.00876306
30	0x3c78fb50	0.015196636
31	0x3d852688	0.0650149
32	0x3e1b005a	0.15136853
33	0x3e05d52e	0.13069603
34	0xbe225b2c	-0.15855092
35	0x3df47188	0.11935717
36	0x3c336d10	0.0109512955
37	0xbd554284	-0.052065387
38	0xbd6babd4	-0.057536915
39	0x3de221ec	0.11041626
40	0xbdfd2277	-0.12360089
41	0xbda2345a	-0.079201415
42	0x3d8a5944	0.06755307
43	0xbe4e0926	-0.20120677
44	0x3e4dae3a	0.20085993
45	0x3d97fe7c	0.07421586
46	0x3c1a2370	0.009407863
47	0xbd6e7914	-0.058220938
48	0x3e02554a	0.12727848
49	0xbe427b1e	-0.18992278
50	0xbd22e374	-0.039767697
51	0xbc45c320	-0.012070447
52	0x3e375a9c	0.17905658
53	0xbe2d5cac	-0.16929883
54	0xbe56e2b0	-0.20984912
55	0x3e0e1b2e	0.13877556
56	0xbe3d369b	-0.18477862
57	0x3d2ff830	0.0429613
58	0xbc9ef158	-0.019402191
59	0x3c83f1e0	0.016106546
60	0x3ddef328	0.10886222
61	0x3d673ae0	0.056452632
62	0x3baaacc0	0.0052085817
63	0x3dcbc360	0.09949374
64	0x3d8b7400	0.068092346
65	0xbe35c383	-0.17750363
66	0x3cc98328	0.024598673
67	0xbe413044	-0.18866068
68	0xbd2a13bc	-0.041522726
69	0x3e2e347e	0.17012212
70	0x3e26b416	0.16279635
71	0xbe4504f9	-0.19240178
72	0x3db94c3c	0.09047744
73	0x3e03bbd8	0.12864625
74	0x3e048d04	0.12944418
75	0x3d2ec230	0.04266566
76	0x3e3a7124	0.18207222
77	0xbe0fef9b	-0.14056246
78	0x3e13315e	0.14374301
79	0x3dc809d4	0.097674996
80	0x3ddd9a74	0.10820475
81	0xbd6bf048	-0.057602197
82	0x3a950400	0.001136899
83	0xbe5e8f80	-0.21734428
84	0xbe06af76	-0.1315287
85	0x3e56207e	0.20910832
86	0xbe2f50e0	-0.17120695
87	0x3e3af296	0.18256602
88	0xbe40d7af	-0.18832277
89	0x3e00329a	0.12519303
90	0x3cdbd4b0	0.026834816
91	0xbdfb08df	-0.122575514
92	0xbd89f866	-0.06736831
93	0x3cb88308	0.022523418
94	0x3e1a41f0	0.15064216
95	0x3c5654a0	0.0130817
96	0xbd93bf70	-0.07214248
97	0x3e62189e	0.22079703
98	0xbcd92058	-0.02650468
99	0xbce9b310	-0.028527766
100	0xbda7ebd8	-0.081992805
101	0xbe471cdc	-0.19444603
102	0x3e045b2c	0.12925404
103	0x3d4e1f48	0.0503228
104	0x3b54bb80	0.0032460392
105	0xbe09cd03	-0.13457112
106	0x3d075618	0.03304109
107	0x3dfbc2b0	0.12292993
108	0xbd22b8c4	-0.039726987
109	0xbd22cde8	-0.03974715
110	0xbe15de52	-0.1463559
111	0x3e0ccb26	0.1374937
112	0x3ddbba04	0.10728839
113	0xbd986ce8	-0.07442647
114	0xbc50c6d0	-0.012742713
115	0xbdf7c6e0	-0.12098479
116	0x3e14aafe	0.14518353
117	0xbe216c11	-0.1576388
118	0xbe0ccbc8	-0.13749611
119	0xbe05be12	-0.13060787
120	0x3d093ef8	0.033507317
121	0x3d11ce88	0.035597354
122	0xbc950830	-0.01819238
123	0x3da5fcf8	0.081048906
124	0x3e2bc58a	0.16774574
125	0xbd1e7458	-0.038685173
126	0x3dd0c418	0.10193652
127	0xbd8e75bc	-0.0695605
128	0x3d87e62c	0.06635699
129	0xbe3a449a	-0.18190232
130	0xbe0063d8	-0.12538087
131	0xbe2e2d42	-0.17009452
132	0x3e45f9a0	0.19333506
133	0x3e4e8bdc	0.2017054
134	0x3dd59008	0.104278624
135	0x3d5aa320	0.053378224
136	0x3d6222d0	0.05520898
137	0xbdacbe24	-0.08434704
138	0xbe5410e1	-0.20709564
139	0xbe3924df	-0.18080471
140	0xbe2efd06	-0.17088708
141	0x3e02cce8	0.12773478
142	0xbe48e178	-0.1961726
143	0x3e32c306	0.17457208
144	0xbe63ffdd	-0.22265573
145	0x3dc27ba0	0.09496236
146	0x3db55b5c	0.08855316
147	0x3bafdda0	0.005366996
148	0x3e5c9b14	0.21543533
149	0xbe02eae8	-0.12784922
150	0xbe4547cf	-0.19265674
151	0xbe50218a	-0.20325294
152	0xbdb1974a	-0.08671434
153	0x3e2de10a	0.16980377
154	0x3cfb5a00	0.030682564
155	0x3e262a7e	0.16227147
156	0xbda10d52	-0.07863869
157	0xbe48ec82	-0.1962147
158	0x3e5d882c	0.21633977
159	0x3e2084c8	0.15675652
160	0x3d96d744	0.073652774
161	0xbd7b2984	-0.06131889
162	0x3d2894d0	0.041157544
163	0x3b929900	0.0044738054
164	0xbcf2ccb8	-0.029638633
165	0xbdac32c8	-0.08408123
166	0x3e56669e	0.20937583
167	0xbe1a81e8	-0.15088618
168	0x3dcd89a4	0.100360185
169	0x3ad2c900	0.0016081631
170	0xbe01070e	-0.12600347
171	0xbd82dc70	-0.06389701
172	0xbc33f490	-0.010983601
173	0x3e25da3c	0.16196531
174	0xbd17f554	-0.037099198
175	0xbdcbfa88	-0.099598944
176	0x3e338ee4	0.17534977
177	0xbe426d05	-0.189869
178	0x3e51595e	0.20444247
179	0xbaa61800	-0.0012671947
180	0xbc7d86e0	-0.015474051
181	0xbe276218	-0.16346014
182	0x3e2b7344	0.16743189
183	0xbd5e60ac	-0.054291412
184	0xbda88e9e	-0.08230327
185	0x3dc27910	0.09495747
186	0xbd193e0c	-0.037412688
187	0x3e450968	0.1924187
188	0x3ca3c9e8	0.019993737
189	0x3e51c964	0.2048698
190	0x3e323b04	0.17405325
191	0x3e101b68	0.14072955
192	0x3cbe33f0	0.023218125
193	0x3d245400	0.04011917
194	0x3d094bf8	0.033519715
195	0x3e1c86de	0.15285823
196	0x3e33b6a4	0.1755014
197	0x3b005f00	0.0019587874
198	0xbd3d231c	-0.04617606
199	0xbd84c748	-0.064833224
200	0x3ccee2c8	0.025254622
201	0x3e5f6d94	0.21819144
202	0x3d4a7140	0.04942441
203	0xbe60f33a	-0.21967784
204	0xbe608a18	-0.21927679
205	0x3e3de876	0.18545708
206	0x3da72acc	0.0816246
207	0x3cda34c0	0.026636481
208	0x3dea8474	0.11451045
209	0xbd263240	-0.040575266
210	0xbe483a5f	-0.19553517
211	0x3d9f5a34	0.07780877
212	0x3ae9eb00	0.0017846525
213	0x3e14d41c	0.14534038
214	0xbe636b10	-0.2220881
215	0xbd2a1ce0	-0.041531444
216	0xbe25b009	-0.16180433
217	0x3d86c214	0.06579986
218	0xb98aca00	-0.00026471913
219	0x3d314038	0.043274134
220	0x3ca45fa8	0.020065144
221	0xbd481aac	-0.04885356
222	0x3d64dac0	0.05587268
223	0xbe3e1738	-0.18563545
224	0x3e0c9b74	0.13731176
225	0x3c191110	0.009342447
226	0xbe58b987	-0.21164523
227	0x3d80d920	0.06291413
228	0xbda3a604	-0.07990649
229	0x3d01a9b0	0.031655967
230	0xbdfcc8de	-0.12343
231	0xbce52708	-0.027972713
232	0x3bcd7f80	0.0062713027
233	0xbde34097	-0.11096304
234	0x3b07aa40	0.0020700842
235	0x3d7910f0	0.06080717
236	0x3d973ff8	0.07385248
237	0xbe29fbd8	-0.16599977
238	0x3e336cf0	0.17522025
239	0x3e2a2db6	0.16619
240	0xbd927698	-0.07151526
241	0x3e45f010	0.19329858
242	0x3e294180	0.16528893
243	0xbe4f452c	-0.2024123
244	0xbd55dfcc	-0.052215382
245	0xbdee546d	-0.11637197
246	0xbe486838	-0.19571006
247	0x3d8d8eb0	0.06911981
248	0x3e09e47c	0.13466066
249	0xbe474564	-0.19460064
250	0xbe20b5f4	-0.1569441
251	0x3dc9f880	0.09861851
252	0xbe1a9c95	-0.15098794
253	0x3d662c70	0.056194723
254	0xbe3b6ec3	-0.18303971
255	0xbd8b3b58	-0.06798428

fc1.bias f4 [64]
0	0xbe02a78a	-0.12759224
1	0x3da0caa8	0.078511536
2	0xbdcf60b3	-0.10125866
3	0xbd883a46	-0.0665174
4	0x3e407f68	0.18798602
5	0x3e53f59c	0.20699161
6	0xbe326e3e	-0.17424867
7	0xbe21ad66	-0.15788803
8	0x3e51272e	0.20425102
9	0x3e531734	0.2061432
10	0x3dc11468	0.0942772
11	0xbddf4c7a	-0.109032586
12	0x3cc769e0	0.024342477
13	0x3e4d2568	0.200338
14	0x3d833a24	0.06407574
15	0xbe2511f9	-0.16120137
16	0x3d593b20	0.0530349
17	0x3e1edb28	0.15513289
18	0xbdb8862e	-0.09009968
19	0x3e339fd8	0.17541444
20	0xbe4f8ecf	-0.20269321
21	0x3da3321c	0.07968542
22	0x3e1802ec	0.14844865
23	0x3d16b188	0.0367904
24	0x3d0ca890	0.03434044
25	0x3da78cc4	0.08181146
26	0x3dc4c348	0.096075594
27	0x3e36f874	0.17868215
28	0xbda6ec64	-0.08150557
29	0x3d78cc38	0.060741633
30	0xbddd1435	-0.1079487
31	0x3e0a6ae4	0.13517338
32	0x3d091ce0	0.033474803
33	0xbe3ff808	-0.1874696
34	0xbe2d1e3b	-0.16906063
35	0x3dd1cd08	0.10244185
36	0xbe075f2e	-0.13219902
37	0x3e2af424	0.16694695
38	0x3e581f9e	0.21105811
39	0x3e1ffdb6	0.15624127
40	0x3a28bb00	0.00064365566
41	0x3d9331f0	0.07187259
42	0xbd3ffa98	-0.046869844
43	0xbe006232	-0.12537459
44	0x3d4b5af8	0.0496473
45	0xbe62960b	-0.2212755
46	0x3c978718	0.018497035
47	0xbe285f94	-0.1644271
48	0x3dc87b18	0.09789103
49	0x3d6c51c8	0.05769518
50	0x3d7c2b50	0.061564744
51	0x3dfdacb4	0.12386456
52	0x3d876e4c	0.06612834
53	0xbc5bc040	-0.013412535
54	0xbd7751a8	-0.060380608
55	0xbe5bbefa	-0.2145957
56	0x3dfb299c	0.12263796
57	0xbad0e400	-0.001593709
58	0xbd88f920	-0.06688142
59	0x3cc578b0	0.0241054
60	0xbd639db8	-0.055570334
61	0xbe5f87c3	-0.21829133
62	0xbd6069b4	-0.054788306
63	0x3e51581c	0.20443767

fc2.weight f4 [64, 64]
0	0x3de50d0a	0.11184128
1	0xbdd60702	-0.104505554
2	0xbd2abe7c	-0.041685566
3	0xbdd53d24	-0.10412052
4	0xbd005234	-0.031328395
5	0x3d73f8d8	0.059563488
6	0xbc45d0f0	-0.01207374
7	0xbd8f19aa	-0.06987317
8	0xbd8ced1e	-0.06881164
9	0xbb202600	-0.0024436712
10	0x3bf81180	0.0075704455
11	0xbda468ae	-0.080277786
12	0xbba4a7a0	-0.0050248653
13	0x3d998f32	0.074980155
14	0xbd0830b8	-0.033249587
15	0xbc3962b0	-0.011315033
16	0x3d47c420	0.048771024
17	0xbd06fe10	-0.032957137
18	0xbda69936	-0.081346914
19	0x3d7f57d0	0.062339604
20	0x3de2358a	0.11045368
21	0xbd329d08	-0.043606788
22	0x3d665344	0.056231752
23	0x3d505128	0.050858647
24	0xbda0ccc8	-0.07851559
25	0x3a3c5800	0.0007184744
26	0x3b9f8c80	0.004869044
27	0x3c38b1b0	0.011272833
28	0xbaee2980	-0.0018170327
29	0xbd1ccad8	-0.038279384
30	0x3d5c2a70	0.05375141
31	0x3d8d30f6	0.06894104
32	0x3d9dd866	0.0770729
33	0x3d8b2b50	0.067953706
34	0xbc0be580	-0.008538604
35	0x3c3644d0	0.011124805
36	0xbda441e6	-0.08020382
37	0x3d51e048	0.051239282
38	0x3cad2870	0.021137446
39	0x3dbd3690	0.092389226
40	0x3d83de3e	0.06438874
41	0x3daa3ae8	0.08312017
42	0x3bd4d620	0.0064952523
43	0x3d705acc	0.05868034
44	0xbcfb9448	-0.030710354
45	0x3dfa5dc0	0.12224913
46	0x3db95634	0.09049645
47	0x3d404b24	0.04694666
48	0x3cd87618	0.026423499
49	0xbdcdc382	-0.10047056
50	0xbd8da5a2	-0.069163576
51	0xbd8d7654	-0.06907335
52	0xbd00ed9c	-0.031476602
53	0xbc234550	-0.009965256
54	0xbcf5ebe0	-0.0300197
55	0xbd90db94	-0.07073131
56	0xbd4ffebc	-0.050780043
57	0x3df57f26	0.11987142
58	0xbdd57f6c	-0.104246944
59	0xbd1150f0	-0.03547758
60	0x3c1f42e0	0.009720534
61	0x3dc1ff70	0.09472549
62	0xbd8232f4	-0.06357375
63	0xbd8a36f2	-0.06748761
64	0x3d3358b0	0.04378575
65	0xbc524b20	-0.012835294
66	0xbdb799e2	-0.08964898
67	0x3d8c82e8	0.06860906
68	0xbdb62a7e	-0.088948235
69	0xbd71e708	-0.05905822
70	0xbd0b70e4	-0.034043208
71	0x3d3e24e4	0.0464219
72	0xbd81dbfe	-0.06340788
73	0x3d00c16c	0.03143446
74	0x3db44cb6	0.08803694
75	0xbd6b8dac	-0.057508156
76	0x3d8b7044	0.06808522
77	0x3ddc365a	0.10752554
78	0xbda20c60	-0.079125166
79	0x3daef1e6	0.08542232
80	0x3dbdba1c	0.09264013
81	0xbddadbba	-0.10686441
82	0x3dc235ac	0.09482893
83	0xbdb83492	-0.08994402
84	0x3d561224	0.052263394
85	0xbd9c31f4	-0.07626715
86	0x3d072db8	0.033002585
87	0x3d029d34	0.0318882
88	0xbd068748	-0.032843858
89	0x3d98bbae	0.07457672
90	0xbd42649c	-0.04745923
91	0xbdb842e0	-0.089971304
92	0xbd07bf38	-0.033141345
93	0x3dacbfae	0.084349975
94	0x3be5a2e0	0.0070079416
95	0x3d47b7c0	0.048759222
96	0x3de4094c	0.11134586
97	0x3dc2d282	0.095128074
98	0x3dca13e0	0.09867072
99	0xbdfe14a0	-0.12406278
100	0x3d9d61c0	0.0768466
101	0xbd215b48	-0.039393693
102	0x3c8633e0	0.016382158
103	0xbdd7ab5c	-0.10530731
104	0xbdab2132	-0.08355941
105	0x3b61b240	0.003443852
106	0x3dfd2136	0.1235985
107	0xbda58714	-0.08082405
108	0x3d796cc8	0.060894758
109	0xbcb5cab8	-0.02219139
110	0xbda4d0c8	-0.08047634
111	0xbd615b20	-0.055018544
112	0x3de95408	0.11392981
113	0x3d6d09c8	0.057870656
114	0x3cf63ad0	0.03005734
115	0x3dd759f0	0.10515201
116	0xbb531e00	-0.0032213926
117	0xbded6982	-0.1159239
118	0x3dff1a6a	0.1245621
119	0xbc882268	-0.016617969
120	0xbb91dcc0	-0.0044513643
121	0xbd871506	-0.06595807
122	0xbd275d84	-0.040860668
123	0xbd674c24	-0.056469098
124	0x3dbb9ff4	0.09161368
125	0xbb81bb60	-0.0039591044
126	0xbd002844	-0.0312884
127	0xbb306f40	-0.002692178
128	0xbde4bdbc	-0.111690015
129	0x3ba99c80	0.005176127
130	0xbd1a1020	-0.037613034
131	0x3c2adf20	0.010429174
132	0x3dcb10c0	0.09915304
133	0x3de5d330	0.112219214
134	0x3d34e02c	0.0441591
135	0x3dc16ed6	0.094449684
136	0xbd8e82a6	-0.06958513
137	0x3d913dd8	0.07091874
138	0xbd69b06c	-0.057053015
139	0x3cc01100	0.023445606
140	0xbcb754b0	-0.02237925
141	0x3d1717e4	0.03688802
142	0x3d015d30	0.03158301
143	0xbdafd51e	-0.08585571
144	0x3d4e9d88	0.050443202
145	0x3d9f6f36	0.07784884
146	0xbdafb812	-0.085800305
147	0x3c833a80	0.016019106
148	0xbdf1da62	-0.11809231
149	0xbd2315cc	-0.03981571
150	0xbd409c68	-0.04702416
151	0x3da2d606	0.07950978
152	0xbd31e580	-0.04343176
153	0xbdb6b748	-0.08921677
154	0xbd45ef34	-0.048323825
155	0x3de7f996	0.113269016
156	0x3d38ee8c	0.04514937
157	0xbde4521c	-0.111484736
158	0x3db6e28c	0.08929929
159	0xbdf36458	-0.118843734
160	0x3c3ab7f0	0.011396393
161	0x3d8fd926	0.0702384
162	0xbdfa4626	-0.12220411
163	0xbdca3cca	-0.09874876
164	0xbd914156	-0.0709254
165	0xbdd122a8	-0.10211688
166	0xbc975150	-0.01847139
167	0x3d676d3c	0.05650066
168	0x3d4a6410	0.049411833
169	0x3da92242	0.08258487
170	0x3dfceff2	0.123504534
171	0x3d4ce5cc	0.05002384
172	0xbd9ed05e	-0.07754587
173	0x3d8a1f3e	0.0674424
174	0x3c2320d0	0.009956554
175	0xbcbcc8d0	-0.023044974
176	0x3d3b5e20	0.04574406
177	0x3d9c0e70	0.07619941
178	0x3dff0d1e	0.12453674
179	0xbd5199c4	-0.051172033
180	0xbcc46228	-0.023972586
181	0xbd8551fc	-0.06509778
182	0x3db96ccc	0.090539545
183	0x3d87755a	0.0661418
184	0xbdcfae04	-0.10140613
185	0xbdf88ba2	-0.12136008
186	0x3d000b10	0.03126055
187	0xbcb5bdc0	-0.022185206
188	0xbdfa28e6	-0.12214832
189	0xbdc7c12c	-0.097536415
190	0xbc392140	-0.011299431
191	0xbcadcef8	-0.021216854
192	0xbd7f83ec	-0.06238167
193	0xbca31a28	-0.019909933
194	0xbd24a70c	-0.04019837
195	0xbcbc96f0	-0.023021191
196	0xbd58eb4c	-0.05295877
197	0xbdcb2818	-0.09919757
198	0xbdfc7176	-0.123263285
199	0x3d229c7c	0.039700016
200	0xbd178cb4	-0.03699942
201	0x3d8a98de	0.06767438
202	0xb942b000	-0.00018566847
203	0xbd2cf0c0	-0.042221785
204	0x3c9c92c8	0.01911296
205	0x3ccdfba8	0.025144413
206	0xbdae873e	-0.08521889
207	0x3dbc84a8	0.0920499
208	0x3de4836a	0.11157878
209	0x3d2c5e6c	0.042082235
210	0xbdbabd78	-0.091181695
211	0xbd847640	-0.06467867
212	0x3cdecf38	0.027198419
213	0x3dad34b4	0.08457318
214	0xbdae5f6a	-0.085142925
215	0xbc456160	-0.012047142
216	0xbd09744c	-0.033558175
217	0x3d4c5f14	0.04989536
218	0xbdbdda10	-0.09270108
219	0xbde9761a	-0.11399479
220	0x3de51bfc	0.11186978
221	0xbc358e90	-0.011081353
222	0xbca31348	-0.019906655
223	0xbdeb1f74	-0.114806086
224	0xbd86d020	-0.065826654
225	0x3d8edc96	0.06975667
226	0x3c9025e8	0.0175962
227	0xbdb792ea	-0.089635685
228	0x3ddd874e	0.10816823
229	0xbd9d1eba	-0.07671876
230	0xbdeb76e0	-0.11497283
231	0x3da3163c	0.07963225
232	0x3ce2f560	0.027704895
233	0x3d5d1500	0.053975105
234	0x3de9d1aa	0.11416943
235	0xbd999e80	-0.075009346
236	0x3d96a68c	0.07355985
237	0xbde611fc	-0.11233899
238	0x3d0b5618	0.034017652
239	0x3d7922e4	0.06082429
240	0x3d603444	0.054737344
241	0xbd53bcd0	-0.051693738
242	0x3da49d30	0.08037794
243	0x3cf957f0	0.03043744
244	0x3d3cf1c0	0.04612899
245	0xbdccc84a	-0.099991396
246	0x3cedaa10	0.029011756
247	0x3db4825e	0.08813928
248	0x3dda9644	0.10673192
249	0xbdb6108c	-0.08889875
250	0x3c28e640	0.010308802
251	0x3d4c4d74	0.049878553
252	0xb8e08800	-0.00010706484
253	0xbcc73a20	-0.024319708
254	0xbd9af358	-0.075659454
255	0x3d9625de	0.07331441

fc2.bias f4 [64]
0	0xbd307e04	-0.043088928
1	0x3c972ca8	0.018453911
2	0x3db70b1c	0.08937666
3	0xbbe7ba00	-0.0070717335
4	0xbdc1016a	-0.09424098
5	0x3d82d320	0.06387925
6	0x3d8c1db4	0.06841603
7	0xbd920bb0	-0.071311355
8	0xbd6b97cc	-0.05751781
9	0xbdaa87a4	-0.08326653
10	0x3c8cea00	0.017201424
11	0xbd57a508	-0.05264762
12	0xbc0ce020	-0.008598357
13	0x3d497148	0.0491803
14	0x3d5b5380	0.05354643
15	0xbcb03e90	-0.021514207
16	0x3a567500	0.00081808865
17	0x3d20f880	0.039299488
18	0x3d38da0c	0.04512982
19	0xbda5cc32	-0.08095588
20	0xbdfbafdc	-0.12289402
21	0x3de430f8	0.111421525
22	0x3d144ef8	0.036208123
23	0x3cf1ab60	0.029500663
24	0x3d685dd4	0.056730106
25	0x3d00aa30	0.031412303
26	0x3d505abc	0.05086778
27	0xbdb960f8	-0.090516984
28	0xbd6d129c	-0.057879075
29	0x3d577cb8	0.052609175
30	0x3d2bee00	0.04197502
31	0x3db2f23e	0.0873761
32	0xbdcd5614	-0.10026184
33	0x3d26c804	0.040718094
34	0xbd040770	-0.032233655
35	0x3bbe4880	0.0058069825
36	0x3db09784	0.08622649
37	0x3d7bf26c	0.06151049
38	0x3cdf0640	0.02722466
39	0xbdd7d526	-0.10538702
40	0x3d9f5f20	0.077818155
41	0xbde17b96	-0.110099
42	0x3d9a7688	0.07542139
43	0x3d0d89cc	0.03455524
44	0x3d55cebc	0.05219911
45	0x3d700d98	0.058606714
46	0xbbef5b80	-0.007304609
47	0x3cab4350	0.02090612
48	0x3da3a420	0.07990289
49	0xbdf258ee	-0.11833368
50	0x3bef88a0	0.007309988
51	0x3d8e0d20	0.06936097
52	0xbd1fc668	-0.039007574
53	0xbdcb69fe	-0.09932326
54	0x3d1fa780	0.0389781
55	0xbc83f4d8	-0.016107962
56	0x3cb14588	0.0216396
57	0xbd757a48	-0.05993107
58	0xbddae2ee	-0.10687815
59	0xbdc1bd5e	-0.09459947
60	0xbdf65542	-0.120279804
61	0x3c326af0	0.010889754
62	0xbc4f48f0	-0.012651667
63	0xbdeef7c4	-0.11668351

fc3.weight f4 [8, 64]
0	0x3d3d4204	0.046205536
1	0xbd00e594	-0.031468943
2	0x3b1cf4c0	0.0023949593
3	0x3d8492c8	0.06473309
4	0xbde93122	-0.113863245
5	0xbde8e69c	-0.1137211
6	0x3dc936e0	0.0982492
7	0x3da0f6aa	0.078595474
8	0xbd2af4c0	-0.041737318
9	0xbd2dca64	-0.042429343
10	0x3d8aaf14	0.06771675
11	0xbd56f870	-0.052483022
12	0xbddc8aec	-0.10768685
13	0xbba07540	-0.00489679
14	0x3cfeb0c8	0.031090155
15	0x3cfb6e08	0.030692115
16	0x3dbeda5a	0.09318991
17	0x3d068f08	0.03285125
18	0xbcc127a8	-0.02357848
19	0xbdafba02	-0.085804
20	0x3dbe1502	0.09281351
21	0x3be06a80	0.0068486333
22	0x3c12a3d0	0.008950189
23	0xbd4e5c34	-0.0503809
24	0xbcc0e2f8	-0.023545727
25	0x3d12eb50	0.035868943
26	0xbb193d80	-0.0023382604
27	0x3dcb9f46	0.09942488
28	0xbdc708f4	-0.097185045
29	0xbcd30b20	-0.02576214
30	0xbd7a12cc	-0.061053082
31	0xbdf2db48	-0.11858231
32	0x3db54518	0.08851069
33	0xbde023ca	-0.10944326
34	0xbcdda498	-0.027056023
35	0xbda87fea	-0.08227523
36	0x3db7a72a	0.08967431
37	0x3d057068	0.032577902
38	0xbdd0b50c	-0.10190782
39	0x3d2573d4	0.040393665
40	0x3d0fb778	0.03508708
41	0xbd8ecea8	-0.0697301
42	0x3dce4176	0.100710794
43	0x3bb01180	0.00537318
44	0xbcb301f0	-0.02185151
45	0xbc935a68	-0.017987445
46	0x3d0d1604	0.034444824
47	0xbdd4ab36	-0.103842184
48	0xbddccc62	-0.107811704
49	0x3d234290	0.0398584
50	0x3de8f238	0.113743246
51	0x3c132860	0.008981794
52	0x3c831560	0.016001403
53	0x3ddcbf8e	0.10778724
54	0xbdedb762	-0.11607243
55	0x3d860742	0.06544353
56	0xbd1c0fb0	-0.0381009
57	0x3c2591b0	0.010105535
58	0x3da9710a	0.082735136
59	0x3d6f0680	0.05835581
60	0xbdf8386a	-0.12120135
61	0x3c8162d0	0.015794188
62	0xbd63c3c4	-0.05560662
63	0x3d2a96c8	0.041647702
64	0xbdf40644	-0.119152576
65	0x3ce98720	0.028506815
66	0xbcc9bc98	-0.024626061
67	0xbbd4b4e0	-0.0064912885
68	0xbd9c31fc	-0.07626721
69	0xbd400008	-0.04687503
70	0xbdd6a8de	-0.104814276
71	0x3d22b580	0.039723873
72	0xbde47d02	-0.11156656
73	0xbd939be4	-0.07207468
74	0xbd21d634	-0.03951092
75	0x3dbcf14c	0.09225711
76	0x3da0ff0e	0.07861148
77	0xbbfcf560	-0.0077196807
78	0x3d76787c	0.060173497
79	0xbdf3c13c	-0.11902091
80	0xbc1db6d0	-0.009626105
81	0x3b984be0	0.004647717
82	0x3c3db810	0.011579528
83	0xbde3f002	-0.11129762
84	0xbd345b94	-0.04403265
85	0x3d897d58	0.067133605
86	0xbd6ade6c	-0.057341024
87	0xbc262d60	-0.010142654
88	0x3d9d9774	0.07694903
89	0x3db9d612	0.09074034
90	0x3b7fb340	0.0039016753
91	0x3dd1a742	0.1023698
92	0xbde4b16c	-0.11166653
93	0x3de6b7b4	0.11265507
94	0x3cdff998	0.027340695
95	0xbc6121c0	-0.013740957
96	0xbda33a58	-0.079701126
97	0xbdd4e980	-0.10396099
98	0xbc81a338	-0.0158249
99	0xbbef20c0	-0.0072976053
100	0xbd128ea4	-0.035780564
101	0xbd059708	-0.032614738
102	0xba474200	-0.00076010823
103	0xbdb31cf8	-0.0874576
104	0x3d008fb0	0.03138703
105	0xbd13f9f0	-0.03612703
106	0xbd85c98c	-0.06532583
107	0xbc43a230	-0.011940524
108	0x3da32f3e	0.07967995
109	0x3d1e6348	0.0386689
110	0xbcd082f8	-0.025453076
111	0xbcfcf248	-0.030877247
112	0xbc28df00	-0.010307074
113	0xbd5ce07c	-0.053925022
114	0x3c1acc30	0.009448096
115	0x3d3b2c30	0.045696437
116	0xbd1743d8	-0.036929935
117	0x3da8a632	0.08234824
118	0x3dda9d22	0.10674502
119	0x3d2854c8	0.04109648
120	0x3de46b70	0.111533046
121	0x3dd12afa	0.10213275
122	0xbd8db0e0	-0.06918502
123	0xbd755d34	-0.05990334
124	0xbd7df200	-0.061998367
125	0x3dae7dae	0.08520065
126	0xbcf09478	-0.02936767
127	0x37d0e000	2.489984e-05
128	0x3d98627e	0.07440661
129	0xbdc85cfa	-0.09783359
130	0x3d5e58f4	0.05428405
131	0xbdada450	-0.08478606
132	0xbd964264	-0.07336882
133	0x3d1ebcb0	0.038754165
134	0xbdf27842	-0.118393436
135	0x3c15fea0	0.009154946
136	0xbdfe51e2	-0.12417962
137	0x3ceab8f0	0.028652638
138	0x3ddbc628	0.10731155
139	0x3da341a0	0.07971501
140	0xbca3ba50	-0.019986302
141	0x3d6d9368	0.058001906
142	0x3dc537d4	0.09629789
143	0xbc9c7168	-0.019097045
144	0xbda592ce	-0.080846414
145	0xbb96d880	-0.0046034455
146	0x3cf56638	0.029955968
147	0x3dacb86e	0.08433615
148	0xbdd4a076	-0.10382168
149	0xbda5e940	-0.081011295
150	0x3dc8ff40	0.0981431
151	0xbd50cda0	-0.05097735
152	0x3d9fe6ba	0.078076795
153	0x3d62a8f8	0.055336922
154	0xbdcb3ef4	-0.09924117
155	0xbd81a020	-0.063293695
156	0x3dc38840	0.09547472
157	0x3df932dc	0.12167904
158	0xbd0f5068	-0.03498879
159	0x3deeaa46	0.11653571
160	0x3de76174	0.112978846
161	0x3dce1194	0.100619465
162	0x3ce43df0	0.027861565
163	0x3dcf5efc	0.10125539
164	0x3d6e20b8	0.05813667
165	0x3db10dd6	0.08645217
166	0xbda9e156	-0.082949325
167	0x3dd284ce	0.10279237
168	0xbd327e08	-0.043577224
169	0x3c4060a0	0.011741787
170	0x3d4d6338	0.05014345
171	0x3c1a8440	0.009430945
172	0x3d87a03e	0.06622361
173	0xbd417448	-0.047230035
174	0x3dffdc7a	0.124932244
175	0xbd653914	-0.055962637
176	0x3c9b7268	0.018975452
177	0xbdb4090e	-0.087907895
178	0x3d99f438	0.07517284
179	0xbb93b560	-0.0045077056
180	0xbdd6cbfc	-0.10488126
181	0xbd8824c2	-0.06647636
182	0x3dc65e74	0.09685984
183	0xbd65b2e8	-0.05607882
184	0xbd9b147e	-0.07572268
185	0xbdbacaea	-0.09120734
186	0xbd771648	-0.060323983
187	0xbda92316	-0.08258645
188	0xbd80a14e	-0.062807664
189	0x3c7813c0	0.0151414275
190	0xbc87d390	-0.016580373
191	0xbdaa4554	-0.083140045
192	0xbdf23c5a	-0.118279174
193	0x3cc5dc28	0.02415283
194	0x3d95ab8c	0.073081106
195	0xbd35eecc	-0.044417188
196	0xbd3fe378	-0.04684779
197	0x3d8e046a	0.06934436
198	0xbaf95a00	-0.0019024014
199	0xbd1d284c	-0.03836851
200	0xbdf1e0ea	-0.11810477
201	0xbd495b80	-0.049159527
202	0x3de0720c	0.10959253
203	0x3dafcec4	0.08584359
204	0xbcf70da0	-0.030157864
205	0x3dd89b86	0.10576539
206	0x3d0c1374	0.03419824
207	0xbd7a3cc0	-0.061093092
208	0xbdc36802	-0.09541322
209	0xbcf80e90	-0.030280381
210	0xbdce73ca	-0.10080679
211	0xbdb4f30a	-0.088354185
212	0xbd5afabc	-0.053461775
213	0xbdd7cbf0	-0.10536945
214	0x3db8c91c	0.090227336
215	0x3d0c6308	0.03427413
216	0xbddfe5ea	-0.109325245
217	0x3d9914b6	0.074746534
218	0xbbe56920	-0.0070010573
219	0xbdcdc51e	-0.10047363
220	0x3dc5d4e4	0.09659746
221	0x3df9658e	0.12177573
222	0xbdeef2a6	-0.11667375
223	0xbceda6f8	-0.029010281
224	0x3dc32dd8	0.095302284
225	0x3cbce868	0.023060039
226	0x3d863b06	0.065542266
227	0xbd1dd11c	-0.0385295
228	0x3dec0c40	0.11525774
229	0xbd91cf14	-0.07119575
230	0xbc9a6f98	-0.01885204
231	0xbd5d3ef0	-0.0540151
232	0xbd849b4e	-0.064749345
233	0xbd5b2238	-0.05349943
234	0x3deef4aa	0.1166776
235	0xbdecba56	-0.11558978
236	0xbcc31a78	-0.023816332
237	0x3c8b0008	0.016967788
238	0x3d3229c0	0.043496847
239	0x3d807672	0.06272592
240	0x3dc5f902	0.09666635
241	0xbd094e14	-0.033521727
242	0xbd010c04	-0.0315056
243	0x3c917c78	0.017759547
244	0x3d87c996	0.06630246
245	0xbcede1d0	-0.02903834
246	0xbdbb2822	-0.09138514
247	0xbdd5340c	-0.10410318
248	0xbd7e07e8	-0.06201926
249	0x3d7083c8	0.058719426
250	0xbd18736c	-0.03721945
251	0x3d9e8fa6	0.077422425
252	0x3bc71140	0.0060750544
253	0x3da55986	0.08073716
254	0xbd8dda22	-0.06926371
255	0x3ce16a40	0.027516484

fc3.bias f4 [8]
0	0xbdd2db8a	-0.1029578
1	0x3d07f130	0.033189
2	0x3da06462	0.078316465
3	0xbdf8108a	-0.121125296
4	0xbdaeaab4	-0.08528653
5	0x3d945aaa	0.07243855
6	0x3c3bddc0	0.011466444
7	0xbdf34b72	-0.118796244
