saves/final_ai_memory_npc_1_emotion.pth (torch, 15389 bytes, 6 tensors)

fc1.weight f4 [64, 10]
-0.28974316 -0.034501314 -0.011990756 -0.04143253 -0.17211537 -0.1802319 0.28740862 -0.30593354
-0.2488338 -0.07621972 -0.19339463 0.2695563 -0.006730497 0.1510663 -0.098942265 0.13268936
-0.2887345 -0.21981537 0.024236709 0.18213275 0.14212349 -0.2929245 0.22759464 0.043238133
0.17060623 0.17362168 0.19849244 -0.23374686 -0.16301408 0.12795523 -0.054609418 -0.1130213
-0.22888078 0.08659366 -0.24114075 -0.19871116 0.06727871 0.030401945 -0.015841216 0.2925848
-0.029925495 0.055378318 0.041225374 0.25241223 -0.2475053 0.15704086 -0.27012345 -0.022594035
-0.21631318 0.30244353 0.25670716 0.1836127 0.28080472 -0.14042152 -0.05990827 -0.07712217
-0.16465648 0.2649671 0.16843677 0.24079588 -0.061656147 0.18520787 0.1700877 -0.27871445
-0.21999504 -0.034342676 0.17779055 -0.09509744 0.12040672 -0.2790164 -0.060705423 -0.25583312
0.30125794 0.2319158 0.27994552 0.27950248 -0.017320484 0.22659656 -0.056254745 -0.10508308
-0.17279235 0.074707925 0.06017664 -0.0903388 0.16897503 0.19024524 -0.13261223 -0.057423234
-0.19267887 -0.04689625 0.13201517 0.036938697 -0.05036536 0.09773192 0.10763049 0.036087275
0.067833126 -0.24254325 0.30424914 0.081703216 -0.1957002 -0.30548853 -0.25795522 0.18792275
0.18429497 0.10850209 0.1883938 0.31097236 0.228479 -0.0041151345 -0.29880053 -0.19714528
0.22754887 0.16738984 0.28115335 -0.06708063 0.012215227 0.09190279 -0.004036486 -0.2815227
0.19494405 -0.31173003 0.27841946 -0.031364173 0.23165974 0.19020829 0.007868886 -0.21799764
-0.02450651 0.07313731 -0.09580886 0.20713535 0.060024887 -0.07835351 -0.018427044 0.22038725
0.20383224 0.21495983 -0.0085482 0.12968352 0.21076646 0.2471129 -0.05735171 -0.040306807
0.064619154 -0.13184397 0.16291708 0.14640549 0.10463986 -0.006308228 -0.18525687 0.00075021386
0.19439313 -0.04978639 0.2622932 -0.026634693 -0.048416585 -0.023741364 0.23649499 0.19907144
-0.20318416 0.2239345 -0.23811175 0.28736463 -0.27043664 -0.03598115 -0.08655512 -0.11586985
0.27254096 -0.14968278 -0.15042013 0.050542265 0.002306819 0.21663311 0.293766 0.17413616
0.0079752505 -0.07847093 0.25208816 -0.035292387 -0.19694673 -0.061330497 -0.3049913 0.20874724
0.08915049 0.20423177 0.25936154 0.12098023 0.012143999 -0.28995436 0.28691295 0.24734446
0.2440987 -0.050332904 -0.21834743 -0.31449997 -0.07284801 0.22531655 -0.034180522 -0.021121025
0.289768 -0.004281342 0.042063564 0.07625267 0.27544942 -0.21707708 -0.21618022 -0.0033560693
-0.2469467 0.2994524 -0.20334403 0.08413172 0.19282892 0.18297938 0.08052635 -0.1244542
0.24791619 -0.1307167 0.03984636 -0.2226533 -0.0916366 -0.24813467 -0.030700415 0.30174342
-0.24630865 0.014439642 -0.06432876 0.18324098 0.18451771 -0.045741737 -0.007374078 0.2569382
-0.2004917 -0.29111406 -0.0641571 0.24917373 -0.15181997 -0.038062572 0.10120106 0.022651136
-0.24669546 -0.040825248 -0.28015104 -0.25674382 0.15492499 -0.09039101 -0.19342425 -0.2528314
0.07982287 -0.021731794 -0.16089292 -0.055977523 0.12881044 -0.03841132 -0.27927473 0.1263786
00000000: 3759 94be 4051 0dbd e074 44bc 28b5 29bd
00000010: 033f 30be b68e 38be 3927 933e 52a3 9cbe
00000020: 4ace 7ebe 1619 9cbd 3e09 46be 4903 8a3e
00000030: 808b dcbb 20b1 1a3e 3ea2 cabd b8df 073e
00000040: 02d5 93be 4817 61be 108c c63c 0281 3a3e
00000050: d288 113e 33fa 95be 920e 693e 781a 313d
00000060: 66b3 2e3e e2c9 313e 9a41 4b3e 565b 6fbe
00000070: 2aed 26be b206 033e 20ae 5fbd b677 e7bd
00000080: b95f 6abe 0458 b13d 9aed 76be f07a 4bbe
00000090: 6cc9 893d 800d f93c 70c5 81bc adcd 953e
000000a0: 5026 f5bc 60d4 623d f0db 283d 2d3c 813e
000000b0: 0872 7dbe 52cf 203e 9f4d 8abe 2017 b9bc
000000c0: 3481 5dbe e1d9 9a3e 1f6f 833e f804 3c3e
000000d0: a3c5 8f3e a9ca 0fbe 6062 75bd 3af2 9dbd
000000e0: b59b 28be c5a9 873e b07a 2c3e 3293 763e
000000f0: 288b 7cbd 22a7 3d3e 782b 2e3e a9b3 8ebe
00000100: 6146 61be e8aa 0cbd ba0e 363e 72c2 c2bd
00000110: cc97 f63d 3ddb 8ebe 40a6 78bd 8ffc 82be
00000120: 7b3e 9a3e 567b 6d3e 0555 8f3e f31a 8f3e
00000130: b0e3 8dbc ee08 683e 606b 66bd cc35 d7bd
00000140: 7af0 30be 7800 993d c87b 763d 8c03 b9bd
00000150: ca07 2d3e a6cf 423e 80cb 07be a034 6bbd
00000160: 9c4d 45be 4816 40bd fc2e 073e 084d 173d
00000170: e84b 4ebd ac27 c83d 606d dc3d 40d0 133d
00000180: 18ec 8a3d 425d 78be 8bc6 9b3e 0454 a73d
00000190: a265 48be fe68 9cbe b512 84be d26e 403e
000001a0: d2b7 3c3e 5836 de3d 4eea 403e c537 9f3e
000001b0: 66f6 693e 40d8 86bb 62fc 98be 74e0 49be
000001c0: 9202 693e 3e68 2b3e 55f3 8f3e 9261 89bd
000001d0: 6022 483c 8837 bc3d 8044 84bb be23 90be
000001e0: 6a9f 473e 149b 9fbe ff8c 8e3e b877 00bd
000001f0: 3638 6d3e f6c5 423e 80ec 003c c63a 5fbe
00000200: e0c1 c8bc 04c9 953d 7037 c4bd 4a1b 543e
00000210: a8dc 753d ce77 a0bd 50f4 96bc 32ad 613e
00000220: 66b9 503e 6e1e 5c3e c00d 0cbc c2cb 043e
00000230: 2ad3 573e 2a0b 7d3e a0e9 6abd c018 25bd
00000240: 0c57 843d 1b02 07be bcd3 263e 52eb 153e
00000250: 6c4d d63d 40b5 cebb fab3 3dbe 00aa 443a
00000260: fe0e 473e d0ec 4bbd 4b4b 863e 0031 dabc
00000270: 7850 46bd 407d c2bc be2b 723e 62d9 4b3e
00000280: 820f 50be 164f 653e 91d3 73be 7521 933e
00000290: ac76 8abe f860 13bd d043 b1bd 2c4d edbd
000002a0: 7d8a 8b3e 7146 19be bc07 1abe 6805 4f3d
000002b0: 002e 173b 12d5 5d3e 7f68 963e c050 323e
000002c0: a0aa 023c 5eb5 a0bd b311 813e c08e 10bd
000002d0: 67ac 49be b035 7bbd d227 9cbe d6c1 553e
000002e0: 8894 b63d 2222 513e 09cb 843e 7cc4 f73d
000002f0: a0f7 463c e674 94be 41e6 923e de47 7d3e
00000300: 02f5 793e e029 4ebd 7896 5fbe 2406 a1be
00000310: 5631 95bd 62b9 663e e000 0cbd 0006 adbc
00000320: 795c 943e 804a 8cbb d84a 2c3d 5c2a 9c3d
00000330: b507 8d3e 7449 5ebe 595e 5dbe 80f1 5bbb
00000340: 99df 7cbe d351 993e 6b39 50be 404d ac3d
00000350: f274 453e f25e 3b3e 00eb a43d d8e1 febd
00000360: bedd 7d3e 99da 05be f035 233d 3aff 63be
00000370: f8ab bbbd 0417 7ebe 707f fbbc 1d7e 9a3e
00000380: 5638 7cbe 4094 6c3c ccbe 83bd 86a3 3b3e
00000390: 36f2 3c3e b05b 3bbd 40a2 f1bb 678d 833e
000003a0: b24d 4dbe e70c 95be cc64 83bd 6627 7f3e
000003b0: b276 1bbe 80e7 1bbd 8042 cf3d e08e b93c
000003c0: bc9d 7cbe 6038 27bd f56f 8fbe ed73 83be
000003d0: a8a4 1e3e ec1e b9bd 0211 46be 1e73 81be
000003e0: 2c7a a33d e006 b2bc 1dc1 24be b048 65bd
000003f0: e2e6 033e 3055 1dbd 19fd 8ebe 6469 013e

fc1.bias f4 [64]
0.078569144 0.2467818 0.19273004 0.03537947 0.18071687 0.29595307 -0.27923587 0.29026064
0.16651255 -0.10282892 -0.17679854 0.28701797 0.16751793 0.100875795 0.010672718 -0.25179914
0.2906361 -0.23756143 0.041516274 0.25406882 0.2950761 0.25249586 -0.050595492 0.07360977
0.29220375 -0.05661714 0.29096118 0.2075899 -0.08983298 0.19475922 0.26310137 0.019818485
-0.25205395 0.1232056 -0.017773807 -0.18664591 0.036545336 0.07655972 -0.3060632 -0.26482502
-0.07706039 0.08816224 0.21047255 0.013339162 -0.23789856 -0.010373682 0.014965832 -0.06726961
0.3038843 0.024914265 -0.078823864 -0.28002912 -0.038113832 0.08683321 -0.16244738 -0.2987076
-0.3019161 0.2859991 -0.124229565 -0.01587969 0.023753881 -0.17467514 0.24443606 -0.08945204
00000000: dce8 a03d 5eb4 7c3e 065b 453e 10ea 103d
00000010: d80d 393e 2987 973e 01f8 8ebe 0b9d 943e
00000020: 4482 2a3e f897 d2bd ad0a 35be 05f4 923e
00000030: d289 2b3e f897 ce3d a0dc 2e3c d1eb 80be
00000040: 41ce 943e 4e43 73be f80c 2a3d 4f15 823e
00000050: 3714 973e 2347 813e 383d 4fbd b8c0 963d
00000060: bb9b 953e 60e7 67bd ddf8 943e 7292 543e
00000070: 5afa b7bd f66e 473e 39b5 863e 605a a23c
00000080: 370d 81be 3853 fc3d 609a 91bc 1b20 3fbe
00000090: 90b0 153d 58cb 9c3d 51b4 9cbe 2597 87be
000000a0: d6d1 9dbd 688e b43d 1e86 573e 808c 5a3c
000000b0: ae9b 73be 60f6 29bc 4033 753c a6c4 89bd
000000c0: b996 9b3e 0019 cc3c 686e a1bd fa5f 8fbe
000000d0: 401d 1cbd 9cd5 b13d 9b58 26be 34f0 98be
000000e0: bf94 9abe 796e 923e 126c febd 2016 82bc
000000f0: 8097 c23c 0ade 32be 724d 7a3e a232 b7bd

fc2.weight f4 [32, 64]
-0.015565023 0.02319634 -0.013879582 -0.045057148 -0.04779236 -0.082793385 -0.0539176 -0.100693315
0.035954475 0.046552315 0.0756883 -0.03111726 -0.10552932 -0.0439924 -0.0062588304 0.06516376
-0.031765223 0.06396708 -0.024058446 -0.014992252 0.1006984 -0.015790313 -0.060830355 0.009544253
0.03593047 0.006820485 0.121493846 -0.11309254 0.071280256 0.003887251 -0.12211186 0.11033212
0.08590759 0.06404939 0.03257647 0.10228863 0.0026353598 -0.091367364 0.09365521 0.028797016
-0.036958694 0.05490701 0.08467929 -0.06731929 -0.07609627 0.004828155 0.014760494 0.040239736
0.11803192 0.07921146 0.0858271 -0.12301862 -0.013906702 0.027050018 0.020777687 -0.04798308
0.023966655 -0.10006878 -0.097592205 -0.07615729 0.08277559 0.09890407 0.049166948 0.061165303
0.08228041 -0.08843346 0.08285071 0.04887995 0.023730353 0.078695536 -0.11034258 -0.034475297
-0.096327394 0.022751033 -0.05986756 -0.05872208 0.07247597 -0.022769555 -0.09753895 0.041496754
-0.006848797 0.043514878 -0.104547426 -0.015010968 0.018469289 0.02276361 -0.039720073 0.08503832
0.009581879 0.040706545 0.05219771 -0.0026334524 -0.07621044 -0.033353344 0.045142397 -0.08263658
-0.076127484 -0.11994474 0.014996111 0.05572684 -0.009587154 0.11549424 0.116189465 -0.018947974
0.12312187 -0.005668327 -0.11275034 -0.08678378 0.08219667 -0.117008716 -0.052161932 0.07491961
-0.10038246 -0.10537587 -0.11444877 0.04725027 -0.102625296 0.07769707 0.092392504 -0.120870575
-0.051112354 -0.036236867 -0.026860446 0.0613461 -0.051920637 -0.12223257 -0.06639929 -0.0010643601
-0.11270432 -0.014101893 0.10323323 -0.06502639 0.10966475 -0.04458709 0.09232426 0.1110407
0.009544909 -0.039317995 -0.027016416 -0.10763781 -0.023471951 -0.0010876805 0.059575662 -0.11767393
-0.0020510405 -0.11106199 -0.0063088387 -0.07813276 0.03257212 0.043836445 -0.121574625 0.0432069
-0.0027838647 -0.09517752 -0.019793123 -8.1047416e-05 -0.08287959 -0.08454694 -0.04288493 -0.0605326
0.044512197 0.001495108 0.12154597 0.005425647 0.06227857 -0.11630097 0.029049054 0.12350413
-0.10528895 0.11995444 0.07355368 -0.06984705 -0.11260548 -0.04440266 0.11614536 0.09773716
0.099162 -0.028203964 -0.11439261 -0.0764104 0.12436767 0.11396603 0.0032934248 -0.029125422
0.02055195 0.09448852 -0.123101726 -0.026636004 0.05923906 0.04919088 -0.06327957 -0.1192704
-0.020240948 -0.024383128 0.02238971 0.102671444 -0.009394005 0.09016812 -0.06416175 0.066339746
-0.10673906 0.098404676 -0.073355675 0.104943514 0.10669683 -0.064842224 0.019640177 0.11881149
-0.040799916 -0.10621141 0.10424207 -0.115133375 -0.07514274 0.061060578 -0.044964716 0.031960025
0.09475206 0.017139167 -0.07732864 -0.06213802 0.071933344 0.06877756 -0.067325085 0.08071458
0.11515969 0.006995693 0.008955002 -0.06504287 0.0743119 -0.038315162 0.0027938634 -0.09179066
0.084210485 -0.039911002 0.10312562 -0.10197911 0.041003868 0.099230945 0.036022335 -0.0745811
-0.06974161 -0.11556372 -0.09212682 -0.006481603 0.04097718 -0.019248486 0.073693275 0.07256788
0.121849254 0.112396955 -0.052671105 -0.05184096 0.11752403 -0.06790212 0.07409693 -0.06905815
00000000: 7004 7fbc 4006 be3c 3067 63bc d88d 38bd
00000010: ecc1 43bd 948f a9bd b4d8 5cbd 4c38 cebd
00000020: 0045 133d a4ad 3e3d 7802 9b3d a0e9 febc
00000030: c21f d8bd 6031 34bd e016 cdbb 9474 853d
00000040: 401c 02bd 2c01 833d 3816 c5bc 10a2 75bc
00000050: f63a ce3d b05a 81bc 4029 79bd 805f 1c3c
00000060: d42b 133d 607e df3b c4d1 f83d 109d e7bd
00000070: 62fb 913d 40c1 7e3b c815 fabd cef5 e13d
00000080: 52f0 af3d 542c 833d e86e 053d b47c d13d
00000090: 00b6 2c3b d01e bbbd 4ece bf3d b8e7 eb3c
000000a0: 0062 17bd 2ce6 603d 566c ad3d b2de 89bd
000000b0: 5cd8 9bbd 8035 9e3b 00d6 713c 6cd2 243d
000000c0: b8ba f13d 9e39 a23d 1ec6 af3d 30f1 fbbd
000000d0: f0d8 63bc 0098 dd3c f835 aa3c e889 44bd
000000e0: b855 c43c dcf0 ccbd 6cde c7bd 5af8 9bbd
000000f0: 4086 a93d 388e ca3d 4863 493d 7888 7a3d
00000100: a282 a83d 9a1c b5bd a2ad a93d 5836 483d
00000110: 2866 c23c 202b a13d 4afb e1bd f835 0dbd
00000120: 4c47 c5bd 6060 ba3c b037 75bd 9086 70bd
00000130: 486e 943d 3887 babc 80c2 c7bd 80f8 293d
00000140: e06b e0bb a83c 323d f61c d6bd 90f0 75bc
00000150: e84c 973c c07a ba3c 84b1 22bd 9228 ae3d
00000160: 50fd 1c3c e8bb 263d 44cd 553d 0096 2cbb
00000170: 3814 9cbd 849d 08bd 3ce7 383d 5e3d a9bd
00000180: bae8 9bbd 96a5 f5bd 40b2 753c d441 643d
00000190: 7013 1dbc 3e88 ec3d bef4 ed3d c838 9bbc
000001a0: 5227 fc3d 60bd b9bb a6e9 e6bd b2bb b1bd
000001b0: ba56 a83d 44a2 efbd c0a7 55bd 746f 993d
000001c0: 5295 cdbd 4ecf d7bd 1e64 eabd 8089 413d
000001d0: 362d d2bd a41f 9f3d 4838 bd3d fe8a f7bd
000001e0: 305b 51bd 1c6d 14bd 700a dcbc 0c46 7b3d
000001f0: bcaa 54bd 1255 fabd 5afc 87bd 0082 8bba
00000200: 86d1 e6bd a00b 67bc f26b d33d 8e2c 85bd
00000210: ea97 e03d f4a0 36bd 8014 bd3d 4e69 e33d
00000220: 4062 1c3c e80b 21bd 8851 ddbc 3671 dcbd
00000230: 4048 c0bc 8090 8eba 9c05 743d 08ff f0bd
00000240: c06a 06bb 7874 e3bd 60ba cebb 1204 a0bd
00000250: 586a 053d d88d 333d 1efc f8bd b8f9 303d
00000260: 8071 36bb 6eec c2bd 3025 a2bc 00f8 a9b8
00000270: c6bc a9bd f226 adbd 1ca8 2fbd 08f1 77bd
00000280: 6c52 363d 80f7 c33a 18ed f83d a0c9 b13b
00000290: d017 7f3d 342f eebd 48f8 ed3c bcef fc3d
000002a0: bca1 d7bd acaa f53d 50a3 963d f80b 8fbd
000002b0: b49d e6bd 90df 35bd 9edd ed3d 6c2a c83d
000002c0: 7215 cb3d 000c e7bc ac46 eabd 0e7d 9cbd
000002d0: 7ab4 fe3d 0667 e93d 80d6 573b 7098 eebc
000002e0: 905c a83c 3283 c13d c21c fcbd c033 dabc
000002f0: a8a4 723d 607c 493d b898 81bd 0a44 f4bd
00000300: 58d0 a5bc 20bf c7bc a06a b73c 6845 d23d
00000310: 50e9 19bc 10aa b83d 3c67 83bd 22dd 873d
00000320: 029a dabd 6488 c93d 803b 96bd a0ec d63d
00000330: de83 da3d 00cc 84bd 70e4 a03c 7053 f33d
00000340: d01d 27bd 5e85 d9bd de7c d53d 0ccb ebbd
00000350: 70e4 99bd a81a 7a3d ec2c 38bd 84e8 023d
00000360: 5e0d c23d 7067 8c3c 7a5e 9ebd 7084 7ebd
00000370: ca51 933d 40db 8c3d bce1 89bd b04d a53d
00000380: d8d8 eb3d 203c e53b 00b8 123c 3235 85bd
00000390: d630 983d 5cf0 1cbd 4019 373b befc bbbd
000003a0: 8c76 ac3d b879 23bd 8633 d33d 6cda d0bd
000003b0: acf3 273d 9839 cb3d 288c 133d fabd 98bd
000003c0: b0d4 8ebd acac ecbd fcac bcbd a063 d4bb
000003d0: b0d7 273d 00af 9dbc 80ec 963d 789e 943d
000003e0: 1a8c f93d 6030 e63d a8bd 57bd 3057 54bd
000003f0: 70b0 f03d 4410 8bbd 22c0 973d 5c6e 8dbd

fc2.bias f4 [32]
0.032322377 -0.080100104 -0.07721238 0.045168355 0.025670141 -0.05362302 0.06621343 -0.018270865
0.062478006 -0.09445499 0.02373223 0.03669396 0.01951234 -0.11329581 0.0040887147 0.022827804
0.07057503 0.12284109 -0.034488603 0.0030285716 0.109920055 -0.07194376 0.03673777 -0.0064632744
0.11896646 0.02681069 -0.059373662 0.087898016 -0.08159533 0.016557619 -0.102564886 -0.082789436
00000000: 7864 043d 860b a4bd 8621 9ebd 7402 393d
00000010: 304a d23c d0a3 5bbd e89a 873d c8ac 95bc
00000020: f0e8 7f3d 9e71 c1bd 186a c23c 684c 163d
00000030: 58d8 9f3c a207 e8bd a0fa 853b 6001 bb3c
00000040: a489 903d 1c94 fb3d ec43 0dbd 007b 463b
00000050: c41d e13d 4057 93bd 587a 163d e0c9 d3bb
00000060: b0a4 f33d 18a2 db3c cc31 73bd e003 b43d
00000070: 741b a7bd d8a3 873c 8a0d d2bd 828d a9bd

fc3.weight f4 [7, 32]
-0.14978315 0.07772212 -0.13268289 0.04695785 0.1373346 -0.16771209 0.05060093 0.0642876
-0.16998096 0.17039873 0.16318475 0.14142482 0.009313077 0.043515444 -0.018552303 0.14983998
0.1252832 0.088206545 -0.16727123 -0.07216803 0.1614381 0.12711911 -0.04826078 0.026060238
-0.16461994 -0.15562704 0.0692907 -0.018371806 -0.15185627 0.14129175 -0.04168336 0.052275494
0.02590996 -0.15456057 0.11691539 0.12538226 0.086881 -0.057399414 0.14794077 -0.15946542
-0.12533408 -0.14539406 -0.059668027 -0.03865485 -0.007553354 0.119331315 0.047494397 -0.0010379702
0.011494502 0.10268821 -0.16195062 0.0602251 0.17578326 0.0067727715 -0.17489465 -0.002442807
0.055399 -0.12974942 0.07956241 -0.06363424 0.10136156 -0.12734438 -0.06266162 0.123944774
-0.09937278 0.10578884 0.12353353 -0.15862487 0.015356332 -0.04702671 -0.040698305 0.096537605
0.06886828 -0.061552458 0.091642216 -0.083690554 0.14348333 0.09711324 -0.06443768 0.13015293
0.123863444 0.02816461 -0.013634339 0.13480605 -0.03051287 0.09529142 0.12109627 0.031157225
0.042476073 0.16136272 -0.1515172 0.099715635 0.12238516 -0.09510308 0.027491927 -0.013654321
-0.00013740361 0.019987062 -0.09738065 -0.09279006 0.11749978 0.023111984 0.010384694 -0.07377622
0.014436439 -0.0011885762 0.16048588 -0.08752351 -0.011116445 -0.1267416 0.15476899 0.13339095
0.13530697 -0.017321855 0.10267256 0.16301097 0.16187613 -0.09101241 -0.058362044 -0.13612743
-0.029389903 0.16520305 0.022652313 0.16807391 0.013741031 -0.16912894 -0.0215967 0.058511242
-0.106917955 0.1731456 -0.1520357 0.09244554 0.063215315 -0.103913456 -0.16483945 0.15017338
0.14312221 0.040454715 0.015804917 0.15758382 -0.01173237 -0.09897897 -0.15084824 -0.08044375
-0.12408013 0.114722595 -0.015942678 -0.0070938766 -0.042764917 -0.13160895 -0.072712205 -0.03615883
-0.0215258 -0.04864557 -0.13462308 0.17492224 0.12668018 0.16245727 0.15129356 -0.09078077
0.14103381 0.11893226 -0.0792578 -0.11409059 -0.124332756 -0.098644905 -0.08773075 -0.10953567
-0.1149318 -0.001989603 -0.06395356 0.05264631 -0.021077454 0.00029802322 0.0010631382 0.14218746
-0.095907554 0.011227757 0.021102667 -0.10445129 -0.13736415 -0.129501 0.02529934 -0.009527296
-0.029174402 -0.10490605 0.12192534 -0.15989237 -0.102212474 -0.04202275 0.040845543 0.011616468
-0.15947089 -0.12410742 -0.03420955 0.09360744 -0.12225831 0.07224564 -0.1116301 0.089403406
-0.092553996 -0.026005834 -0.04616715 -0.1557762 0.07261169 -0.050957903 0.17419462 0.15927784
0.05238484 -0.02122499 -0.021037847 0.15320851 -0.06543835 0.14089231 0.068898275 -0.16550145
0.044366196 0.06609279 0.1269867 -0.01766257 0.15233596 -0.1422835 0.045508206 0.021976605
00000000: c160 19be c62c 9f3d 06de 07be e056 403d
00000010: 71a1 0c3e b8bc 2bbe ec42 4f3d 38a9 833d
00000020: 7d0f 2ebe 017d 2e3e e719 273e abd1 103e
00000030: e095 183c 403d 323d 00fb 97bc a76f 193e
00000040: 3d4a 003e a2a5 b43d 2649 2bbe d5cc 93bd
00000050: 0750 253e 832b 023e 18ad 45bd 487c d53c
00000060: 2192 28be b25c 1fbe 48e8 8d3d 7880 96bc
00000070: 3680 1bbe c9ae 103e 2cbc 2abd d41e 563d
00000080: 2041 d43c 2045 1ebe 5671 ef3d 3564 003e
00000090: aaee b13d a61b 6bbd c97d 173e e74a 23be
000000a0: 9457 00be 2ee2 14be 7666 74bd 8c54 1ebd
000000b0: 2082 f7bb fa63 f43d 7c89 423d 800c 88ba
000000c0: 7053 3c3c 324e d23d 62d6 25be 98ae 763d
000000d0: 8700 343e 20ee dd3b 9517 33be 8017 20bb
000000e0: 10ea 623d 08dd 04be 9ef1 a23d ab52 82bd
000000f0: a696 cf3d 9166 02be bc54 80bd c2d6 fd3d
00000100: f583 cbbd d2a7 d83d 26ff fc3d 8f6e 22be
00000110: 2099 7b3c 149f 40bd 44b3 26bd 82b5 c53d
00000120: d00a 8d3d 6e1e 7cbd eaae bb3d f465 abbd
00000130: 4bed 123e 4ee3 c63d e7f7 83bd cf46 053e
00000140: 1eac fd3d 78b9 e63c 9062 5fbc 990a 0a3e
00000150: 20f6 f9bc 2628 c33d 5201 f83d 703d ff3c
00000160: 64fb 2d3d 453c 253e 5327 1bbe b637 cc3d
00000170: 12a5 fa3d 67c5 c2bd c036 e13c 60b6 5fbc
00000180: 0014 10b9 e8bb a33c 826f c7bd b708 bebd
00000190: baa3 f03d 5855 bd3c 9024 2a3c fd17 97bd
000001a0: d086 6c3c 00ca 9bba 6956 243e 873f b3bd
000001b0: c021 36bc 8dc8 01be c37b 1e3e a397 083e
000001c0: e98d 0a3e 90e6 8dbc fe45 d23d 59ec 263e
000001d0: dbc2 253e b764 babd 0a0d 6fbd fd64 0bbe
000001e0: 18c3 f0bc fd2a 293e 5891 b93c 911b 2c3e
000001f0: 1022 613c 2330 2dbe 90eb b0bc 7ca9 6f3d
00000200: cdf7 dabd 154d 313e 3faf 1bbe 1654 bd3d
00000210: 0877 813d 94d0 d4bd accb 28be 0dc7 193e
00000220: a18e 123e d8b3 253d 5079 813c a75d 213e
00000230: 2039 40bc 7cb5 cabd f677 1abe b1bf a4bd
00000240: b91d febd aef3 ea3d 389a 82bc c073 e8bb
00000250: 442a 2fbd 7fc4 06be 23ea 94bd 481b 14bd
00000260: e056 b0bc 9440 47bd a2da 09be d11e 333e
00000270: 73b8 013e 335b 263e b3ec 1a3e 45eb b9bd
00000280: 2b6b 103e c292 f33d ea51 a2bd 54a8 e9bd
00000290: 2ca2 febd 5706 cabd 2eac b3bd 3d54 e0bd
000002a0: 5d61 ebbd 0064 02bb 16fa 82bd a8a3 573d
000002b0: a0aa acbc 0040 9c39 0059 8b3a 9799 113e
000002c0: 2e6b c4bd a0f4 373c 80df ac3c 8fea d5bd
000002d0: 30a9 0cbe e99b 04be 9040 cf3c 6018 1cbc
000002e0: 28ff eebc fcd8 d6bd feb3 f93d d3ba 23be
000002f0: c654 d1bd 0c20 2cbd a84d 273d 0053 3e3c
00000300: 564c 23be 082c febd 501f 0cbd 42b5 bf3d
00000310: 9162 fabd 86f5 933d 529e e4bd 2219 b73d
00000320: f38c bdbd 300a d5bc c419 3dbd cc83 1fbe
00000330: 70b5 943d 3cb9 50bd 1360 323e bb19 233e
00000340: 7c91 563d 08e0 adbc 9057 acbc b1e2 1c3e
00000350: 8b04 86bd 1346 103e 8a1a 8d3d 3679 29be
00000360: 54b9 353d a85b 873d cd08 023e 18b1 90bc
00000370: f5fd 1b3e c4b2 11be d066 3a3d 4808 b43c

fc3.bias f4 [7]
0.057353348 0.14260592 0.10148005 -0.067984976 -0.035482824 0.01732406 -0.13243781
00000000: 58eb 6a3d 4907 123e c6d4 cf3d b53b 8bbd
00000010: 7056 11bd 30eb 8d3c c79d 07be
