saves/final_ai_memory_npc_1_decision.pth (torch, 27433 bytes, 6 tensors)

fc1.weight f4 [64, 20]
0	0x3e0fe6d4	0.14052898
1	0xbe02d9ec	-0.12778443
2	0x3e60b2b4	0.2194317
3	0x3de9fdec	0.11425385
4	0x3c0d18b0	0.008611843
5	0xbdec4e63	-0.115383886
6	0x3df3d290	0.11905396
7	0xbe1a10a9	-0.15045418
8	0x3e21ad76	0.15788826
9	0x3c70d920	0.014700204
10	0x3e11dcbc	0.1424436
11	0x3c931cc0	0.017958045
12	0x3c093eb0	0.008376762
13	0xbc043120	-0.008068353
14	0xbd8169e0	-0.06319022
15	0xbdea3a6d	-0.11436925
16	0x3e16e4a2	0.14735654
17	0xbd826a78	-0.063679636
18	0xbdf8d95a	-0.121508315
19	0x3dafff18	0.08593577
20	0xbd67df8c	-0.056609675
21	0x3e40724a	0.18793598
22	0xbdf83e0f	-0.12121212
23	0xbe4656ae	-0.19369003
24	0x3d9814ac	0.07425818
25	0xbc0dd310	-0.008656278
26	0xbd9d736a	-0.07688029
27	0xbe4a3262	-0.19745782
28	0xbe5ae4eb	-0.21376388
29	0x3e3626c8	0.17788231
30	0xbdcb4146	-0.09924559
31	0x3d89c570	0.06727111
32	0xbe4d7f81	-0.2006817
33	0xbd346768	-0.04404393
34	0x3e4a12fc	0.19733804
35	0x3e1c1190	0.15241075
36	0x3db7e228	0.08978683
37	0x3e60230a	0.21888366
38	0xbe40ec13	-0.18840055
39	0xbe3e438c	-0.18580455
40	0x3dfd8df8	0.12380594
41	0x3d6c69b0	0.05771798
42	0xbe02c3cc	-0.12770003
43	0xbde50788	-0.11183077
44	0xbdb936c6	-0.0904365
45	0x3cf6e0a0	0.030136406
46	0x3dd796d8	0.10526818
47	0xbe280166	-0.16406783
48	0xbe1fa775	-0.15591224
49	0xbcde94c8	-0.027170554
50	0x3e24c662	0.16091302
51	0xbdb82fa2	-0.0899346
52	0xbd548850	-0.05188781
53	0x3e25fe80	0.16210365
54	0x3d576d18	0.052594274
55	0xbe45a8cb	-0.1930267
56	0xbe1b605c	-0.15173477
57	0x3e4a0582	0.19728664
58	0xbd2be604	-0.041967407
59	0xbbdfc280	-0.006828606
60	0xbe0bb8e4	-0.13644749
61	0x3d9a8d44	0.075464755
62	0x3dd65600	0.10465622
63	0xbdefbef0	-0.1170634
64	0x3e561d84	0.20909697
65	0x3dbaddb0	0.09124315
66	0x3e11060c	0.14162463
67	0xbcb5f298	-0.022210404
68	0x3e215122	0.15753606
69	0x3ce787e0	0.028263032
70	0x3e3ff9fc	0.18747705
71	0x3e22227a	0.15833464
72	0xbde9cedb	-0.11416408
73	0xbe3744ef	-0.1789739
74	0x3ddc76a8	0.107648194
75	0x3d0e29c0	0.034707785
76	0xbd973416	-0.073829815
77	0x3e228d28	0.1587416
78	0x3e091c16	0.1338962
79	0xbe523f2b	-0.20531909
80	0xbe026b24	-0.12736183
81	0x3e07164c	0.131921
82	0xbcf429b0	-0.029805034
83	0xbe3f7585	-0.18697174
84	0xbe60f0cd	-0.21966858
85	0x3e4c6540	0.19960499
86	0xbde50dcf	-0.111842744
87	0x3d0bd170	0.034135282
88	0xbdedc532	-0.11609878
89	0xbe1e19ee	-0.15439579
90	0xbdb21ef2	-0.086973086
91	0xbdeb6ff1	-0.114959605
92	0x3e293246	0.16523084
93	0xbd0f95e8	-0.03505507
94	0x3d1ff388	0.03905061
95	0xbc419890	-0.011816159
96	0xbdf1cd56	-0.11806743
97	0x3da693a0	0.08133626
98	0x3e23fbe2	0.16014054
99	0xbe005622	-0.12532857
100	0x3e1bd08a	0.1521627
101	0x3d82ee18	0.06393069
102	0xbdddf2fd	-0.10837362
103	0xbe2d190f	-0.1690409
104	0xbdd56bf9	-0.10420985
105	0xbdeffac0	-0.11717749
106	0xbe55c910	-0.2087748
107	0xbe068403	-0.13136296
108	0xbe19b2b6	-0.15009579
109	0xbe4cb348	-0.19990265
110	0xbe48e447	-0.19618331
111	0xbc300460	-0.010743231
112	0xbd572b60	-0.0525316
113	0xbd937fda	-0.0720212
114	0xbdb875ee	-0.09006868
115	0x3dba8020	0.09106469
116	0x3c7a8100	0.015289545
117	0xbe5ab6c9	-0.2135879
118	0x3e505ec6	0.20348653
119	0xbe5b1cd4	-0.21397716
120	0x3e0b845e	0.13624713
121	0xbc8e1528	-0.017344072
122	0xbd2ba524	-0.041905537
123	0x3e3041d6	0.17212614
124	0x3cc50238	0.02404891
125	0x3dae79a4	0.08519295
126	0xbaa75500	-0.0012766421
127	0xbe0a0e9c	-0.13482136
128	0xbd579d10	-0.05264002
129	0xbdc3dd28	-0.095636666
130	0xbe23daa3	-0.16001372
131	0x3c254b60	0.010088772
132	0x3de50dfc	0.11184308
133	0x3e1457e0	0.14486647
134	0xbd476dbc	-0.048688635
135	0x3e450f0e	0.19244024
136	0xbdf0b162	-0.11752583
137	0x3e1d886a	0.15384069
138	0x3d59c0e8	0.053162485
139	0x3e06107c	0.13092226
140	0xbdc2c0c8	-0.09509426
141	0x3e28aea2	0.16472867
142	0x3cc61da8	0.024184063
143	0x3dbadc68	0.091240704
144	0xbe3a4ed7	-0.18194138
145	0x3e44b03a	0.1920785
146	0xbdf0cab8	-0.117574155
147	0xbe292169	-0.16516651
148	0xbcc53e18	-0.02407746
149	0xbe4d632b	-0.20057361
150	0x3d8a5d04	0.067560226
151	0x3e0f4e7a	0.1399478
152	0x3e551b7a	0.20811263
153	0xbd97c360	-0.07410312
154	0x3debaa5c	0.11507103
155	0xbe1e41b9	-0.15454759
156	0xbe4f581a	-0.20248452
157	0x3d0f9720	0.035056233
158	0xbe2b5e9d	-0.16735311
159	0x3e45e62e	0.19326088
160	0xbd25e454	-0.040500954
161	0xbe0438e2	-0.12912324
162	0x3d344f68	0.04402104
163	0x3d8e8974	0.06959811
164	0x3e1e6078	0.15466487
165	0xbd301fa8	-0.04299894
166	0x3e2774e4	0.16353184
167	0xbe50c0dd	-0.20386072
168	0x3e51f0ec	0.2050206
169	0x3df3a93c	0.11897513
170	0xbe5c937e	-0.21540639
171	0xbe3d5a8d	-0.18491574
172	0x3db41d9c	0.0879471
173	0xbd27a15c	-0.04092537
174	0x3e50974a	0.20370212
175	0x3e41c990	0.18924546
176	0x3cf03640	0.029322743
177	0x3e396edc	0.18108696
178	0xbd5638f0	-0.052300394
179	0x3e5c7920	0.2153058
180	0xbe57e3cb	-0.2108299
181	0xbe2b92f3	-0.16755275
182	0x3e3ebc86	0.18626603
183	0xbd90b510	-0.07065785
184	0xbdddad56	-0.10824077
185	0xbd092754	-0.03348477
186	0xbd89a3e8	-0.06720716
187	0xbdbb7a38	-0.09154171
188	0x3927e800	0.00016012788
189	0x3da63e2c	0.08117327
190	0x3e5b122c	0.21393651
191	0x3ddbc500	0.10730934
192	0x3d12d9b0	0.035852134
193	0x3d57f9c0	0.052728415
194	0xbe12c075	-0.14331229
195	0xbe4d6b1d	-0.20060392
196	0xbdcff2c1	-0.101537235
197	0x3e6102de	0.2197375
198	0x3c0106a0	0.007875115
199	0xbcd4d3d0	-0.025979906
200	0xbe1c5472	-0.15266588
201	0xbdd90d0f	-0.10598194
202	0x3ae61d00	0.001755625
203	0x3d75f8e8	0.06005183
204	0xbda6ff62	-0.08154179
205	0xbd251084	-0.040298954
206	0xbe517cfd	-0.20457835
207	0xbc59acd0	-0.013285831
208	0x3da5f6dc	0.08103725
209	0x3e20fde6	0.15721855
210	0xbe35beb2	-0.17748526
211	0xbe515b00	-0.2044487
212	0xbcefbcb0	-0.029264778
213	0x3e094528	0.13405287
214	0x3e21bbc4	0.15794283
215	0x3d42ebe0	0.04758823
216	0x3e4797aa	0.19491449
217	0x3e0beece	0.13665316
218	0xbe07f64a	-0.13277546
219	0xbe4d8fbc	-0.20074362
220	0xbdf0956e	-0.117472515
221	0x3e44c8c6	0.19217214
222	0xbe384a98	-0.17997205
223	0xbdc0e98c	-0.094195455
224	0x3ded0a58	0.115742385
225	0xbda640ca	-0.08117826
226	0x3e3414c4	0.17586046
227	0xbd9271ae	-0.07150589
228	0xbe01ce24	-0.12676293
229	0x3e109d50	0.1412251
230	0xba95ec00	-0.0011438131
231	0xbe121847	-0.14267074
232	0x3d2bd618	0.041952223
233	0xbe0926cf	-0.1339371
234	0xbdbdeeb6	-0.09274046
235	0xbda73534	-0.081644446
236	0x3cd6eaf8	0.026235089
237	0xbd6e2e38	-0.058149546
238	0x3e28a6e6	0.16469917
239	0xbe36414c	-0.17798346
240	0x3cf4f0a0	0.029899895
241	0xbe2c9f15	-0.1685756
242	0xbe0f4090	-0.13989472
243	0xbe3e4d1c	-0.18584102
244	0x3c0eb820	0.008710891
245	0xbe2ba3f9	-0.1676177
246	0xbd5690fc	-0.05238436
247	0xbd5f7458	-0.054554313
248	0xbc1aafc0	-0.009441316
249	0xbd988d72	-0.074488536
250	0x3e30bfc8	0.17260659
251	0xbe32dae7	-0.17466317
252	0xbe579385	-0.21052368
253	0xbe0f8050	-0.14013791
254	0xbe60dd39	-0.2195939
255	0xbdef3393	-0.11679759

fc1.bias f4 [64]
0	0x3e5f4808	0.21804821
1	0x3e383d1c	0.17992061
2	0x3e092ee0	0.13396788
3	0x3d9dd760	0.07707095
4	0xbe5d019b	-0.21582644
5	0x3e0a191a	0.13486138
6	0x3e2064c4	0.15663439
7	0xbc3d98a0	-0.011572033
8	0x3e01a638	0.12661064
9	0x3e5b385e	0.21408221
10	0x3e64d4c0	0.22346783
11	0x3e1109ca	0.1416389
12	0xbc6997f0	-0.014257416
13	0x3e63c92e	0.22244713
14	0xbe37ebe2	-0.17961076
15	0x3e4b6e9c	0.19866413
16	0x3d2b41f8	0.04181096
17	0xbd68f748	-0.05687645
18	0x3e46e3e0	0.19422865
19	0xbe068db4	-0.13139993
20	0xbd20bbac	-0.039241478
21	0x3dcf5f00	0.10125542
22	0xba946300	-0.0011321008
23	0xbe602549	-0.21889223
24	0xbdaafb1e	-0.08348678
25	0x3dd1b388	0.10239321
26	0xbe15b1f1	-0.1461866
27	0x3e18016a	0.1484429
28	0xbd9f968e	-0.07792388
29	0x3e400f28	0.18755782
30	0xbd079c80	-0.033108234
31	0x3e15ea34	0.14640123
32	0xbe21b6eb	-0.15792434
33	0xbe4dc2b4	-0.20093805
34	0xbe4daf86	-0.20086488
35	0x3e0adc86	0.13560686
36	0x3e4bd954	0.19907123
37	0x3e0c0b2a	0.13676134
38	0xbdc33964	-0.09532431
39	0xbe4c55d5	-0.19954617
40	0x3d9a4510	0.07532704
41	0x3e025808	0.12728894
42	0x3b49a800	0.0030770302
43	0xbd842d90	-0.06454003
44	0x3d40f5c0	0.047109365
45	0xbdb79b88	-0.08965212
46	0xbcb85bb0	-0.022504658
47	0x3df6f408	0.12058264
48	0xbe4a6165	-0.19763716
49	0x3e099300	0.13434982
50	0xbdb36284	-0.08759025
51	0x3d7daa60	0.06193006
52	0x3c9b51d0	0.01895991
53	0xbe40f046	-0.18841657
54	0xbe3038aa	-0.17209116
55	0x3e624bd2	0.22099236
56	0x3dded638	0.10880703
57	0x3d279b00	0.040919304
58	0xbe2c375b	-0.16817991
59	0xbaa76e00	-0.0012773871
60	0x3d3feab0	0.046854675
61	0xbd4d5654	-0.050131157
62	0x3e54d6ec	0.20785111
63	0xbe208096	-0.15674052

fc2.weight f4 [64, 64]
0	0xbdd6cb54	-0.104880005
1	0xbc8beef8	-0.017081723
2	0x375c4000	1.3127923e-05
3	0x3d8d3aec	0.06896004
4	0xbd6eba74	-0.058283284
5	0xbdd17f38	-0.10229343
6	0x3d95aa12	0.07307829
7	0xbb8795a0	-0.0041377097
8	0xbdd3b0ee	-0.10336481
9	0xbda6ab48	-0.08138138
10	0x3d9733c2	0.07382919
11	0xbd14171c	-0.03615485
12	0xbd2ccfac	-0.04219024
13	0x3dca8580	0.09888744
14	0x3bf9d160	0.0076238364
15	0xbdfacaf2	-0.1224574
16	0x3c1098f0	0.008825526
17	0xbd443690	-0.047903597
18	0x3d412ad4	0.047159985
19	0x3bf6c620	0.0075309426
20	0xbdb1df34	-0.08685151
21	0xbb6962c0	-0.0035611838
22	0xbd7398f8	-0.059472054
23	0xbd2a6000	-0.04159546
24	0x3cc25310	0.023721248
25	0xbd612ad0	-0.05497247
26	0x3d5f439c	0.054507837
27	0xbd5637b0	-0.0522992
28	0x3df4688a	0.11934002
29	0x3c6a97b0	0.014318392
30	0xbd96a518	-0.07355708
31	0x3dfd1bda	0.12358828
32	0x3db407f0	0.087905765
33	0x3dfe312c	0.124117225
34	0x3d8ac460	0.06775737
35	0x3d476c04	0.048686996
36	0x3afc7b00	0.0019262731
37	0x3daa9514	0.08329216
38	0x3b968420	0.0045933872
39	0x3db6c9e8	0.08925229
40	0xbdeac43e	-0.114632115
41	0xbdc13244	-0.094334155
42	0xbddd9298	-0.10818976
43	0xbd858594	-0.06519619
44	0x3da37c92	0.07982744
45	0xbdf5fe2a	-0.120113686
46	0xbd7d700c	-0.061874434
47	0xbcc549b0	-0.024082989
48	0x3de75d5a	0.11297102
49	0xbd3e584c	-0.046470925
50	0x3df44c0a	0.11928566
51	0x3c2ce460	0.010552496
52	0x3d8f245e	0.06989358
53	0xbda98aee	-0.08278452
54	0xbda6306c	-0.081147045
55	0x3d14ee00	0.036359787
56	0x3d2cd52c	0.042195484
57	0x3d20ba30	0.039240062
58	0xbd17ceb8	-0.037062377
59	0x3b006840	0.0019593388
60	0xbd8edb0c	-0.069753736
61	0x3cfdd200	0.030983925
62	0x3de2a994	0.11067501
63	0xbdab3496	-0.08359639
64	0x3dccc0a2	0.09997679
65	0x3c8d7ed8	0.017272398
66	0xbdfbf4f6	-0.12302582
67	0xbc98ada0	-0.018637478
68	0xbdd4b1f0	-0.103855014
69	0x3d541508	0.05177787
70	0x3dc1095e	0.09425615
71	0xbc0494b0	-0.0080920905
72	0xbcba8ec0	-0.022773147
73	0xbcd16b20	-0.025563776
74	0xbd0b271c	-0.033972844
75	0xbb97c600	-0.0046317577
76	0xbc0a4460	-0.008439153
77	0x3db701e6	0.08935909
78	0xbddb4650	-0.107067704
79	0x3dd96fae	0.10617004
80	0x3db66c24	0.08907345
81	0xbd9449fe	-0.072406754
82	0x3bcdc1a0	0.0062791854
83	0xbd9b0bea	-0.07570632
84	0xbd1ecd58	-0.03877005
85	0x3d16ffd8	0.036865085
86	0x3af8da80	0.0018986017
87	0xbda04fa4	-0.0782769
88	0xbdf95888	-0.12175089
89	0x3d7fb5f0	0.06242937
90	0x3d339d24	0.043851033
91	0x3db1a1ba	0.08673425
92	0xbdb47580	-0.08811474
93	0xbd845a52	-0.0646254
94	0x3bf35ac0	0.0074265897
95	0xbdc738a8	-0.09727603
96	0xbd9f6512	-0.077829495
97	0x3d64db48	0.055873185
98	0xbdfe5fc8	-0.124206126
99	0xbdffceb6	-0.12490599
100	0xbd8411d0	-0.0644871
101	0xbcf8b488	-0.030359522
102	0xbdd612a6	-0.10452776
103	0xbd5fb178	-0.054612607
104	0x3a515900	0.00079859793
105	0xbdb3f6ba	-0.08787294
106	0x3dc912ac	0.098180145
107	0x3cf17de0	0.029478967
108	0xbd716f88	-0.058944255
109	0x3daf4af4	0.08559218
110	0x3d81322a	0.06308396
111	0xbd503c58	-0.0508388
112	0x3dc6ea96	0.097127125
113	0xbdd8b5a4	-0.1058152
114	0x3d9c3c02	0.07628633
115	0x3d772e10	0.060346663
116	0xbd088d58	-0.03333792
117	0xbd5073ac	-0.050891563
118	0x3d2c43ec	0.042056963
119	0xbda2680c	-0.079300016
120	0x3ddef960	0.10887408
121	0x3df1de48	0.11809975
122	0xbd77a884	-0.060463443
123	0xbddb4856	-0.10707156
124	0x3da11eb6	0.07867186
125	0x3dc2f15e	0.095186934
126	0xbdb3089c	-0.087418765
127	0x3d7ccd04	0.061718956
128	0x3d83852c	0.06421885
129	0xbddee7b0	-0.10884035
130	0xbbea97a0	-0.0071591884
131	0x3b060080	0.0020447075
132	0xbd9bd1a0	-0.07608342
133	0xbdb439ae	-0.08800064
134	0xbd84fcb4	-0.06493512
135	0x3cb17e98	0.02166681
136	0xbd064d68	-0.032788664
137	0xbddc452e	-0.107553825
138	0x3dc5255a	0.09626265
139	0x3dd3cefc	0.103422135
140	0xbd039a90	-0.032129824
141	0xbc9bb6a0	-0.01900798
142	0xbd99a438	-0.07502025
143	0x3dfb7fc6	0.1228023
144	0xbd0b24e8	-0.033970743
145	0x3de658cc	0.112474054
146	0x3dbced98	0.09225005
147	0x3b78c840	0.0037961155
148	0x3d6aaa94	0.057291582
149	0xbd90a1ea	-0.07062133
150	0xbd17ade4	-0.03703107
151	0x3d9172bc	0.07101962
152	0xbde65aa0	-0.11247754
153	0xbb8dc420	-0.0043263584
154	0x3cd56aa0	0.02605182
155	0xbdee9c52	-0.116509095
156	0xbdd4a4d0	-0.10382998
157	0xbd931794	-0.071822315
158	0xbdcafd08	-0.09911543
159	0xbc8ba258	-0.017045185
160	0x3c551510	0.01300551
161	0x3d932e42	0.07186557
162	0xbd951da0	-0.07281041
163	0xbdeb3f62	-0.11486699
164	0xbdb39a6a	-0.087696865
165	0xbde3367e	-0.11094378
166	0x3de6c66a	0.11268313
167	0xbb5c85c0	-0.0033649057
168	0x3da20c26	0.079124734
169	0x3d2cabdc	0.042156085
170	0x3d57da34	0.05269833
171	0x3d511974	0.051049665
172	0xbc4ed8f0	-0.012624964
173	0xbdb48cb0	-0.088158965
174	0x3ca8ba88	0.020596758
175	0xbdc490e6	-0.0959795
176	0x3d9c0580	0.076182365
177	0x3cac9cd0	0.021070868
178	0x3dbad6a6	0.09122972
179	0x3cd5e6c8	0.026111022
180	0x3d3258f4	0.043541864
181	0xbc2e5960	-0.010641426
182	0x3df0f96c	0.117663234
183	0x3d950c1c	0.072777
184	0x3d4ad634	0.049520686
185	0xbdc67376	-0.09689991
186	0xbd86eaac	-0.06587729
187	0xbddb6aaa	-0.10713704
188	0xbdcd3f92	-0.10021891
189	0xbde49d7e	-0.11162852
190	0x3db4a85a	0.08821173
191	0xbd80e808	-0.062942564
192	0xbd8e9918	-0.06962794
193	0x3d18f2a8	0.03734079
194	0x3c02f9d0	0.00799413
195	0x3d22dea8	0.039763123
196	0x3ddfd2e0	0.10928893
197	0xbdd44f64	-0.10366705
198	0xbd27bac8	-0.040949613
199	0x3cdb64a8	0.026781395
200	0xbd290fe0	-0.041274905
201	0xbd254d28	-0.040356785
202	0xbc505fb0	-0.012718126
203	0xbcb80440	-0.022462964
204	0xbcf363d0	-0.02971068
205	0xbdeadfa0	-0.11468434
206	0x3dc0a6b4	0.09406796
207	0x3d39a9d0	0.04532796
208	0x3db7b11c	0.08969328
209	0x3a81ad80	0.0009893626
210	0x3c030b60	0.0079983175
211	0x3db33ec6	0.087522075
212	0xbddac0d2	-0.10681309
213	0xbd205aa8	-0.039148957
214	0x3b6f4880	0.003651172
215	0xbd64a544	-0.055821672
216	0xbcd71288	-0.026253954
217	0x3d7b9888	0.061424762
218	0x3dd5f7b8	0.10447639
219	0x3cdfaf50	0.027305275
220	0x3c708180	0.014679313
221	0xbd5a4568	-0.053288847
222	0x3d9a1c32	0.07524909
223	0x3ddafaa4	0.10692337
224	0xbd35cac0	-0.04438281
225	0x3a894f00	0.0010475814
226	0x3dd0baca	0.10191877
227	0x3deda826	0.116043374
228	0x3d4efc60	0.050533652
229	0xbd829ce0	-0.06377578
230	0x3d44d06c	0.04805033
231	0x3a831980	0.0010002106
232	0xbdf6006c	-0.12011799
233	0xbc83c8a0	-0.016086876
234	0x3c860350	0.016359001
235	0xbd4941fc	-0.049135193
236	0xbd997e28	-0.074947655
237	0x3d9a7d00	0.07543373
238	0x3d96dc86	0.0736628
239	0xbdd126e6	-0.102124974
240	0xbddfe7a4	-0.10932854
241	0xbbc4f060	-0.0060101002
242	0x3c8c90f8	0.01715897
243	0xbdada8ee	-0.084794864
244	0x3ca11148	0.01966156
245	0x3dddee76	0.108364984
246	0xbcc131e8	-0.023583367
247	0xbb690380	-0.0035555065
248	0xbd80509c	-0.06265375
249	0x3cbfb718	0.023402736
250	0x3de326ca	0.11091383
251	0xbda69cbe	-0.08135365
252	0x3db173c2	0.08664657
253	0x3c732d40	0.014842331
254	0xbdcad5a2	-0.099040285
255	0xbd5623c8	-0.052280217

fc2.bias f4 [64]
0	0x3d63715c	0.05552803
1	0x3d961080	0.07327366
2	0x3adaa000	0.0016679764
3	0x3dd65264	0.104649335
4	0xbd090ab8	-0.033457488
5	0x3d4b3be4	0.049617663
6	0xbcd24648	-0.025668278
7	0x3ce1cab8	0.027562484
8	0x3db45e4c	0.08807048
9	0xbdaeb680	-0.08530903
10	0x3da2a426	0.07941465
11	0x3d80c402	0.062873855
12	0xbd84e4ba	-0.06488939
13	0x3d339440	0.043842554
14	0xbd52915c	-0.051408157
15	0x3def3a90	0.11681092
16	0xbd345fd0	-0.044036686
17	0x3d491670	0.049093664
18	0xbd913394	-0.07089916
19	0x3c8fc070	0.017547816
20	0x3c89fc00	0.016843796
21	0xbbab6f60	-0.005231783
22	0xbde19fa0	-0.11016774
23	0xbdccd482	-0.1000147
24	0xbd943c44	-0.07238057
25	0x3deb0198	0.11474913
26	0x3dffd96a	0.1249264
27	0x3cba0a48	0.02270998
28	0xbdab7770	-0.0837239
29	0x3dfa8e9a	0.1223423
30	0x3d64e9d8	0.055887073
31	0x3c546c00	0.012965202
32	0xbdabb3b2	-0.083838835
33	0xbd3fb240	-0.04680085
34	0x3d951ff8	0.07281488
35	0x3cf4a5c0	0.029864192
36	0x3d7112f0	0.05885595
37	0xbc1c6cf0	-0.009547457
38	0x3d477200	0.048692703
39	0x3db2666c	0.08710942
40	0x3de7914a	0.113070086
41	0xbd7fea00	-0.06247902
42	0xbd91e83e	-0.07124375
43	0x3d7a8e74	0.06117101
44	0x3d2e07e4	0.042487994
45	0xbd3c00b4	-0.045899108
46	0xbd2fab34	-0.04288788
47	0x3c341aa0	0.010992676
48	0xbda494ba	-0.0803618
49	0x3d351700	0.044211388
50	0xbd46cfec	-0.048538134
51	0x3d647914	0.05577953
52	0xbd3a2a80	-0.045450687
53	0x3dfa127c	0.12210557
54	0x3d21b860	0.039482474
55	0x3dcc24e4	0.09967974
56	0x3d83830e	0.06421481
57	0xbddaef36	-0.10690157
58	0xbdcb62fa	-0.09930988
59	0xbc805240	-0.01566422
60	0xbdc14c14	-0.09438339
61	0xbdcb4e6e	-0.09927069
62	0x3da95738	0.08268589
63	0x3cda4808	0.026645675

fc3.weight f4 [8, 64]
0	0xbde53e0c	-0.11193475
1	0x3c2c0910	0.010500208
2	0xbd34e930	-0.044167697
3	0x3d50b05c	0.05094944
4	0xbdd674da	-0.104715064
5	0xbd6bc2a0	-0.057558656
6	0x3dcd93c4	0.1003795
7	0x3d8d1100	0.06888008
8	0xbcd68150	-0.026184708
9	0xbd410ca4	-0.047131196
10	0xbdba8684	-0.09107688
11	0x3d1d7184	0.038438335
12	0x3d2374f4	0.039906457
13	0xbdd72808	-0.10505682
14	0x3d753ebc	0.05987428
15	0x3d4191fc	0.047258362
16	0x3cc26cd0	0.023733526
17	0x3d875748	0.066084445
18	0x3d09826c	0.033571646
19	0xbdc27134	-0.09494248
20	0xbced5e38	-0.028975591
21	0xbd5047c8	-0.050849706
22	0x3d12a918	0.03580579
23	0x3dc0fb0c	0.094228834
24	0x3bbd5720	0.0057782084
25	0x3d4056c8	0.04695776
26	0x3d00f888	0.031487018
27	0x3db51d74	0.08843508
28	0xbdd3abbe	-0.103354916
29	0x3d01e79c	0.03171502
30	0x3d3d9bdc	0.046291217
31	0x3c574d30	0.0131409615
32	0x3d924e4e	0.07143842
33	0xbd3ffbd8	-0.046871036
34	0xbc85bc58	-0.01632516
35	0xbd4392bc	-0.04774736
36	0x3da44e24	0.08022717
37	0xbb7bddc0	-0.0038431734
38	0xbd9bc0d2	-0.07605137
39	0xbd508734	-0.05091019
40	0xbdc789e0	-0.097430944
41	0x3da1a3a0	0.07892537
42	0x3c271c50	0.010199621
43	0x3d834456	0.064095184
44	0xbda79cca	-0.08184202
45	0xbdc8612e	-0.097841606
46	0x3ded020c	0.11572656
47	0x3dd84fb4	0.10562077
48	0xbcbc9df8	-0.023024544
49	0x3dcb0828	0.09913665
50	0x3ce7c928	0.028294161
51	0x3dba21ee	0.09088503
52	0x3bfcec00	0.007718563
53	0xbdc73496	-0.09726827
54	0xbde4a392	-0.11164011
55	0x3dae3bf0	0.08507526
56	0xbcfa34e8	-0.030542806
57	0xbc946ef8	-0.01811932
58	0xbd294f80	-0.041335583
59	0x3db89d64	0.09014395
60	0xbd94deba	-0.07269044
61	0x3dbcc37c	0.09216973
62	0xbd4b0bc0	-0.049571753
63	0x3c769820	0.015050918
64	0x3c3b5ea0	0.011436135
65	0x3de473fe	0.11154936
66	0xbd585b7c	-0.05282162
67	0xbd6e5984	-0.058190838
68	0xbdc168d0	-0.094438195
69	0x3cc6cb30	0.02426681
70	0x3c68d510	0.014210954
71	0x3dad4af0	0.08461559
72	0x3c7eba20	0.015547305
73	0xbdea6e4c	-0.11446819
74	0x3bbe2fc0	0.005804032
75	0x3d9dcef4	0.07705489
76	0xbc8b00d8	-0.016968176
77	0x3dda9d6e	0.106745586
78	0x3b2fa900	0.0026803613
79	0xbd633c28	-0.05547729
80	0x3d26dc58	0.04073748
81	0xbba1fb40	-0.0049432814
82	0xbdfddeac	-0.12395987
83	0xbb8ad720	-0.0042370707
84	0xbcb086f0	-0.021548718
85	0x3cd54af0	0.02603671
86	0xbbcd2100	-0.0062600374
87	0x3d4fd180	0.050736904
88	0xbc926e18	-0.017874762
89	0xbd5a9cc8	-0.053372175
90	0xbc0d6910	-0.008631006
91	0x3dfc45b6	0.12317984
92	0xbd259ce0	-0.04043281
93	0xbd333568	-0.043752104
94	0x3d651678	0.05592963
95	0x3cc88c40	0.024480939
96	0xbd8c8420	-0.06861138
97	0x3dc6822e	0.096927986
98	0xbdedb88a	-0.11607464
99	0xbd61a210	-0.055086195
100	0x3dcd64a6	0.10028963
101	0x3b380980	0.0028081834
102	0x3bcc4960	0.006234333
103	0x3cdce870	0.026966304
104	0x3d85fdca	0.06542547
105	0x3c8290f8	0.015938267
106	0x3da18ad6	0.07887809
107	0x3d8cff40	0.068846226
108	0x3ddf1214	0.1089212
109	0xbdbf8b4e	-0.09352742
110	0xbdf4e76a	-0.11958201
111	0x3ce623f8	0.028093323
112	0x3d1862a8	0.03720346
113	0xbd228d00	-0.03968525
114	0x3d2bb67c	0.041922078
115	0x3bb61160	0.0055562705
116	0xbd6bdf4c	-0.057586
117	0x3d192e30	0.037397563
118	0x3cefb638	0.029261693
119	0x3dee36b8	0.116315305
120	0x3d9a5b08	0.07536894
121	0x3c28dce0	0.010306567
122	0x3b150cc0	0.0022743195
123	0x3d2a490c	0.04157357
124	0xbd6bf198	-0.05760345
125	0xbd684ac0	-0.056711912
126	0xbd98cc68	-0.074608624
127	0xbdd724a6	-0.10505037
128	0x3bd9f480	0.006651461
129	0x3d1052e8	0.035235316
130	0xbc98c078	-0.018646464
131	0xbc917058	-0.017753765
132	0xbcd44d90	-0.025915891
133	0xbd025068	-0.031814963
134	0xbde846a6	-0.113416
135	0x3d08e010	0.033416808
136	0xbd920acc	-0.071309656
137	0xbb8610c0	-0.004091352
138	0x3ce7c200	0.028290749
139	0x3d1738cc	0.0369194
140	0x3dcb0414	0.09912887
141	0xbd221330	-0.03956908
142	0x3d6fcce8	0.058545023
143	0xbdf3f922	-0.11912753
144	0xbcb58648	-0.022158757
145	0xbc8c87e8	-0.017154649
146	0x3d114798	0.035468668
147	0x3dd26d40	0.10274744
148	0xbdc4e08c	-0.096131414
149	0x3def03ca	0.116706446
150	0x3dd9e100	0.106386185
151	0xbda41872	-0.08012475
152	0x3d373644	0.044729486
153	0x3da50c1e	0.08058952
154	0xbdee40d8	-0.11633462
155	0x3cd506f8	0.0260043
156	0x3ca6fb18	0.020383403
157	0x3d7b32b8	0.061327666
158	0xbdd5911c	-0.10428068
159	0xbce4d5b8	-0.02793394
160	0xbdaae366	-0.08344154
161	0x3d221f68	0.039580733
162	0xbd87540a	-0.06607826
163	0x3d947758	0.072493255
164	0x3cabc038	0.02096568
165	0xbd4d4fc8	-0.050124913
166	0xbb6c4140	-0.0036049634
167	0x3d71a7ec	0.058998033
168	0x3d9a3ece	0.0753151
169	0xbce06ac0	-0.027394652
170	0xbb81f520	-0.0039659888
171	0x3dfaf4f4	0.12253752
172	0x3d0dfe14	0.034666136
173	0x3d93c12e	0.072145805
174	0xbde738e8	-0.11290151
175	0xbd76ba40	-0.060236216
176	0x3da364d8	0.07978219
177	0x3b692a80	0.003557831
178	0xbd8c8698	-0.06861609
179	0xbdc4ca38	-0.09608883
180	0x3de43762	0.11143376
181	0xbd775e2c	-0.060392544
182	0xbdb79ff2	-0.08966054
183	0xbdca3930	-0.09874189
184	0x3ddf0082	0.10888769
185	0x3def675a	0.116896346
186	0x3d394938	0.045235842
187	0x3db553ae	0.08853851
188	0xbdce89f8	-0.10084909
189	0x3d27cabc	0.040964827
190	0x3da31414	0.07962814
191	0xbd248c58	-0.040172905
192	0xbc8fd430	-0.017557234
193	0x3d00d020	0.031448483
194	0xbd055094	-0.03254755
195	0x3d1205a4	0.03564991
196	0x3d46a474	0.04849668
197	0x3d918962	0.07106282
198	0xbdfb28b8	-0.12263626
199	0xbd9a0d4e	-0.07522069
200	0x3d28b55c	0.041188583
201	0xbbe49500	-0.00697577
202	0xbdb0615a	-0.08612318
203	0xbdfa1d70	-0.12212646
204	0x3cd16bb0	0.025564045
205	0x3d5d0d44	0.05396773
206	0xbd33f90c	-0.04393868
207	0xbd9ea3d2	-0.0774609
208	0xbc0583e0	-0.008149117
209	0xbd9c2cf2	-0.0762576
210	0xbd1af480	-0.03783083
211	0x3dd515ec	0.10404572
212	0xbdbd1c72	-0.09233941
213	0x3d8f5b92	0.069998875
214	0xbd92a0d8	-0.07159585
215	0xbd21d040	-0.039505243
216	0x3dd8872a	0.105726555
217	0xbac4e280	-0.0015021116
218	0xba866c00	-0.0010255575
219	0x3d991054	0.074738175
220	0x3b12b300	0.0022384524
221	0x3cb19650	0.02167812
222	0xbb9f3b40	-0.004859358
223	0xbd5e3fc0	-0.054260015
224	0x3de9aa88	0.114094794
225	0x3ca349b0	0.019932598
226	0x3d31993c	0.043359026
227	0xbddf07ee	-0.10890184
228	0xbdbc2166	-0.09186058
229	0x3df786d0	0.1208626
230	0xbdea7b8e	-0.114493474
231	0xbbc3e0c0	-0.00597772
232	0xbd06e430	-0.03293246
233	0x3decbde0	0.11559653
234	0x3de262a0	0.110539675
235	0xbdefc38a	-0.11707218
236	0xbddcd1f0	-0.1078223
237	0xbc48d4f0	-0.0122577995
238	0xbdedfa32	-0.116199866
239	0xbdfe11ac	-0.124057144
240	0x3d017ce8	0.03161326
241	0xbc823950	-0.01589647
242	0x3d1013f4	0.03517528
243	0x3daa9df6	0.0833091
244	0xbc007d70	-0.007842407
245	0xbd3c6324	-0.045992985
246	0x3d78c760	0.060737014
247	0x3dbfb6a4	0.09361008
248	0xbda40f94	-0.08010784
249	0x3de49ae0	0.111623526
250	0xbcefc5f8	-0.029269204
251	0xbd8f7322	-0.07004382
252	0x3dbfadc8	0.09359318
253	0x3da24d00	0.07924843
254	0xbbca64a0	-0.006176546
255	0x3c0face0	0.008769244

fc3.bias f4 [8]
0	0x39540c00	0.00020222366
1	0x3d62f440	0.055408716
2	0x3dcad28c	0.0990344
3	0x3c819278	0.015816912
4	0xbc40d7b0	-0.011770174
5	0x3ddb2406	0.1070023
6	0xbdc15878	-0.09440702
7	0xbda568f2	-0.08076657
