saves/final_ai_memory_npc_3_emotion.pth (torch, 15389 bytes, 6 tensors)

fc1.weight f4 [64, 10]
0	0x3dd83224	0.105564386
1	0x3e595a12	0.21225765
2	0x3e2199d4	0.15781337
3	0xbd90824c	-0.07056102
4	0xbe9e7a58	-0.30952716
5	0x3dcc2440	0.09967852
6	0xbe67ac61	-0.22624351
7	0xbd8d3788	-0.06895357
8	0xbd98e7a4	-0.07466057
9	0x3cc284b0	0.023744911
10	0x3e98f4f3	0.2987438
11	0xbe9bda1f	-0.3043985
12	0xbdc1b54c	-0.09458408
13	0x3c4954e0	0.012288302
14	0xbdc82c1e	-0.0977404
15	0x3de9cc4c	0.1141592
16	0xbd328228	-0.043581158
17	0x3bd93b80	0.0066294074
18	0x3e819293	0.2530714
19	0xbd06c818	-0.032905668
20	0x3e56825e	0.20948169
21	0x3d943cb8	0.07238144
22	0x3e73c5aa	0.23805872
23	0x3e4ac0e6	0.19800147
24	0x3d5b33b8	0.05351612
25	0x3d83c2d8	0.06433648
26	0x3d6e7b00	0.05822277
27	0xbd3f4ba8	-0.04670301
28	0x3e8acde5	0.2711021
29	0x3e95d99f	0.29267594
30	0x3e090ce4	0.13383824
31	0x3e93a803	0.2883912
32	0xbe07f5f2	-0.13277414
33	0xbe1a2694	-0.15053779
34	0x3e996cc3	0.2996579
35	0x3d89cce8	0.06728536
36	0xbd82da7c	-0.06389329
37	0x3e0deb80	0.13859367
38	0x3e833529	0.25626495
39	0xbd87adaa	-0.06624921
40	0x3e355c98	0.17711103
41	0xbe0e0d13	-0.13872175
42	0xbe5801bb	-0.2109441
43	0xbe9ab900	-0.3021927
44	0x3e11866a	0.14211431
45	0x3c97fb40	0.018552423
46	0xbd378838	-0.044807643
47	0xbe188044	-0.1489268
48	0xbc98a2f0	-0.018632382
49	0xbcd96c80	-0.026540995
50	0xbbe54b40	-0.006997496
51	0xbe34d840	-0.17660618
52	0xbe8eee57	-0.27916214
53	0xbddab9c2	-0.10679962
54	0x3e4d49a2	0.2004762
55	0xbd78bfa0	-0.060729623
56	0xbe547d55	-0.20750935
57	0x3d7a4048	0.06109646
58	0xbe97863e	-0.29594606
59	0xbe2f9676	-0.1714724
60	0x3b1b2980	0.002367586
61	0x3d3885c0	0.04504943
62	0x3e58957e	0.21150777
63	0x3e73ab7a	0.23795882
64	0xbe3750d8	-0.17901933
65	0xbe50bc24	-0.2038427
66	0xbdc73732	-0.097273245
67	0xbe08977f	-0.13339041
68	0x3e108eb4	0.14116937
69	0xbdb214dc	-0.08695385
70	0xbe057556	-0.13033041
71	0xbe3d04ff	-0.18458937
72	0xbe5ee1e2	-0.21765855
73	0xbe6cbe00	-0.23119354
74	0xbe888c73	-0.26669654
75	0x3e2b0572	0.16701296
76	0x3cc2b910	0.023769885
77	0x3e848677	0.2588384
78	0xbca2b620	-0.019862235
79	0x3e1368ac	0.14395398
80	0x3dde0298	0.108403385
81	0x3d4551a0	0.048173547
82	0xbea18b25	-0.3155147
83	0x3ccdd150	0.025124222
84	0x3e6038a2	0.21896604
85	0xbda6d906	-0.08146863
86	0x3e532bd2	0.20622185
87	0xbd94675e	-0.07246278
88	0x3d2ab128	0.041672856
89	0x3ea1a719	0.31572798
90	0xbe9ea957	-0.3098857
91	0x3e8afb29	0.27144745
92	0xbd6b2e28	-0.057417065
93	0xbe9cb21a	-0.3060463
94	0xbdd42f78	-0.103606164
95	0x3d90bd74	0.07067385
96	0xbcd11e90	-0.025527269
97	0x3e594f12	0.21221569
98	0x3d4a6b80	0.049418926
99	0xbdfb540e	-0.122718915
100	0x3dbfeb68	0.09371072
101	0x3e817ab7	0.25288936
102	0xbe6b3d82	-0.22972682
103	0x3e742d6a	0.23845449
104	0x3dc00688	0.09376246
105	0x3e833733	0.2562805
106	0x3e6dbb6a	0.23216024
107	0xbe445b0d	-0.19175358
108	0x3c757cc0	0.014983356
109	0xbcbf24c0	-0.023332953
110	0xbdcb37e4	-0.0992277
111	0x3e274b9e	0.1633744
112	0x3e90abf3	0.28256187
113	0xbe39fa67	-0.18161927
114	0xbd51ae40	-0.05119157
115	0x3e27ea24	0.16397911
116	0xbe7e1014	-0.24810821
117	0xbd4dceb8	-0.05024597
118	0x3e920193	0.28516826
119	0xbe7760a4	-0.24157959
120	0xbd6989a8	-0.057016045
121	0xbde9667c	-0.113965005
122	0xbe78d7e2	-0.24301103
123	0x3e1498b8	0.14511383
124	0xbe805baa	-0.25069934
125	0x3e28ae30	0.16472697
126	0x3e030fd8	0.12799013
127	0xbd1ea9e0	-0.038736224
128	0x3c10b500	0.008832216
129	0xbd556298	-0.05209598
130	0xbe709a3e	-0.23496339
131	0x3c2d8940	0.010591805
132	0x3d83572c	0.06413111
133	0xbe903dc1	-0.28172114
134	0x3d23ab48	0.03995827
135	0xbe2efd4f	-0.17088817
136	0x3ea1c1f9	0.31593302
137	0x3d8a4290	0.06750977
138	0x3d302ef8	0.043013543
139	0x3e67e78a	0.22646919
140	0xbe9c3b60	-0.3051405
141	0xbd80b44c	-0.06284389
142	0x3e334370	0.17506194
143	0x3e9ecf79	0.31017664
144	0x3d2dc7d8	0.042426914
145	0x3e1bf884	0.1523152
146	0x3de0cb34	0.10976258
147	0xbe69d88c	-0.22836512
148	0x3e95eea9	0.29283646
149	0xbe66c1ae	-0.2253482
150	0xbe54fa62	-0.20798638
151	0x3e155b7c	0.1458568
152	0xbe92cc64	-0.28671563
153	0x3e5e92f2	0.21735743
154	0x3e9cbc73	0.30612525
155	0x3d137118	0.035996526
156	0xbe4491bd	-0.1919622
157	0x3e815d45	0.25266472
158	0x3e8a2205	0.2697908
159	0xbe0cb406	-0.13740548
160	0x3e8f8cf7	0.28037235
161	0x3e31eb32	0.17374876
162	0x3e82b933	0.2553192
163	0x3cdf3060	0.027244747
164	0x3e2b7e08	0.16747296
165	0x3e290a62	0.16507867
166	0x3dc73150	0.097262025
167	0xbe7f23a1	-0.24915935
168	0xbcaeebd0	-0.021352679
169	0x3e830fd1	0.25598004
170	0x3cd77e00	0.026305199
171	0xbe20ae16	-0.15691409
172	0x3e513806	0.20431527
173	0x3e710332	0.23536375
174	0x3ea0a663	0.31376943
175	0xbe806ee2	-0.25084597
176	0x3ddd47a8	0.10804683
177	0x3e3d7ad6	0.1850389
178	0x3e9481d9	0.29005316
179	0x3e162578	0.1466273
180	0xbe8be832	-0.27325588
181	0xbc9cb440	-0.019128919
182	0x3e845fe3	0.25854406
183	0xbe3dc509	-0.18532194
184	0xbdf7f1d4	-0.12106672
185	0xbd890fb0	-0.06692445
186	0x3e873b37	0.26412365
187	0xbe1d186a	-0.15341344
188	0x3e1676cc	0.14693755
189	0xbe8f5644	-0.27995503
190	0x3e5793b6	0.21052441
191	0xbe1fa9cb	-0.15592115
192	0x3d970eb8	0.07375854
193	0xbdfbf958	-0.12303418
194	0xbe54c46c	-0.20778054
195	0xbd827ef8	-0.063718736
196	0x3db750ac	0.08950934
197	0xbe230af1	-0.15922143
198	0xbe99348a	-0.29922897
199	0xbd09b478	-0.033619374
200	0x3d11ff40	0.035643816
201	0xbe53d57e	-0.2068691
202	0xbe0f7af9	-0.14011754
203	0xbe02e86a	-0.12783971
204	0x3e53944a	0.20662037
205	0x3cd1fa70	0.025632113
206	0x3e68cd42	0.2273455
207	0x3e574ba2	0.21024945
208	0x3e821857	0.25409195
209	0xbd9bb9ca	-0.07603796
210	0xbe98975d	-0.2980298
211	0xbe2f38fd	-0.17111583
212	0x3e96846f	0.29397914
213	0x3e2f1ea4	0.17101532
214	0x3e3da35e	0.18519351
215	0x3de09a90	0.109669805
216	0xbea18ed6	-0.31554288
217	0xbd87289c	-0.065995425
218	0x3e66b84a	0.22531238
219	0xbd9da3a4	-0.076972276
220	0x3e935c63	0.28781423
221	0xbe7ee254	-0.24891025
222	0x3e8db1f5	0.27674833
223	0xbc2ed9a0	-0.010672003
224	0x3c840d00	0.01611948
225	0xbdf04fa0	-0.11733937
226	0xbd375ac8	-0.04476431
227	0x3e8f213d	0.27955046
228	0xbcdd6f00	-0.027030468
229	0xbdc07ba4	-0.093985826
230	0xbd8ca366	-0.06867103
231	0xbba57f80	-0.0050505996
232	0x3dbed898	0.09318656
233	0xbe1e2906	-0.15445337
234	0x3e7d820e	0.24756643
235	0x3e511b12	0.20420483
236	0xbdcf0d54	-0.10109964
237	0xbe4a2be2	-0.19743302
238	0xbe1a8c32	-0.15092543
239	0x3daece90	0.085354924
240	0x3da2b7f8	0.079452455
241	0xbe59aad0	-0.21256566
242	0x3dbe0168	0.09277612
243	0xbdc9ff2a	-0.09863122
244	0xbba4cc80	-0.005029261
245	0x3ddde444	0.10834554
246	0x3e900715	0.28130403
247	0xbdc30726	-0.09522848
248	0x3e99addd	0.3001546
249	0xbe60a3bd	-0.21937461
250	0xbe289592	-0.16463307
251	0xbea0140f	-0.31265303
252	0x3e66836a	0.22511068
253	0x3e431d12	0.19054058
254	0xbdaa7d70	-0.083247066
255	0x3ccb04b0	0.024782509

fc1.bias f4 [64]
0	0xbe2c2a04	-0.16812903
1	0xbddfc758	-0.10926694
2	0x3e530dde	0.20610759
3	0xbe0aa532	-0.1353958
4	0x3e70de7a	0.23522368
5	0xbe2ab511	-0.16670634
6	0x3d805d74	0.06267825
7	0x3e01c04c	0.12671012
8	0xbc8946a0	-0.01675731
9	0xbe18e1b6	-0.14929852
10	0xbc5c8280	-0.013458848
11	0x3d60d930	0.054894626
12	0xbdb8a37a	-0.09015556
13	0xbe87c2f0	-0.26515913
14	0xbd9bda42	-0.07609989
15	0xbe12f5ba	-0.1435155
16	0x3d371268	0.044695288
17	0x3d6caf10	0.05778414
18	0x3d358540	0.04431653
19	0xbd8019c0	-0.062549114
20	0x3cfe87b0	0.03107056
21	0x3e341072	0.17584398
22	0xbe927fd1	-0.2861314
23	0x3d4ec8f8	0.050484627
24	0x3e805e5d	0.25071993
25	0xbe111ab9	-0.1417035
26	0x3c406100	0.011741877
27	0xbe85a41c	-0.26101768
28	0x3e2b20d0	0.16711736
29	0xbdb357fc	-0.08757016
30	0x3c9b8ba0	0.018987477
31	0x3e0e5fb8	0.13903701
32	0xbb915380	-0.004435003
33	0xbe229421	-0.15876819
34	0xbe6c5f70	-0.23083282
35	0x3e92cc6b	0.28671584
36	0x3e1e7f16	0.15478167
37	0xbd0faac8	-0.03507498
38	0x3e061692	0.13094547
39	0x3e7295b6	0.23689923
40	0xbdeb21f0	-0.114810824
41	0xbd602a00	-0.054727554
42	0x3e703762	0.23458627
43	0xbe19b385	-0.15009888
44	0xbe90e232	-0.28297573
45	0x3d3c4658	0.045965523
46	0xbe71704c	-0.23577994
47	0x3e6c2b72	0.23063448
48	0x3e5eda82	0.21763042
49	0x3db28eb4	0.08718625
50	0x3d459910	0.048241675
51	0x3d5a9698	0.053366274
52	0x3e9f0cd5	0.31064478
53	0xbe91a297	-0.2844436
54	0xbe9ec0c7	-0.31006452
55	0xbe6804f6	-0.22658142
56	0x3e2d0d62	0.16899636
57	0xbc31b760	-0.010846943
58	0x3e8963a9	0.26833847
59	0xbe820696	-0.2539565
60	0xbe59d31a	-0.21271935
61	0x3d9c8ac0	0.07643652
62	0xbdeb40d4	-0.11486974
63	0xbdea1b2c	-0.11430964

fc2.weight f4 [32, 64]
0	0xbdaa72e8	-0.08322698
1	0xbd7d5aac	-0.06185405
2	0xbdce52a4	-0.10074356
3	0xbbaf4ea0	-0.005349949
4	0x3dc5e16a	0.09662135
5	0xbdcc2314	-0.09967628
6	0xbdeaf9a6	-0.11473398
7	0x3d9e37f2	0.077255145
8	0xbdab41d6	-0.083621666
9	0x3c4a3ce0	0.012343615
10	0x3d475c30	0.0486719
11	0x3db2bd0a	0.087274626
12	0x3dbd2d04	0.09237102
13	0x3dd25784	0.102705985
14	0xbdb6987c	-0.08915803
15	0x3de73428	0.11289245
16	0x3c7fa480	0.015603185
17	0xbda9c95c	-0.082903594
18	0x3dcf1b24	0.101125985
19	0xbce52378	-0.027971014
20	0x3bd6ba60	0.0065529794
21	0xbd796580	-0.060887814
22	0xbdd5eef0	-0.10445964
23	0x3d3627f4	0.044471696
24	0x3c027b70	0.007964
25	0x3d628ba8	0.055308968
26	0x3d77cc48	0.060497552
27	0xbdc64cbe	-0.09682606
28	0xbdf34b2e	-0.11879574
29	0x3d803bc0	0.062613964
30	0xbd97a040	-0.07403612
31	0x3d08d680	0.03340769
32	0x3daa1dda	0.08306475
33	0xbdbeab60	-0.09310031
34	0xba9aa680	-0.0011798888
35	0x3dbcc76c	0.09217724
36	0xbd2d94d0	-0.042378247
37	0xbdce73da	-0.10080691
38	0xbde6e8f8	-0.11274904
39	0xbcd03190	-0.025414258
40	0x3d1f3e64	0.03887786
41	0xbdb7a45c	-0.08966896
42	0xbdbb64f4	-0.09150115
43	0x3d5cd728	0.053916126
44	0x3daeda00	0.08537674
45	0xbd85e51a	-0.06537838
46	0x3d0436e8	0.032278925
47	0x3d864fd6	0.06558196
48	0xbda36f9c	-0.07980272
49	0xbda40fd4	-0.080108315
50	0x3de2c662	0.11072995
51	0xbd7fc468	-0.062443167
52	0x3da5f640	0.08103609
53	0xbd7eabb8	-0.062175483
54	0x3dd07c8c	0.101800054
55	0xbd26085c	-0.040535316
56	0x3d462484	0.048374668
57	0xbda89308	-0.08231169
58	0x3dfa8ed6	0.12234275
59	0xbd83a42e	-0.06427799
60	0xbcedf990	-0.029049665
61	0x3dcc63f2	0.099800006
62	0x3cb3c9d0	0.021946818
63	0x3ce27728	0.027644709
64	0x3d19d9f8	0.037561387
65	0x3adeaf00	0.001698941
66	0x3cd3e158	0.025864288
67	0x3cbb2388	0.022844091
68	0xbdf42ba0	-0.11922383
69	0x3cf758c0	0.030193686
70	0xbd92a4b4	-0.07160321
71	0xbda1f9ac	-0.07908949
72	0xbc0d2d80	-0.008616805
73	0xbbdcb8e0	-0.006735906
74	0xba98a280	-0.0011645108
75	0xbcc76328	-0.024339274
76	0x3d905b60	0.070486784
77	0x3d7188b0	0.058968246
78	0x3dcfe2e6	0.10150699
79	0x3d8ebc2a	0.06969483
80	0x3cccc2a0	0.024995148
81	0xbcd89de8	-0.026442483
82	0x3d4ef490	0.0505262
83	0x3dcfce36	0.101467535
84	0xbcfd4e20	-0.030921042
85	0x3c852120	0.016251147
86	0x3dc0b786	0.09410004
87	0x3dc7d9aa	0.09758313
88	0x3b42a700	0.002970159
89	0xbd69a3ec	-0.057041094
90	0x3cbbb680	0.022914171
91	0x3dc45040	0.09585619
92	0xbd57e890	-0.052712023
93	0xbd10dbe8	-0.03536597
94	0xbdaf8bb2	-0.08571567
95	0x3ba97fa0	0.005172685
96	0xbdbf9a1a	-0.093555644
97	0xbd22d848	-0.039757043
98	0x3d83e8ec	0.06440911
99	0xbc893910	-0.016750842
100	0xbc81c130	-0.01583919
101	0xbdc1a92e	-0.094560966
102	0xbdf47312	-0.119360104
103	0x3db0ccae	0.086327896
104	0x3d972dae	0.073817596
105	0xbd72a284	-0.05923702
106	0xbd4535b8	-0.048146933
107	0x3d347538	0.0440571
108	0x3caf5950	0.021404892
109	0x3d9beda6	0.07613687
110	0x3df5481c	0.119766444
111	0xbd6e8f7c	-0.058242306
112	0xbd3ef74c	-0.04662256
113	0x3c23fd00	0.01000905
114	0xbd3493e0	-0.044086337
115	0x3d9e427e	0.07727526
116	0xbdcca38c	-0.099921316
117	0x3d561b0c	0.052271888
118	0xbdd584d6	-0.10425727
119	0x3b790e40	0.0038002878
120	0xbdab6f88	-0.08370882
121	0xbd684300	-0.05670452
122	0xbbaccaa0	-0.005273178
123	0xbd9958f8	-0.074876726
124	0xbdc371d0	-0.095431924
125	0x3cc99350	0.024606377
126	0x3d9fa212	0.07794584
127	0x3dbca156	0.0921046
128	0xbd66cf7c	-0.056350216
129	0xbdfd4356	-0.12366359
130	0xbdeff2a4	-0.11716202
131	0x3db99072	0.09060754
132	0x3df2276c	0.118239254
133	0xbd9b4718	-0.075819194
134	0x3d9a8582	0.07544996
135	0x3d116ea8	0.03550592
136	0xbda026e4	-0.07819918
137	0xbd5b11f0	-0.053483903
138	0x3b812e40	0.003942281
139	0x3db29d9e	0.08721469
140	0xbdfcf372	-0.12351121
141	0x3d4d6c74	0.050152257
142	0xbd84803c	-0.06469771
143	0x38e5f800	0.000109657645
144	0x3d497274	0.049181417
145	0xbd624c24	-0.055248395
146	0xbdb28e06	-0.08718495
147	0xbd8e9bae	-0.06963287
148	0xbc500fc0	-0.012699068
149	0xbdeff7bc	-0.117171735
150	0x3ccfd840	0.02537167
151	0x3d71c858	0.059028953
152	0x3def414e	0.11682378
153	0x3ded8a08	0.11598593
154	0xbdd2893c	-0.10280082
155	0xbceb7f58	-0.028747246
156	0xbdda4bc6	-0.10658984
157	0x3ce06df8	0.027396187
158	0xbdb1fc1e	-0.08690666
159	0x3d9b1a36	0.07573359
160	0x3de3377e	0.11094569
161	0xbcc7d140	-0.02439177
162	0xbda9e886	-0.082963035
163	0x3dbe1f1e	0.09283279
164	0xbdaa3126	-0.083101556
165	0x3df49080	0.11941624
166	0xbdd55f78	-0.104186
167	0xbd4aa538	-0.04947397
168	0xbbdccc20	-0.006738201
169	0x3da59470	0.08084953
170	0x3d97039c	0.07373735
171	0x3d84fdc2	0.06493713
172	0x3c0a8d90	0.008456603
173	0xbda23714	-0.079206616
174	0x3d056ce0	0.032574534
175	0xbd502144	-0.050812975
176	0x3cfe75d8	0.031062052
177	0x3d5d6214	0.054048613
178	0x3d131a50	0.035913765
179	0x3d0a8d98	0.03382644
180	0xbcdff1b8	-0.02733694
181	0x3dc122d4	0.09430471
182	0xbd0c5874	-0.034264043
183	0xb8739000	-5.8069825e-05
184	0x3b7f9000	0.0038995743
185	0xbd9fbfb2	-0.07800235
186	0xbd989b8c	-0.07451543
187	0x3ce7ca20	0.028294623
188	0x3df4deac	0.11956534
189	0xbdac49c4	-0.08412507
190	0xbd982cc4	-0.07430413
191	0x3d22a368	0.039706618
192	0x3bc416a0	0.0059841424
193	0xbdb4e7bc	-0.08833262
194	0xbdc4f000	-0.09616089
195	0x3c7f4310	0.015579954
196	0xbdd705e8	-0.104991734
197	0x3c671970	0.014105186
198	0xbd8e542e	-0.0694965
199	0x3d361948	0.044457704
200	0xbdb81b18	-0.08989543
201	0x3cccb760	0.024989784
202	0x3d0dcbe0	0.03461826
203	0xbda9573e	-0.08268593
204	0xbdeaa89e	-0.114579424
205	0x3d9d305a	0.07675238
206	0x3d94e928	0.072710335
207	0xbdb15380	-0.086585045
208	0xbd8072c4	-0.0627189
209	0xbd90fbfa	-0.07079311
210	0xbd3043bc	-0.043033347
211	0x3ce7a528	0.028276995
212	0xbd467ad4	-0.04845698
213	0xbd7f5ac8	-0.062342435
214	0xbdb51efa	-0.08843799
215	0xbd4cf100	-0.050034523
216	0xbd30f1c4	-0.043199316
217	0xbda72d18	-0.08162898
218	0x3d74d7e4	0.0597762
219	0xbd50eab0	-0.051005065
220	0x3d873168	0.0660122
221	0xbd3baf40	-0.04582143
222	0xbd977a48	-0.0739637
223	0x3d4d2ae8	0.050089747
224	0x3d9ba6fe	0.076002106
225	0xbd642b64	-0.055705443
226	0xbdc7fb22	-0.09764697
227	0xbd375df0	-0.04476732
228	0x3dd80194	0.10547176
229	0x3d986804	0.074417144
230	0xbd64387c	-0.05571793
231	0xbd641e90	-0.05569321
232	0xbd847c54	-0.06469026
233	0xbd5d3ffc	-0.0540161
234	0xbd328420	-0.043583035
235	0x3dfeafe8	0.12435895
236	0xbdc19e90	-0.094540715
237	0x3dda469e	0.106580004
238	0x3d925d30	0.0714668
239	0xbdf7d784	-0.12101653
240	0xbdfdac46	-0.12386374
241	0x3c3a52e0	0.011372298
242	0xbde2cb5e	-0.110739455
243	0x3c3a08d0	0.01135464
244	0x3ac60300	0.0015107095
245	0xbde206e8	-0.110364735
246	0xbdf4772c	-0.11936793
247	0x3dedd256	0.11612384
248	0x3d92d0de	0.071687445
249	0x3d8f787a	0.07005401
250	0x3c86af78	0.016441092
251	0x3dbac4a0	0.091195345
252	0x3de73f34	0.11291352
253	0xbcc01c08	-0.023450866
254	0x3cbb8e00	0.02289486
255	0x3aa26b00	0.0012391508

fc2.bias f4 [32]
0	0x3c850b18	0.016240641
1	0xbdf3de30	-0.11907613
2	0x3dd1ec64	0.10250166
3	0x3d170e58	0.036878914
4	0x3cdd3260	0.02700156
5	0xbd6384d0	-0.05554658
6	0xbd7c11c0	-0.061540365
7	0xbda9f2fe	-0.082983
8	0xbd6f8854	-0.058479622
9	0xbc856c28	-0.016286924
10	0x3d9e4ee2	0.077298895
11	0x3d86456c	0.0655621
12	0x3da0ca0a	0.07851036
13	0x3d4a3af8	0.049372643
14	0x3cbbb040	0.022911191
15	0x3cd9df98	0.026595876
16	0xbd26e3e8	-0.040744692
17	0xbd9b2f5c	-0.075773925
18	0x3d5f1910	0.05446726
19	0x3dcd13de	0.10013555
20	0xbda6dec0	-0.08147955
21	0xbda0186e	-0.078171596
22	0x3c9e2990	0.019306928
23	0x3bc7f5a0	0.006102279
24	0xbda1cbd6	-0.07900207
25	0x3b0f9080	0.0021906197
26	0x3cc27498	0.023737237
27	0x3ded9fea	0.11602767
28	0x3db05b0e	0.08611117
29	0x3d0a566c	0.033773825
30	0x3dc5a07c	0.096497506
31	0xbdb79bb6	-0.089652464

fc3.weight f4 [7, 32]
0	0x3dff4046	0.12463431
1	0x3e0b47ef	0.13601659
2	0xbc2c7050	-0.010524824
3	0xbc788ee0	-0.015170783
4	0xbd0f9550	-0.035054505
5	0x3aad3b80	0.0013216585
6	0xbcc3d2f0	-0.023904294
7	0xbd9a58d1	-0.07536472
8	0x3e281043	0.16412453
9	0x3d02e7e4	0.03195943
10	0xbcbd2198	-0.023087308
11	0xbdf8ab98	-0.12142104
12	0xbddf488b	-0.10902508
13	0xbe19a413	-0.15003996
14	0xbe2b9c95	-0.1675895
15	0xbe14c6b0	-0.14528918
16	0x3d5c3c80	0.053768635
17	0x3e2c4d79	0.16826428
18	0x3d98a51e	0.074533686
19	0xbc988190	-0.018616468
20	0xbe07cf80	-0.13262749
21	0xbdf31294	-0.11868778
22	0xbe31b659	-0.17354716
23	0x3b51de40	0.003202334
24	0x3d508658	0.05090937
25	0xbd9e45af	-0.07728135
26	0xbdef0fba	-0.116729215
27	0x3dd3789e	0.1032574
28	0xbd1ec770	-0.038764417
29	0x3de0ec76	0.10982601
30	0xbc96d208	-0.018410698
31	0x3dd323b6	0.10309546
32	0xbe1a2b59	-0.15055598
33	0x3de89346	0.11356215
34	0x3da9c9ee	0.08290468
35	0x3d916d98	0.071009815
36	0xbe1baf14	-0.15203506
37	0xbbcc1d40	-0.006229073
38	0xbd913615	-0.070903935
39	0xbdae428c	-0.085087866
40	0xbe12716e	-0.14301082
41	0x3dd28546	0.10279326
42	0x3d1da14c	0.038483903
43	0xbd838f5d	-0.06423829
44	0xbdeec0da	-0.11657877
45	0x3dcfdcca	0.10149534
46	0xbe008346	-0.12550077
47	0xbe2a63e4	-0.16639668
48	0xbdb48162	-0.0881374
49	0xbd9382e5	-0.072027005
50	0x3ade2480	0.0016948134
51	0x3bd20de0	0.0064103454
52	0x3e2423d1	0.16029288
53	0x3de122c6	0.10992961
54	0x3d34af10	0.044112265
55	0x3d74cffc	0.05976866
56	0x3cbd7578	0.023127303
57	0xbc321490	-0.01086916
58	0x3cea9308	0.028634563
59	0x3e2bc7d9	0.16775455
60	0xbdf4b340	-0.11948252
61	0x3abef800	0.0014569759
62	0xbe0ab018	-0.13543737
63	0xbd1825a8	-0.037145287
64	0x3e171f1f	0.14757966
65	0x3e0bc589	0.13649572
66	0xbc107ad0	-0.008818343
67	0x3d24acc8	0.04020384
68	0x3e2a0119	0.16601981
69	0xbe01918d	-0.1265318
70	0x3c2c68e0	0.010523051
71	0xbe218839	-0.15774621
72	0xbdef9c02	-0.11699678
73	0xbc97b4f8	-0.01851891
74	0xbe0bb79e	-0.13644263
75	0xbd30028c	-0.04297118
76	0xbe28f962	-0.16501382
77	0x3e200809	0.15628065
78	0x3d1029e4	0.0351962
79	0xbc760670	-0.015016183
80	0x3c88de90	0.016707689
81	0xbdedc306	-0.116094634
82	0xbb83dc40	-0.0040240586
83	0x3d9e51ea	0.077304676
84	0xbdc40079	-0.09570403
85	0xbdc35426	-0.095375344
86	0x3c71ca30	0.014757678
87	0x3de5f7d2	0.112289086
88	0xbdd58b74	-0.10426989
89	0x3e084b25	0.13309915
90	0x3e31421b	0.17310373
91	0x3d5ddca8	0.054165512
92	0xbe0a78fc	-0.13522714
93	0xbca45e80	-0.020064592
94	0xbd927396	-0.071509525
95	0xbdbd61a3	-0.09247138
96	0x3cd7f658	0.026362583
97	0xbe046876	-0.12930474
98	0x3d064244	0.03277804
99	0x3c85c0b0	0.016327232
100	0x3d2d5094	0.042313173
101	0x3d048500	0.0323534
102	0xbe1ca268	-0.15296328
103	0xbc05d780	-0.008169055
104	0xbdddd79f	-0.10832142
105	0xbcebf578	-0.028803572
106	0x3e2a6a07	0.16642009
107	0xbdb574fe	-0.08860205
108	0x3d460268	0.04834214
109	0x3e00d055	0.12579472
110	0xbd20a110	-0.0392161
111	0x3da471e6	0.08029537
112	0x3e116545	0.14198788
113	0x3e081915	0.13290818
114	0x3c87acf0	0.016561955
115	0xbd02ace8	-0.031903177
116	0xbdc02d92	-0.09383692
117	0x3e1d5ec7	0.15368186
118	0x3e02acf5	0.1276129
119	0xbd91ec92	-0.071252
120	0xbd119860	-0.035545707
121	0x3e2fdba5	0.17173631
122	0x3d35de04	0.044401184
123	0x3e074edf	0.1321368
124	0xbda7d202	-0.08194353
125	0x3e17586d	0.14779826
126	0xbd4283e4	-0.047489062
127	0xbc1a0cb0	-0.009402439
128	0xbe05c30e	-0.13062689
129	0xbda1f0eb	-0.079072796
130	0xba978200	-0.0011559129
131	0xbd872d08	-0.06600386
132	0xbdf4fab6	-0.11961882
133	0x3c9d15e8	0.019175485
134	0xbd55b556	-0.05217489
135	0xbe2bedf6	-0.16789994
136	0x3d386eb8	0.045027465
137	0xbd407e38	-0.04699537
138	0xbb81efc0	-0.003965348
139	0x3e0e7d0f	0.13914894
140	0xbde9c54c	-0.114145845
141	0xbdc58562	-0.096445814
142	0x3df96bc2	0.12178756
143	0x3cd16b68	0.02556391
144	0xbdf522dd	-0.1196954
145	0x3de0985e	0.10966562
146	0xbd89a8ff	-0.067216866
147	0x3df19dc2	0.11797668
148	0x3cf443c0	0.029817462
149	0x3d4584f8	0.048222512
150	0xbe2f2f95	-0.17107995
151	0xbda3a4f9	-0.079904504
152	0xbdd4a714	-0.1038343
153	0xbc812c58	-0.015768215
154	0xbcab90e0	-0.020943105
155	0x3d164110	0.036683142
156	0xbd8846b4	-0.066541106
157	0x3dc94a8e	0.09828673
158	0xbd85ec81	-0.0653925
159	0xbe07c040	-0.13256931
160	0xbe1cec4c	-0.15324515
161	0xbdd82567	-0.10554009
162	0x3deda0aa	0.1160291
163	0x3a52f900	0.0008047968
164	0x3ca1a118	0.019730136
165	0xbdbe126a	-0.09280856
166	0x3cd270b0	0.0256885
167	0x3e2e2e91	0.17009951
168	0x3cb91530	0.02259311
169	0x3e33c8b1	0.17557026
170	0xbb16ca00	-0.0023008585
171	0x3c8a4040	0.01687634
172	0x3e3482a9	0.17627968
173	0xbda64051	-0.08117736
174	0xbe2435bc	-0.16036123
175	0x3d2dcdf8	0.042432755
176	0xbe05a8e3	-0.13052706
177	0x3e002381	0.12513544
178	0x3de020ca	0.10943754
179	0x3dab6f6a	0.0837086
180	0xbbe5d1e0	-0.0070135444
181	0xbe07c43c	-0.13258451
182	0x3d0fe148	0.035126954
183	0xbdd44571	-0.103648074
184	0xbe1f6e29	-0.15569367
185	0xbe0e6e7f	-0.13909338
186	0xba72d200	-0.000926286
187	0xbdc37058	-0.09542912
188	0x3d4ad3e8	0.049518496
189	0xbe30772a	-0.17232957
190	0x3dfaf606	0.122539565
191	0x3cc3d280	0.023904085
192	0xbcd1d870	-0.0256159
193	0xbe0e0e83	-0.13872723
194	0x3e0de1e3	0.138557
195	0xbd847f34	-0.064695746
196	0xbe064d10	-0.13115335
197	0xbdecffaa	-0.115722016
198	0xbe2b1f8a	-0.1671125
199	0xbe0b496c	-0.13602227
200	0x3d4854dc	0.048909053
201	0xbdfbaa6c	-0.12288365
202	0x3e1372df	0.14399289
203	0xbe0b62b4	-0.13611871
204	0x3defb442	0.11704303
205	0x3cbcd810	0.023052245
206	0xbe00b504	-0.12569052
207	0x3e0b9623	0.13631491
208	0xbdaffe8c	-0.08593473
209	0x3db447d2	0.08802761
210	0xbc8cd6a0	-0.017192185
211	0x3e164659	0.14675273
212	0x3d0e5748	0.034751207
213	0x3d2ea554	0.042638138
214	0x3c12ef40	0.008968174
215	0xbda83d55	-0.08214823
216	0x3db7d6f2	0.089765444
217	0xbc0dae30	-0.008647487
218	0x3dbea6d6	0.09309165
219	0x3dea6fea	0.11447127
220	0xbe0624e2	-0.13100007
221	0xbdb365e1	-0.08759666
222	0xbd57de5c	-0.052702293
223	0xbceed458	-0.029153988

fc3.bias f4 [7]
0	0x3d725330	0.059161365
1	0x3dff2622	0.12458445
2	0xbcad4268	-0.021149829
3	0x3d9e0f42	0.07717754
4	0x3e345fc7	0.17614661
5	0x3d71c300	0.059023857
6	0x3d591658	0.052999824
