saves/final_ai_memory_npc_3_decision.pth (torch, 27433 bytes, 6 tensors)

fc1.weight f4 [64, 20]
-0.08782491 -0.14559281 0.1430304 -0.007938877 0.015572041 -0.052355275 0.1658062 -0.2060065
-0.08932175 -0.09267387 -0.18449688 0.08128476 0.014483988 -0.056500524 0.008098096 -0.046590894
0.20377141 -0.19450027 0.16399217 0.03631875 -0.025561243 -0.07422291 -0.16046306 0.12087324
0.049645066 -0.14430624 0.017613009 -0.089779675 0.20839256 0.06273633 -0.1476321 0.07830101
-0.064503625 0.146725 -0.057685867 0.016952023 -0.18142638 0.063477755 0.12604225 -0.001210764
-0.12542064 0.18131003 0.13608205 0.14132863 0.08796692 0.19245413 0.07704058 0.18838534
0.17069104 0.04472992 -0.16946694 -0.028693303 -0.089521825 0.16654524 -0.10235795 -0.08431584
0.1478172 -0.043442234 -0.20065616 0.1944643 0.21254307 0.14748034 -0.077406645 0.18437377
0.05077094 -0.19992016 0.11195439 -0.03981757 0.078045964 -0.18521556 -0.058145493 -0.049537465
0.18053684 -0.09278391 0.12330377 -0.049526036 0.052682698 -0.11617397 -0.1999942 -0.22123854
-0.097439975 -0.12767279 -0.066776305 0.16517738 -0.06966372 0.0851163 -0.067096666 -0.08417609
-0.083118334 0.055235356 -0.16018456 -0.009077221 -0.19850886 -0.011100575 -0.021462485 0.07846543
-0.1936638 0.060293972 0.08204305 -0.005951464 0.095220596 -0.06580289 0.21441129 -0.1866126
0.051989943 0.17171967 -0.105189346 0.22227046 -0.14030339 0.090112 -0.06893848 0.05476138
-0.17473403 0.08136934 -0.10224135 -0.040314913 0.08798206 -0.06247866 -0.22331734 0.06995407
-0.13631175 0.20901495 0.07801187 -0.0499942 0.014186963 -0.052097455 0.10459179 0.08184403
0.1869098 0.15185103 0.123615086 -0.04165095 -0.11142499 -0.08057535 0.07234138 0.21458322
0.0062134564 -0.1559373 0.17105973 -0.014669761 0.17682642 0.07810089 0.026260644 -0.12126154
-0.20726226 -0.16249262 0.041918218 0.037357002 0.11523023 -0.20835057 0.16488057 -0.06460057
0.12498397 -0.07082379 0.016139686 0.028244048 -0.2050564 -0.16121157 0.0010763407 -0.13139154
-0.1899977 0.106536806 0.03648466 0.1924808 0.15147501 -0.038038597 -0.04263565 -0.10110549
-0.004588172 -0.03250204 -0.11417482 -0.16679215 0.010182962 0.074741066 -0.20488423 0.17799452
0.08756286 0.05321783 -0.10599649 -0.04030876 0.031303465 0.055731833 -0.18845813 0.19223583
0.22235346 -0.106276274 -0.007912248 0.015155405 -0.120364614 0.06780738 0.19379905 0.006550774
0.10415524 0.11393401 0.16408369 -0.028760076 0.030187905 0.028128564 -0.083792925 0.0024213195
0.21761039 -0.14643455 -0.19068551 0.15726009 -0.032202676 0.15704748 0.2010943 -0.12707663
-0.18578842 -0.08422688 0.18327785 -0.20755583 0.1284033 -0.0924509 -0.14460103 -0.013544396
-0.031114355 -0.10480092 -0.053718165 0.04312554 -0.10173385 -0.18006434 0.18372402 0.13704437
0.12749797 0.10392594 0.13205367 -0.051872134 -0.0012426525 -0.22208418 -0.20069134 0.030535161
-0.07916859 -0.035991848 -0.020847186 -0.057037055 -0.035068214 -0.050745234 0.056724966 -0.09064767
0.027375638 0.19853136 -0.097910285 -0.06136471 -0.09164527 -0.10666902 0.17426676 0.14238489
-0.07664722 -0.15752135 -0.06320579 0.08315754 -0.18385197 0.19741249 -0.047033563 0.18295816
00000000: 8cdd b3bd 4816 15be 9076 123e 1012 02bc
00000010: e021 7f3c 7c72 56bd 1ac9 293e 5ef3 52be
00000020: 52ee b6bd cccb bdbd c0ec 3cbe a078 a63d
00000030: 404e 6d3c 186d 67bd e0ad 043c 18d6 3ebd
00000040: 74a9 503e 142b 47be 90ed 273e f8c2 143d
00000050: d065 d1bc 2e02 98bd 6e50 24be 648c f73d
00000060: a058 4b3d 04c5 13be 2849 903c 68de b7bd
00000070: dc64 553e e87b 803d df2c 17be 485c a03d
00000080: 7a1a 84bd 143f 163e 0448 6cbd f8de 8a3c
00000090: d6c7 39be a000 823d 3811 013e 80b2 9eba
000000a0: 456e 00be 56a9 393e 1859 0b3e 74b8 103e
000000b0: 0028 b43d b212 453e 74c7 9d3d 16e8 403e
000000c0: a2c9 2e3e b836 373d be88 2dbe 380e ebbc
000000d0: 3857 b7bd d68a 2a3e 0ba1 d1bd c8ad acbd
000000e0: 645d 173e 7cf0 31bd cf78 4dbe a621 473e
000000f0: e4a4 593e 1605 173e 6087 9ebd 7acc 3c3e
00000100: 30f5 4f3d dfb7 4cbe 5848 e53d c017 23bd
00000110: 90d6 9f3d 26a9 3dbe f829 6ebd cce7 4abd
00000120: a6de 383e 7e05 bebd b086 fc3d d0db 4abd
00000130: d0c9 573d 9eec edbd 48cb 4cbe 5b8c 62be
00000140: 9c8e c7bd a8bc 02be 04c2 88bd 4224 293e
00000150: daab 8ebd 7451 ae3d fa69 89bd 8464 acbd
00000160: f239 aabd 783e 623d 6c07 24be a0b8 14bc
00000170: e845 4bbe 30df 35bc 18d2 afbc 7cb2 a03d
00000180: ce4f 46be d0f6 763d 3006 a83d 8004 c3bb
00000190: 0403 c33d aac3 86bd a28e 5b3e 6017 3fbe
000001a0: 68f3 543d 48d7 2f3e 836d d7bd de9a 633e
000001b0: b1ab 0fbe a48c b83d 9e2f 8dbd 784d 603d
000001c0: 7aed 32be f8a4 a63d ea63 d1bd 4021 25bd
000001d0: f02f b43d a0e9 7fbd 4dad 64be 1444 8f3d
000001e0: 4f95 0bbe 0408 563e b0c4 9f3d b8c6 4cbd
000001f0: 7070 683c 2464 55bd 3834 d63d d89d a73d
00000200: 4865 3f3e d67e 1b3e e829 fd3d 309a 2abd
00000210: c932 e4bd b004 a5bd b827 943d b4bb 5b3e
00000220: 409a cb3b 07ae 1fbe 482a 2f3e 7059 70bc
00000230: fc11 353e 5cf3 9f3d 9020 d73c f857 f8bd
00000240: 8f3c 54be 7764 26be 70b2 2b3d a803 193d
00000250: d4fd eb3d da59 55be 74d6 283e 4e4d 84bd
00000260: 98f7 ff3d 100c 91bd 6037 843c 1060 e73c
00000270: 4efa 51be a514 25be 0014 8d3a 818b 06be
00000280: c28e 42be f82f da3d f070 153d b019 453e
00000290: 441c 1b3e 5cce 1bbd b8a2 2ebd 6510 cfbd
000002a0: 6058 96bb dc20 05bd 7dd4 e9bd 90cb 2abe
000002b0: 70d6 263c d811 993d 2ccd 51be 3244 363e
000002c0: 2854 b33d f0fa 593d b014 d9bd cc1a 25bd
000002d0: 1038 003d 1047 643d 2bfb 40be 78d9 443e
000002e0: a0b0 633e 60a7 d9bd 60a2 01bc 604e 783c
000002f0: b981 f6bd 98de 8a3d 4273 463e e0a7 d63b
00000300: 584f d53d 3c56 e93d 8e05 283e 409a ebbc
00000310: a04c f73c e06d e63c a09b abbd 00af 1e3b
00000320: 42d5 5e3e f0f2 15be 1043 43be ca08 213e
00000330: f4e6 03bd 0ed1 203e aaeb 4d3e 6020 02be
00000340: 523f 3ebe 247f acbd 30ad 3b3e 8489 54be
00000350: 287c 033e e656 bdbd 4b12 14be 50e9 5dbc
00000360: 88e3 febc dda1 d6bd 9407 5cbd 68a4 303d
00000370: d659 d0bd c962 38be 2622 3c3e 5c55 0c3e
00000380: d48e 023e 20d7 d43d 1439 073e e077 54bd
00000390: 80e0 a2ba 096a 63be 0882 4dbe e024 fa3c
000003a0: 2423 a2bd 306c 13bd b8c7 aabc b09f 69bd
000003b0: b0a3 0fbd 3cda 4fbd 7058 683d 7ca5 b9bd
000003c0: e042 e03c ce4b 4b3e 3085 c8bd 9059 7bbd
000003d0: 84b0 bbbd 4a75 dabd fc72 323e 58cd 113e
000003e0: 38f9 9cbd 474d 21be 0a72 81bd 804e aa3d
000003f0: b143 3cbe 8026 4a3e 44a6 40bd 6259 3b3e

fc1.bias f4 [64]
0.14899758 0.116263926 -0.10466524 0.09270769 -0.092142835 -0.079776734 0.051846296 -0.18805736
0.18902224 0.06384316 -0.048599288 0.012391478 -0.08646028 0.19490296 0.015296474 -0.044614375
0.041679382 0.21845615 0.046723247 -0.08206089 -0.15398496 0.08692083 -0.09540555 -0.12825754
0.04344091 0.028366685 0.16917795 0.10700855 0.08394581 -0.20671256 -0.052987605 -0.08864647
0.092616856 0.058764398 -0.03366542 -0.106090724 0.021885544 0.05829838 -0.13107294 0.1803084
0.14523727 -0.100185536 0.023283362 -0.05732988 -0.19452389 -0.066916704 -0.07771914 0.11975381
0.03238666 0.17768374 0.14658165 -0.07782088 -0.21097206 -0.18116164 0.15102625 -0.18225363
-0.08850527 -0.19539784 0.16862872 0.14997649 0.2192992 -0.083891064 0.051645547 0.10864174
00000000: d292 183e c81b ee3d bb5a d6bd 88dd bd3d
00000010: 62b5 bcbd fc61 a3bd c85c 543d 1c92 40be
00000020: 0c8f 413e 34c0 823d 0c10 47bd a005 4b3c
00000030: 1612 b1bd a494 473e 109e 7a3c 90bd 36bd
00000040: 00b8 2a3d f8b2 5f3e e060 3f3d 8a0f a8bd
00000050: 3cae 1dbe 8c03 b23d fc63 c3bd f255 03be
00000060: 18ef 313d 4061 e83c fc3c 2d3e 4c27 db3d
00000070: c8eb ab3d 75ac 53be 8809 59bd 488c b5bd
00000080: e8ad bd3d f0b2 703d c0e4 09bd 1846 d9bd
00000090: 5049 b33c 48ca 6e3d fc37 06be c4a2 383e
000000a0: 14b9 143e 132e cdbd c0bc be3c bcd2 6abd
000000b0: 4531 47be a00b 89bd 362b 9fbd 7c41 f53d
000000c0: e0a7 043d baf2 353e 8019 163e 8e60 9fbd
000000d0: 0f09 58be 7082 39be a0a6 1a3e b2a0 3abe
000000e0: 4042 b5bd 5f16 48be 02ad 2c3e 7093 193e
000000f0: f88f 603e 14cf abbd 488a 533d 907f de3d

fc2.weight f4 [64, 64]
-0.113160685 -0.07957986 0.060879707 -0.017474234 -0.006839916 -0.036398694 0.06585407 -0.08346096
0.022388384 0.022599846 0.0032687187 -0.008846968 0.07038878 0.007675901 0.11503424 0.015626922
0.002889201 0.041683808 0.03733702 0.11080219 -0.094395235 -0.04466681 -0.102375895 0.07554014
-0.055744693 0.030231342 -0.073393136 -0.013052985 0.054628357 -0.040076107 0.05207245 0.0724175
0.044587836 0.06552364 0.041965663 0.106184855 0.011937708 0.09773284 0.10284065 -0.045213267
-0.08149831 0.0024378598 0.06652708 0.043130085 0.0004401207 0.057274 0.09644018 0.02267
-0.07413021 -0.06057994 -0.023083627 0.07481128 -0.10515393 0.10459109 0.016616404 0.105397314
0.09214166 -0.010749131 0.031664625 -0.089875266 0.0563671 -0.07325752 0.035464436 0.05398409
-0.10911517 0.03527999 -9.761751e-05 -0.016613647 0.050922364 0.08605674 -0.113379434 0.02815248
0.051892787 -0.08588186 0.004108727 0.10564016 -0.0032172352 0.05888082 0.0056857616 -0.007947251
0.1029713 0.1208567 0.028341249 -0.08607918 0.056058303 -0.11924255 -0.063833 -0.021682665
0.013327032 -0.049623728 0.11346421 0.12205489 0.08567327 0.1220296 0.11781038 -0.044339046
-0.12346245 0.0048122406 0.10479677 0.03205332 -0.082515374 0.03462358 -0.046319634 -0.059612602
0.035074815 -0.029902503 0.0035648346 0.11505702 -0.08164129 0.020159855 -0.045691803 0.11037244
0.0687632 -0.07291819 -0.073070034 -0.113422915 -0.11815995 -0.0346414 -0.06466055 0.0601867
-0.113520935 0.020034537 0.06602624 0.007340282 -0.011412039 0.084324956 0.0019413531 0.10771428
-0.07360308 -0.06915644 0.10201438 0.09474538 0.026782006 -0.09943262 0.020027667 0.012613937
0.120411366 -0.040715143 0.1242356 0.041351736 0.119434714 0.00037023425 0.11889985 -0.013539746
0.060246795 -0.003337279 -0.08473334 -0.07404813 -0.11350131 -0.041503996 0.10240881 0.006480098
0.019135818 0.07636078 -0.1158741 -0.07491015 0.108171985 -0.08631116 0.083006516 -0.12317954
-0.069642395 0.0712526 0.0051806867 0.09241904 0.05296144 -0.118931204 0.014922246 -0.10289343
-0.10360685 0.034097314 0.07825789 -0.115392655 0.053424537 0.03393893 -0.035446316 -0.039637625
-0.07564965 -0.050339237 0.05868773 -0.08650988 0.074424654 -0.09418835 0.08355436 0.011111081
0.004171744 -0.052091047 -0.044806078 0.103295535 0.0021101981 0.019759193 -0.035749644 -0.05739197
0.06836125 -0.066721514 0.12234016 0.08003008 -0.11129986 -0.006149456 0.01372011 0.0070676208
0.06921098 -0.10068226 0.0052041262 -0.104803875 0.11608985 0.10639703 0.044929713 -0.08701946
-0.0036192238 -0.011719644 0.0058116764 -0.06837736 -0.044263363 0.08737114 -0.058452383 -0.019375727
0.0020321459 0.121995896 0.04453382 0.020579323 0.047848463 -0.012236342 0.09710537 0.064539954
-0.10217841 -0.095050156 -0.044889048 -0.098431006 -0.046029076 -0.11095522 -0.04458128 0.10141978
0.059044123 -0.0036501288 -0.10467628 -0.046694472 0.10565446 0.12128651 0.096308336 0.08263892
0.07542889 0.014110982 0.009400353 0.07235086 0.07839261 -0.028175324 -0.05272025 0.06734066
0.04523383 0.115705684 -0.022520483 -0.10592075 0.12440619 0.09287846 -0.056605443 -0.07711105
00000000: cac0 e7bd c4fa a2bd 005d 793d 2026 8fbc
00000010: 6021 e0bb cc16 15bd 80de 863d 94ed aabd
00000020: d867 b73c 5023 b93c 0038 563b e0f2 10bc
00000030: fe27 903d 2086 fb3b 1297 eb3d 0804 803c
00000040: c058 3d3b a4bc 2a3d b4ee 183d 42ec e23d
00000050: 4a52 c1bd 8cf4 36bd 74aa d1bd cab4 9a3d
00000060: 8c54 64bd b8a7 f73c 244f 96bd 30dc 55bc
00000070: fcc1 5f3d d826 24bd ec49 553d a04f 943d
00000080: bca1 363d 4231 863d 30e4 2b3d 7277 d93d
00000090: 6096 433c 2828 c83d 1e9e d23d 8c31 39bd
000000a0: 96e8 a6bd 80c4 1f3b 5a3f 883d 2ca9 303d
000000b0: 00c0 e639 2498 6a3d 6e82 c53d 70b6 b93c
000000c0: 94d1 97bd ac22 78bd e019 bdbc a836 993d
000000d0: f25a d7bd da33 d63d 201f 883c 8cda d73d
000000e0: c4b4 bc3d 201d 30bc c4b2 013d 8610 b8bd
000000f0: 30e1 663d 0a08 96bd 2843 113d 6c1e 5d3d
00000100: c677 dfbd c081 103d 00b8 ccb8 5819 88bc
00000110: f893 503d 843e b03d 7a33 e8bd 08a0 e63c
00000120: 888d 543d d4e2 afbd 80a2 863b de59 d83d
00000130: 40d8 52bb 042d 713d a04f ba3b 3035 02bc
00000140: 9ee2 d23d b883 f73d e82b e83c 484a b0bd
00000150: 649d 653d 7035 f4bd e0ba 82bd d89f b1bc
00000160: a059 5a3c 4042 4bbd ec5f e83d eaf7 f93d
00000170: 7875 af3d a8ea f93d 9246 f13d dc9c 35bd
00000180: e2d9 fcbd 00b0 9d3b b09f d63d 584a 033d
00000190: d2fd a8bd 74d1 0d3d a8b9 3dbd 582c 74bd
000001a0: 9caa 0f3d 18f6 f4bc 00a0 693b 04a3 eb3d
000001b0: 8c33 a7bd 4826 a53c 5427 3bbd f20a e23d
000001c0: b8d3 8c3d 2256 95bd bea5 95bd 464a e8bd
000001d0: d8fd f1bd 24e4 0dbd c06c 84bd 5486 763d
000001e0: aa7d e8bd 781f a43c c438 873d c086 f03b
000001f0: 90f9 3abc 90b2 ac3d 0075 fe3a 4e99 dc3d
00000200: 36bd 96bd e4a1 8dbd eaec d03d de09 c23d
00000210: f065 db3c 54a3 cbbd 1011 a43c b0aa 4e3c
00000220: 3c9a f63d ecc4 26bd 3c6f fe3d 7060 293d
00000230: 309a f43d 001c c239 c481 f33d d0d5 5dbc
00000240: 58c5 763d 40b6 5abb ac88 adbd 8ca6 97bd
00000250: 6073 e8bd 1800 2abd b6bb d13d 0057 d43b
00000260: b8c2 9c3c 0a63 9c3d 664f edbd 7e6a 99bd
00000270: 4689 dd3d e8c3 b0bd 52ff a93d 8e45 fcbd
00000280: aca0 8ebd e2ec 913d c0c2 a93b 3246 bd3d
00000290: 18ee 583d 3492 f3bd 707c 743c cab9 d2bd
000002a0: d42f d4bd a0a9 0b3d ac45 a03d fc52 ecbd
000002b0: b0d3 5a3d 8c03 0b3d 2830 11bd 105b 22bd
000002c0: 34ee 9abd 8430 4ebd 8c62 703d 182c b1bd
000002d0: f46b 983d d2e5 c0bd 8c1e ab3d 400b 363c
000002e0: 20b3 883b 6c5d 55bd 9486 37bd 9c8c d33d
000002f0: 404b 0a3b 08de a13c 386e 12bd d813 6bbd
00000300: fc00 8c3d 4aa5 88bd 7a8d fa3d d0e6 a33d
00000310: 2ef1 e3bd 6081 c9bb 50ca 603c 8097 e73b
00000320: 7cbe 8d3d 8032 cebd 6087 aa3b 6aa3 d6bd
00000330: 84c0 ed3d b0e6 d93d 3808 383d 4237 b2bd
00000340: 8030 6dbb c003 40bc e06f be3b 6e09 8cbd
00000350: 804d 35bd a4ef b23d c46b 6fbd d8b9 9ebc
00000360: c02d 053b fcd8 f93d 1869 363d f895 a83c
00000370: c0fc 433d f07a 48bc 2edf c63d 862d 843d
00000380: ea42 d1bd a8a9 c2bd 94dd 37bd 3296 c9bd
00000390: fc88 3cbd 7e3c e3bd dc9a 36bd 2cb5 cf3d
000003a0: 40d8 713d 0037 6fbb 8460 d6bd b442 3fbd
000003b0: 5e61 d83d 1065 f83d 4e3d c53d 983e a93d
000003c0: 767a 9a3d c031 673c f003 1a3c b02c 943d
000003d0: 4e8c a03d f0cf e6bc 30f1 57bd e6e9 893d
000003e0: 1c47 393d 1af7 ec3d e07c b8bc faec d8bd
000003f0: acc8 fe3d 1037 be3d 1cdb 67bd 66ec 9dbd

fc2.bias f4 [64]
0.08077876 -0.060704574 0.10442275 0.014778584 0.030477256 0.029193804 -0.02304694 0.019267201
-0.10337719 0.09705725 -0.105397046 0.022207111 0.11982688 -0.09643042 -0.009720892 -0.007619545
-0.069683775 -0.114381686 -0.01000762 -0.008359402 0.091385916 -0.007652089 -0.008569449 0.06851746
0.092719495 0.037640393 0.06862222 0.09977843 0.049314365 -0.1097597 0.08165185 -0.0349281
0.06432155 0.073746786 -0.014975756 0.02264385 -0.09099619 -0.123562396 -0.0051452518 0.06985338
-0.035562247 -0.08199516 0.028099865 0.11671591 -0.094606966 -0.10240698 -0.09841716 -0.034210518
0.037873477 -0.049528435 0.054496065 -0.07908261 -0.06877607 0.041312873 0.06525618 0.046801105
0.09439732 -0.081585035 0.0052503645 -0.11086327 -0.07998432 -0.109796956 -0.06504944 0.016281307
00000000: 566f a53d 5ca5 78bd 98db d53d e021 723c
00000010: 70ab f93c d827 ef3c f0cc bcbc 40d6 9d3c
00000020: 6cb7 d3bd f4c5 c63d 68da d7bd b0eb b53c
00000030: cc67 f53d 507d c5bd 6044 1fbc 60ad f9bb
00000040: 5eb6 8ebd f240 eabd 00f7 23bc e0f5 08bc
00000050: 8a28 bb3d 60be fabb e066 0cbc e252 8c3d
00000060: b8e3 bd3d d02c 1a3d ce89 8c3d a258 cc3d
00000070: dcfd 493d b2c9 e0bd 1639 a73d c410 0fbd
00000080: 04bb 833d 8e08 973d e05c 75bc 987f b93c
00000090: 365c babd 480e fdbd 8099 a8bb 4a0f 8f3d
000000a0: b8a9 11bd 14ed a7bd b031 e63c c008 ef3d
000000b0: 4cc1 c1bd c0ba d1bd f08e c9bd 5420 0cbd
000000c0: 3821 1b3d 54de 4abd 4437 5f3d 10f6 a1bd
000000d0: 78da 8cbd b037 293d 08a5 853d 84b2 3f3d
000000e0: 6253 c13d 0e16 a7bd 400b ac3b 480c e3bd
000000f0: d2ce a3bd 3add e0bd a438 85bd 6060 853c

fc3.weight f4 [8, 64]
-0.076357394 0.018802896 -0.018991068 -0.02630125 0.042073563 -0.0825848 0.10654089 0.014733672
-0.085945085 0.015905142 -0.06465304 -0.037030727 -0.007969886 0.031982034 -0.039864644 -0.062327966
-0.06748533 -0.02286975 -0.060679674 0.00699465 0.062928736 -0.031055853 0.005397707 -0.028536066
-0.11782831 -0.05311218 -0.12329601 -0.0070211887 0.117813095 0.10399449 0.07356967 -0.11734788
-0.055191204 -0.03904739 -0.08976784 0.015780076 0.06257191 0.06658356 0.0382483 0.04402332
-0.09724054 0.032120436 -0.02625525 0.0027751774 0.11086716 -0.12152316 0.03721574 -0.031443045
0.09403029 0.022295028 -0.025120318 -0.013866216 0.12232368 -0.06879045 -0.011204079 -0.084742084
-0.052736282 0.065681845 0.013642862 -0.054044217 0.020247683 -0.0733459 -0.080174685 -0.015700474
-0.07583322 -0.073327154 -0.009176731 0.07077178 -0.0624018 -0.10818203 -0.0025648475 -0.06274177
0.03903283 0.1139414 0.11741984 0.09467527 -0.07119547 0.065973565 0.05265802 -0.016254961
-0.10138504 0.030390099 -0.07899569 0.08195661 0.017144814 -0.0061094314 0.09240693 -0.058618665
0.06089881 0.00385423 0.044991434 0.04187697 0.060650513 0.090340555 0.109626085 0.10627051
-0.061751023 -0.060370058 0.08042486 -0.094724834 0.015067145 0.03636475 -0.10876168 0.08892086
-0.03826432 0.10544646 -0.05199316 0.00078241527 -0.055612653 0.046116263 0.012139708 0.08861305
-0.02365832 0.044569194 0.06909667 -0.03417252 -0.10171963 -0.10313916 0.083718196 0.050783545
-0.062504545 -0.035228595 0.09035745 -0.082434595 0.07446413 0.072194695 0.03867401 -0.11966704
-0.07580724 0.057315126 0.033982635 0.030916288 0.020332977 -0.044827953 0.07698803 -0.11376393
-0.0035666227 0.092532694 0.0323226 0.09754744 -0.10870032 -0.021981597 -0.090343565 -0.073334575
0.023918092 -0.08025712 0.05940309 -0.051942945 0.008498982 -0.07590094 0.008105025 0.009648934
0.068269804 0.00063970685 0.0992506 -0.09462327 0.10343626 -0.054119006 -0.08935343 0.10699822
0.10681361 0.03610605 -0.089782596 -0.036072195 0.008361101 -0.06084107 0.0034152567 0.017557487
0.055754095 -0.0599754 -0.05470243 0.009947643 -0.05355443 -0.08745736 0.12162256 0.014508083
-0.05274327 0.07162917 0.1209178 0.08356826 -0.09236908 0.0033867955 0.09277098 0.036976144
-0.10940197 -0.053492352 -0.06787108 -0.067799926 0.05555001 -0.027936384 -0.039188668 -0.10981397
0.06896086 -0.033192158 0.066867694 -0.0033653677 -0.0449339 0.036277056 0.053421497 -0.11162515
0.09659369 0.02953805 0.00634408 -0.0663373 0.04518199 0.046991274 -0.05394353 0.11546768
0.040001586 -0.10779916 -0.09457582 0.0019828975 0.03767109 -0.01412946 0.0920029 -0.11414236
0.010855764 -0.019699588 0.06500606 -0.11728649 0.010854274 0.09947553 -0.032434553 0.1091419
0.04060033 -0.06315978 -0.11506799 0.044073403 -0.033607513 0.089921474 -0.11938673 0.12214449
0.052003145 -0.032393754 0.04441215 0.106649876 -0.11162542 0.11215837 -0.05156526 0.065542474
0.022919878 -0.10073614 0.027627572 -0.12407906 0.09463894 -0.05483377 -0.08019668 0.019826502
-0.007454172 0.016703114 0.10862352 -0.10242352 -0.069158584 -0.058196396 -0.014421895 -0.019597352
00000000: 4461 9cbd 8808 9a3c 2893 9bbc b875 d7bc
00000010: 5455 2c3d 3822 a9bd 1c32 da3d 8065 713c
00000020: fa03 b0bd 804b 823c d068 84bd 88ad 17bd
00000030: 2094 02bc 98ff 023d 1c49 23bd 9c4b 7fbd
00000040: c035 8abd 5859 bbbc 408b 78bd 6033 e53b
00000050: c8e0 803d d868 febc 40df b03b 78c4 e9bc
00000060: f84f f1bd 288c 59bd 9e82 fcbd 0012 e6bb
00000070: fe47 f13d 10fb d43d b2ab 963d 1654 f0bd
00000080: 2c10 62bd 28f0 1fbd 34d8 b7bd 3845 813c
00000090: b425 803d f65c 883d 40aa 1c3d cc51 343d
000000a0: 0c26 c7bd b890 033d 4015 d7bc c0df 353b
000000b0: 520e e33d 22e1 f8bd 886f 183d 6cca 00bd
000000c0: f492 c03d 10a4 b63c 20c9 cdbc 202f 63bc
000000d0: d684 fa3d 02e2 8cbd 5091 37bc 428d adbd
000000e0: 0002 58bd 3484 863d 5086 5f3c 785d 5dbd
000000f0: 78de a53c 6036 96bd a032 a4bd 489e 80bc
00000100: 724e 9bbd 8c2c 96bd 005a 16bc ccf0 903d
00000110: 0899 7fbd 8a8e ddbd 0017 28bb c27e 80bd
00000120: e4e0 1f3d 1c5a e93d d079 f03d 1ce5 c13d
00000130: eece 91bd 261d 873d f0af 573d 2029 85bc
00000140: f6a2 cfbd a8f4 f83c 7ec8 a1bd ded8 a73d
00000150: 4873 8c3c a031 c8bb d83f bd3d 201a 70bd
00000160: 0871 793d 4097 7c3b f048 383d 3087 2b3d
00000170: ac6c 783d 7804 b93d a483 e03d 5aa4 d93d
00000180: a4ee 7cbd 9846 77bd cab5 a43d 18ff c1bd
00000190: 30dc 763c 34f3 143d 72be debd 241c b63d
000001a0: 0cbb 1cbd 50f4 d73d c8f6 54bd 001b 4d3a
000001b0: 18ca 63bd 68e4 3c3d a0e5 463c c27a b53d
000001c0: 18cf c1bc 308e 363d 8e82 8d3d 7cf8 0bbd
000001d0: 6252 d0bd a03a d3bd 7274 ab3d 6802 503d
000001e0: 6202 80bd dc4b 10bd 540d b93d 78d3 a8bd
000001f0: a680 983d d0da 933d a468 1e3d fe13 f5bd
00000200: d440 9bbd 44c3 6a3d 6031 0b3d 2844 fd3c
00000210: 5891 a63c 849d 37bd e6ab 9d3d 10fd e8bd
00000220: 00be 69bb c881 bd3d b464 043d f4c6 c73d
00000230: 469e debd c012 b4bc 0c06 b9bd 7030 96bd
00000240: e0ef c33c d85d a4bd a850 733d 20c2 54bd
00000250: 503f 0b3c f471 9bbd f0ca 043c 9016 1e3c
00000260: 0ad1 8b3d 00b2 273a e643 cb3d d8c9 c1bd
00000270: 64d6 d33d e4ab 5dbd eefe b6bd e221 db3d
00000280: 18c1 da3d f0e3 133d f0df b7bd 70c0 13bd
00000290: 00fd 083c 7c34 79bd 80d2 5f3b b8d4 8f3c
000002a0: 685e 643d c4a8 75bd a80f 60bd 70fb 223c
000002b0: e45b 5bbd d81c b3bd 4015 f93d 50b3 6d3c
000002c0: 5409 58bd 50b2 923d c0a3 f73d d625 ab3d
000002d0: 002c bdbd 00f5 5d3b b6fe bd3d 4c74 173d
000002e0: 240e e0bd cc1a 5bbd feff 8abd b0da 8abd
000002f0: 6888 633d d8da e4bc 4c84 20bd 26e6 e0bd
00000300: 5a3b 8d3d 80f4 07bd eef1 883d 808d 5cbb
00000310: 9c0c 38bd 4097 143d 80d0 5a3d ba9b e4bd
00000320: ead2 c53d c8f9 f13c 00e2 cf3b dadb 87bd
00000330: c010 393d ec79 403d e4f3 5cbd 527a ec3d
00000340: b4d8 233d cec5 dcbd f8b0 c1bd 80f3 013b
00000350: 004d 1a3d 407f 67bc 046c bc3d 78c3 e9bd
00000360: 60dc 313c 0861 a1bc e621 853d e633 f0bd
00000370: 20d6 313c d4b9 cb3d 18da 04bd ca85 df3d
00000380: 884c 263d ea59 81bd c4a8 ebbd 5086 343d
00000390: 08a8 09bd c028 b83d 0881 f4bd e426 fa3d
000003a0: 4001 553d 50af 04bd 84e9 353d 406b da3d
000003b0: de9b e4bd 4ab3 e53d 1836 53bd 223b 863d
000003c0: 78c2 bb3c c04e cebd 3853 e23c 2a1d febd
000003d0: 10d2 c13d 6099 60bd 283e a4bd 306b a23c
000003e0: 2042 f4bb f8d4 883c 0276 de3d 6cc3 d1bd
000003f0: 04a3 8dbd 585f 6ebd d049 6cbc a08a a0bc

fc3.bias f4 [8]
0.032564417 -0.017678589 -0.036385104 -0.010305181 0.08996078 0.076495856 -0.08939403 0.004640579
00000000: 4462 053d b0d2 90bc 8c08 15bd 10d7 28bc
00000010: 5c3d b83d dca9 9c3d 3814 b7bd 0010 983b
