saves/final_ai_memory_player_1_emotion.pth (torch, 15425 bytes, 6 tensors)

fc1.weight f4 [64, 10]
0	0x3e62667a	0.22109404
1	0x3d90ce84	0.0707064
2	0xbd56c0c8	-0.052429944
3	0x3d6bc678	0.05756232
4	0xbe1d69e4	-0.15372425
5	0xbe17629f	-0.14783715
6	0x3e798742	0.24368003
7	0xbcc2c230	-0.023774236
8	0xbdb3265a	-0.08747549
9	0x3e9ed2ab	0.31020102
10	0x3c99c0e0	0.018768728
11	0x3e3d24ae	0.18471023
12	0xbe8600e6	-0.2617256
13	0x3ded5de8	0.11590177
14	0xbc898ee0	-0.01679176
15	0x3e31b6ae	0.17354843
16	0xbdca0eb4	-0.09866086
17	0xbdf7b91c	-0.12095854
18	0x3e01dc04	0.12681586
19	0xbc840ba0	-0.016118824
20	0x3e048656	0.1294187
21	0xbe8ffb64	-0.28121483
22	0xbe9fa1ae	-0.3117804
23	0xbe8b3768	-0.2719071
24	0x3d8edb50	0.06975424
25	0xbe846862	-0.25860888
26	0xbe09dadf	-0.13462399
27	0xbe9f54d2	-0.311194
28	0x3e522486	0.20521745
29	0x3e8f9519	0.2804344
30	0xbd5c7d90	-0.053830683
31	0xbd081578	-0.0332236
32	0x3e862837	0.26202556
33	0x3d989ac4	0.07451394
34	0x3d86888c	0.06569013
35	0x3e73aa02	0.23795322
36	0x3e15b504	0.14619833
37	0xbe928e8d	-0.28624383
38	0x3ccaae50	0.024741322
39	0xbe5a2494	-0.21303016
40	0x3e86a3ab	0.26296744
41	0x3e0136ac	0.12618512
42	0x3e34ab3c	0.17643446
43	0x3e7eca4a	0.24881855
44	0xbca67820	-0.020320952
45	0x3e39c402	0.18141177
46	0xbd864c94	-0.06557575
47	0xbe97986d	-0.2960848
48	0x3da99814	0.0828096
49	0x3b890cc0	0.004182428
50	0xbe345c19	-0.17613257
51	0xbd79c678	-0.06098029
52	0xbdf2a5c0	-0.118480206
53	0x3e864593	0.26224956
54	0x3e0815ec	0.13289613
55	0x3d8e55b4	0.0694994
56	0xbe5a21c3	-0.21301942
57	0x3e64cec6	0.22344503
58	0xbde8d1ae	-0.11368118
59	0xbe3767cf	-0.17910694
60	0x3e94a855	0.29034677
61	0x3e1725f0	0.14760566
62	0xbd83f528	-0.06443244
63	0xbdbeb760	-0.0931232
64	0xbcbce130	-0.023056597
65	0x3cb46350	0.022020012
66	0x3ba5f680	0.0050647855
67	0xbe788061	-0.24267723
68	0xbe430de3	-0.19048266
69	0x3c23e2a0	0.010002762
70	0xbce19a30	-0.027539343
71	0x3e45a61e	0.1930165
72	0xbd902382	-0.070380226
73	0xbe2f7ad5	-0.171367
74	0xbe24620d	-0.16053028
75	0xbe1daac7	-0.15397178
76	0x3e513c4a	0.20433155
77	0xbe51e91e	-0.20499083
78	0xbe282c1c	-0.16423076
79	0xbd06d7f8	-0.032920808
80	0xbdd1db4e	-0.10246907
81	0x3e793722	0.24337438
82	0x3e97ea81	0.296711
83	0xbe958e16	-0.29209965
84	0xbd8375f4	-0.06418982
85	0xbdcce676	-0.100048944
86	0x3d22cb60	0.039744735
87	0x3e9de70b	0.30840334
88	0xbcd4cf60	-0.02597779
89	0x3e7df2aa	0.247996
90	0xbe9c9c71	-0.30588105
91	0x3da89dfc	0.08233258
92	0xbe3cd3f8	-0.18440235
93	0x3e48a2a2	0.1959329
94	0xbe367df5	-0.17821486
95	0xbe88def2	-0.26732594
96	0xbc8bbc10	-0.017057449
97	0x3e276042	0.16345313
98	0x3e8f7385	0.28017822
99	0x3dffb574	0.12485781
100	0xbc184720	-0.009294301
101	0xbe05924d	-0.1304409
102	0x3da68cf0	0.081323504
103	0xbdee2a88	-0.11629206
104	0xbe5ae3f2	-0.21376017
105	0x3e68ad56	0.22722372
106	0xbe3dae28	-0.18523467
107	0x3e9f9e57	0.3117549
108	0xbe2b1be9	-0.16709866
109	0xbea12a4e	-0.31477588
110	0xbafe6f00	-0.0019411743
111	0xbd9a9b52	-0.07549156
112	0xbcbef500	-0.023310184
113	0xbe962766	-0.29326934
114	0x3e967a25	0.29390064
115	0xbe13d96b	-0.14438407
116	0xbe89755f	-0.2684736
117	0xbe5cb50a	-0.21553436
118	0xbdd76df6	-0.1051902
119	0xbe2eaaad	-0.17057295
120	0xbdca24c2	-0.09870292
121	0xbe822164	-0.254161
122	0xbe156fa5	-0.1459337
123	0x3e5a948e	0.21345732
124	0x3e529826	0.20565853
125	0x3e814ab3	0.25252303
126	0xbb14af00	-0.0022687316
127	0xbe77eb68	-0.24210894
128	0xbdfc6732	-0.123243704
129	0xbe09c123	-0.13452582
130	0xbe82233a	-0.254175
131	0x3d79c888	0.060982257
132	0xbe2ab14b	-0.16669194
133	0x3d934920	0.07191682
134	0x3e9016bf	0.28142354
135	0xbe0b0e11	-0.13579585
136	0xbdeb3276	-0.11484234
137	0x3e6b93d2	0.23005608
138	0x3e399cb6	0.18126187
139	0xbe176d07	-0.14787684
140	0x3dabbe60	0.083859205
141	0x3e3a647a	0.18202391
142	0xbd352a88	-0.044230014
143	0xbe7e167b	-0.24813263
144	0xbe169566	-0.14705428
145	0x3e3afda8	0.18260825
146	0x3ea00bf1	0.3125911
147	0xbe90acd0	-0.28256845
148	0x3e95988f	0.29217955
149	0x3bca3240	0.006170541
150	0xbe8858c8	-0.26630235
151	0x3e92a2c9	0.2863982
152	0x3e9ce153	0.3064066
153	0x3d22ab68	0.039714247
154	0xbe99ad07	-0.30014822
155	0xbdda1182	-0.106478706
156	0x3e2a613a	0.16638651
157	0xbe4af688	-0.19820607
158	0xbe3c5e41	-0.1839533
159	0x3d880f0c	0.06643495
160	0x3e36ef40	0.17864704
161	0xbc9415e0	-0.018076837
162	0x3e91fb91	0.28512242
163	0xbe9cfc56	-0.30661267
164	0xbe722b0a	-0.2364923
165	0xbcd18140	-0.025574327
166	0x3d1de758	0.038550705
167	0x3e7a3872	0.24435595
168	0xbe93bbce	-0.2885422
169	0x3d7e4538	0.06207773
170	0x3deed958	0.11662549
171	0x3e23e0a0	0.16003656
172	0xbdc70aa2	-0.09718825
173	0xbc1af3e0	-0.009457558
174	0xbd286e90	-0.041121066
175	0xbe76466e	-0.24050304
176	0x3da7aecc	0.08187637
177	0xbe503e68	-0.20336306
178	0xbe6f0316	-0.23341021
179	0xbdefa0e8	-0.11700612
180	0x3e3df28a	0.18549553
181	0xbd067df8	-0.032834977
182	0x3e33e9c0	0.17569637
183	0xbe4f171a	-0.20223656
184	0x3dfc26e8	0.12312108
185	0xbe94293a	-0.28937703
186	0xbd895088	-0.06704813
187	0xbe4e43ec	-0.20143098
188	0x3d520a40	0.051279306
189	0xbe89b609	-0.26896694
190	0x3d836350	0.06415427
191	0x3e514abe	0.20438668
192	0x3d5d62b0	0.054049194
193	0xbe232e7d	-0.15935703
194	0xbe75373c	-0.23946851
195	0x3df3e4b8	0.11908859
196	0xbca44340	-0.020051599
197	0x3e07b324	0.1325193
198	0xbe0dbd60	-0.13841772
199	0xbe846742	-0.2586003
200	0x3e30b6da	0.17257252
201	0xbe75762e	-0.23970863
202	0xbc62f660	-0.013852686
203	0xbdda712a	-0.106661156
204	0xbd852108	-0.06500441
205	0x3beb9580	0.0071894526
206	0x3ce4aa80	0.027913332
207	0xbd94dbb2	-0.07268466
208	0x3e3b1938	0.18271339
209	0x3e91bd5b	0.2846478
210	0x3e07208c	0.1319601
211	0x3e91cc1d	0.2847604
212	0xbe8126b2	-0.25224835
213	0xbe6e3b78	-0.23264873
214	0xbb76e300	-0.0037671924
215	0x3d13a5e0	0.036046863
216	0x3e9f69cb	0.311354
217	0xbb87c6c0	-0.004143566
218	0x3e8b79c5	0.2724134
219	0x3c863960	0.01638478
220	0xbdc71330	-0.097204566
221	0xbdba574c	-0.09098682
222	0x3e33f528	0.17573988
223	0xbd68f7c8	-0.056876928
224	0xbdbd3b08	-0.09239775
225	0x3e839ec1	0.25707057
226	0x3e5cd82a	0.21566835
227	0x3e709c4a	0.2349712
228	0x3e07440a	0.13209549
229	0x3e8d5f4d	0.2761177
230	0xbe266884	-0.16250807
231	0xbe93f68c	-0.28899038
232	0x3e61022a	0.21973482
233	0x3dede0b0	0.11615121
234	0x3e01464a	0.1262447
235	0xbe671b75	-0.22569068
236	0x3e0101cc	0.12598342
237	0xbdaa7560	-0.08323169
238	0xbe541d4a	-0.20714298
239	0x3e843acd	0.2582611
240	0x3e9c3911	0.30512288
241	0xbc4984a0	-0.012299687
242	0xbe58dcb0	-0.21177936
243	0xbdbb2c0e	-0.09139262
244	0x3d1fd388	0.03902009
245	0x3cec83d0	0.028871447
246	0x3e8c8ec3	0.2745267
247	0x3e9192f9	0.28432444
248	0xbd625cc0	-0.055264235
249	0x3e38e2f2	0.18055323
250	0xbe713714	-0.23556167
251	0xbe56b183	-0.20966153
252	0x3e54542e	0.20735237
253	0x3e0d0db2	0.13774756
254	0xbd0d91c8	-0.034562856
255	0x3e9f52f7	0.31117985

fc1.bias f4 [64]
0	0x3dc78744	0.09742597
1	0xbe420b0e	-0.1894953
2	0x3e557822	0.20846608
3	0x3e9ad4a1	0.30240348
4	0x3e896e37	0.268419
5	0x3e26ee36	0.16301808
6	0x3e6df74a	0.23238865
7	0x3cd7fed0	0.026366621
8	0x3df6c298	0.120488346
9	0x3e82a3e5	0.25515667
10	0xbe951b82	-0.2912255
11	0xbe1cab05	-0.15299614
12	0x3e5370e6	0.20648536
13	0xbe0213e4	-0.127029
14	0xbe94a94a	-0.29035407
15	0x3e54bcc2	0.2077513
16	0x3d94d184	0.072665244
17	0x3e0343d4	0.12818843
18	0xbe39a42e	-0.18129036
19	0xbdde02a6	-0.10840349
20	0xbda21d32	-0.07915725
21	0xbe5ce89c	-0.21573108
22	0xbe8cf75d	-0.27532473
23	0x3dfd9ba8	0.12383205
24	0x3e8d158f	0.2755551
25	0x3e608e66	0.2192932
26	0x3e9c2741	0.30498698
27	0xbce78430	-0.028261274
28	0xbe41a4d5	-0.18910535
29	0xbe752a5e	-0.23941943
30	0x3cf04af0	0.029332608
31	0x3e12cea0	0.14336634
32	0x3c86b9a0	0.016445935
33	0xbe60d222	-0.2195516
34	0x3b827cc0	0.0039821565
35	0x3e24b2c2	0.16083816
36	0xbdcea35e	-0.100897536
37	0x3dfb9c54	0.122856766
38	0x3db01764	0.085982114
39	0xbddaaaea	-0.106771305
40	0x3d5cb4b8	0.053883284
41	0x3d487680	0.048941135
42	0xbcfcebb0	-0.030874103
43	0xbe95b982	-0.29243094
44	0x3e262198	0.16223752
45	0x3e0be230	0.13660502
46	0x3e602272	0.2188814
47	0xbdbcf1f2	-0.09225835
48	0x3e4c06ee	0.19924518
49	0x3daa3674	0.08311167
50	0xbd279eb0	-0.04092282
51	0xbe48824f	-0.19580959
52	0x3dc774c0	0.09739065
53	0x3e7e5cae	0.24840042
54	0xbe972f84	-0.2952844
55	0xbdc44ee0	-0.09585357
56	0x3e91ea07	0.2849886
57	0x3e2328aa	0.15933481
58	0x3e5fa47a	0.21840087
59	0xbdaf229e	-0.085515246
60	0xbe3b3ada	-0.18284169
61	0xbe8707b8	-0.26373076
62	0xbda85914	-0.08220115
63	0x3e8f803f	0.28027532

fc2.weight f4 [32, 64]
0	0x3d940632	0.07227744
1	0x3da11876	0.07865994
2	0x3dcad15c	0.099032134
3	0x3cc75dc0	0.024336696
4	0xbd2118ec	-0.039330408
5	0xbd8e1af6	-0.06938736
6	0xbd8f9b6c	-0.07012066
7	0xbd94e618	-0.072704494
8	0x3cb6c720	0.022311747
9	0x3c24fcc0	0.010070026
10	0x3d0d4150	0.034486115
11	0xbd879ce0	-0.066217184
12	0xbd3a5d48	-0.045499116
13	0xbd132328	-0.0359222
14	0xbc3d2600	-0.011544704
15	0xbdbe52fe	-0.09293173
16	0x3daef0d8	0.08542031
17	0x3d3aa23c	0.045564875
18	0x3d8d56ae	0.069012985
19	0x3dadc4da	0.08484812
20	0x3d8fed62	0.07027699
21	0x3cc1de00	0.023665428
22	0xbb35fc00	-0.0027768612
23	0xbc873458	-0.016504452
24	0x3d844504	0.06458476
25	0xbd5abd34	-0.053403094
26	0xbd14afc8	-0.03630045
27	0xbdc8dd70	-0.09807861
28	0x3dab32e6	0.083593175
29	0xbd73a828	-0.05948654
30	0xbdc3c172	-0.09558381
31	0x3dda3c7e	0.10656069
32	0xbdcef6d0	-0.101056695
33	0x3de6664e	0.11249982
34	0xbc5f2c60	-0.01362142
35	0x3d4b0c64	0.049572363
36	0x3ddea09a	0.10870476
37	0x3a838500	0.0010034144
38	0x3dea6fcc	0.11447105
39	0xbcdeff50	-0.027221352
40	0x3cc70500	0.024294376
41	0xbdec5ae4	-0.115407735
42	0x3d424368	0.047427565
43	0x3c29e070	0.0103684515
44	0xbd423228	-0.047411114
45	0x3dd7ddf8	0.10540384
46	0x3d9abec8	0.0755592
47	0xbdfc56ae	-0.1232122
48	0xbdf02a28	-0.11726791
49	0xbd30959c	-0.04311143
50	0xbcbaa568	-0.02278395
51	0xbd2efdd8	-0.042722553
52	0xbdcfc14c	-0.1014429
53	0x3dae008c	0.08496198
54	0xbc9d1b18	-0.019177958
55	0xbcc681e0	-0.024231851
56	0xbce3aa80	-0.027791262
57	0xbcb9e358	-0.022691414
58	0x3a0fc700	0.00054846704
59	0x3cbf5940	0.023357987
60	0xbddc41c8	-0.10754734
61	0xbd7db5fc	-0.061941132
62	0x3d73d9ec	0.059534
63	0x3dd136aa	0.102155045
64	0xbd854df0	-0.06509006
65	0xbd334264	-0.043764487
66	0xbdca6d9c	-0.098841876
67	0xbd255d38	-0.040372103
68	0x3ca17c78	0.019712672
69	0xbdba6aa6	-0.09102373
70	0xbd6d8f8c	-0.057998225
71	0x3dc60832	0.09669532
72	0x3c7e1980	0.015509009
73	0x3d16c1f4	0.036806062
74	0xbd2def10	-0.042464316
75	0x3d67ee34	0.056623653
76	0xbd909142	-0.07058956
77	0xbda5c384	-0.08093932
78	0x3d7c06e4	0.06153001
79	0xbccf4d70	-0.02530548
80	0x3dbf4d18	0.09340876
81	0xbd8dfa46	-0.069325015
82	0xbd891a92	-0.06694521
83	0x3bbfc620	0.0058524758
84	0x3d736530	0.05942267
85	0xbd1ff36c	-0.039050505
86	0x3d843098	0.06454581
87	0xbd420aa8	-0.047373444
88	0xbd9861de	-0.07440542
89	0xbd80340c	-0.06259927
90	0x3de42a7e	0.11140917
91	0xbb369b40	-0.0027863532
92	0x3d9d1406	0.07669835
93	0xbd9dc7ec	-0.07704148
94	0x3c6c26c0	0.014413536
95	0xbd91784e	-0.071030244
96	0xbce30690	-0.02771309
97	0xbdd06f42	-0.10177471
98	0x3cc58670	0.024111956
99	0x3d75f75c	0.060050353
100	0x3dbd4cb4	0.092431456
101	0xbd5675e4	-0.052358523
102	0x3dc6dca6	0.09710054
103	0xbd5a78f8	-0.05333802
104	0x3da30f02	0.07961847
105	0xbdc4e612	-0.09614195
106	0x3dc5b9a8	0.09654552
107	0xbc985910	-0.018597156
108	0xbd41b920	-0.04729569
109	0xbd057a80	-0.03258753
110	0xbcf855e8	-0.0303144
111	0x3de73da6	0.112910554
112	0xbd99d8e2	-0.0751207
113	0x3d703af4	0.058649972
114	0xbd207458	-0.039173454
115	0x3dde2062	0.1084602
116	0x3dfc63c0	0.12323713
117	0x3dc1fd14	0.09472099
118	0xbd6ad388	-0.05733064
119	0x3da87502	0.082254425
120	0xbdd4720a	-0.10373314
121	0xbc7e9d30	-0.015540406
122	0xbd2bfd4c	-0.04198961
123	0xbca08bb0	-0.019597858
124	0x3d289968	0.041161925
125	0x3da11964	0.07866171
126	0xbd2f78ac	-0.04283969
127	0x3db98a72	0.090596095
128	0x3c0ec820	0.008714706
129	0x3d124f78	0.03572032
130	0xbb81d2a0	-0.003961876
131	0xbdb946be	-0.09046696
132	0xbd17f9d4	-0.03710349
133	0xbd9e9c16	-0.07744615
134	0xbcf1a9f8	-0.029499993
135	0xbdc7acd0	-0.09749758
136	0xbd8344ea	-0.06409629
137	0xbdf005b2	-0.11719836
138	0x3d307a5c	0.04308544
139	0x3d7bef44	0.06150748
140	0xbdd5baa6	-0.10435991
141	0x3cc77f78	0.024352774
142	0xbdb2d760	-0.08732486
143	0x3de675e0	0.112529516
144	0xbd78f1cc	-0.06077747
145	0x3dd28acc	0.1028038
146	0xbd854f74	-0.06509295
147	0x3d820818	0.063492
148	0xbcf976c8	-0.030452147
149	0xbd6f2a0c	-0.05838971
150	0x3d202f38	0.03910753
151	0x3c8bc158	0.017059967
152	0xbd0e3e1c	-0.0347272
153	0x3ccadab8	0.024762496
154	0x3d43a338	0.04776308
155	0x3dddd030	0.10830724
156	0x3d48686c	0.04892771
157	0xbd93f13e	-0.07223748
158	0xbda127fe	-0.07868956
159	0x3ded376e	0.11582838
160	0x3d80109a	0.062531665
161	0xbbee0f60	-0.0072650164
162	0x3d722684	0.059118763
163	0xbc3799f0	-0.011206135
164	0xbd877a92	-0.06615175
165	0xbdaeca42	-0.08534671
166	0x3cb4a1b8	0.02204977
167	0x3ced31d8	0.028954431
168	0xbddae1da	-0.10687609
169	0x3ccbdfe8	0.02488704
170	0xbdc3a07e	-0.09552096
171	0xbdb304f6	-0.087411806
172	0x3d54ebf0	0.05198282
173	0x3d83522c	0.064121574
174	0x3d7c0f44	0.061537996
175	0x3ce87b18	0.028379008
176	0xbddd0a4e	-0.10792981
177	0xbbe063c0	-0.0068478286
178	0xbd2a4498	-0.041569322
179	0xbd031c64	-0.032009497
180	0x3d2b5924	0.041833058
181	0xbd020a18	-0.031747907
182	0xbcec8ca8	-0.028875664
183	0xbcac4928	-0.021030977
184	0xbdee063c	-0.11622283
185	0x3dc9bd00	0.09850502
186	0xbdd7b088	-0.105317175
187	0x3d29cad8	0.041453212
188	0xbd2c3188	-0.042039424
189	0x3da5f918	0.081041515
190	0x3d0c8618	0.03430757
191	0x3df41fbc	0.11920115
192	0xbd2e387c	-0.042534336
193	0x3d9c4556	0.07630412
194	0xbdc1580e	-0.09440623
195	0xbd1044f0	-0.035221994
196	0x3dc5df1a	0.09661694
197	0xba259d00	-0.00063176453
198	0xbcb41450	-0.021982342
199	0xbdf2f840	-0.11863756
200	0xbdb4d8c6	-0.08830409
201	0xbdd7bb8e	-0.1053382
202	0x3d87df1c	0.066343516
203	0xbd81acaa	-0.06331761
204	0x3d52103c	0.051285014
205	0x3d69b84c	0.057060525
206	0x3db4bbe4	0.088249
207	0xbdfaf198	-0.122531116
208	0xbba9ce00	-0.005182028
209	0xbdf3a904	-0.118974715
210	0x3d93fee8	0.07226354
211	0x39728c00	0.00023131073
212	0xbd4e4ba8	-0.05036512
213	0xbd8f6858	-0.07002324
214	0xbdee5128	-0.11636573
215	0xbdc94384	-0.09827331
216	0x3d9f7164	0.077852994
217	0xbc5045a0	-0.012711912
218	0xbd1f94f8	-0.038960427
219	0x3d7c0790	0.06153065
220	0x3dbc77bc	0.09202525
221	0xbd9eb7e6	-0.077499196
222	0xbdd7d6ee	-0.105390415
223	0xbc96dbf8	-0.018415436
224	0x3d1d6868	0.038429648
225	0x3dffb22c	0.124851555
226	0x3db717aa	0.089400604
227	0xbcd39f98	-0.025832936
228	0xbdc78288	-0.09741694
229	0x3d64a810	0.05582434
230	0x3be71ee0	0.007053241
231	0x3c4867a0	0.012231737
232	0xbd879cd0	-0.066217065
233	0x3d6f7904	0.05846502
234	0x3d54e594	0.051976755
235	0xbd7d53d4	-0.061847523
236	0xbd5b16cc	-0.053488538
237	0xbd035374	-0.03206201
238	0x3de56176	0.1120023
239	0x3d19489c	0.03742276
240	0xbd980ca6	-0.074242875
241	0xbd033310	-0.03203112
242	0x3dde618c	0.10858449
243	0xbd8be2c0	-0.068303585
244	0xbcc91748	-0.024547234
245	0x3c91d168	0.017800048
246	0xbdf8689c	-0.12129328
247	0xbdff73d0	-0.12473261
248	0x3d8aae4a	0.06771524
249	0x3d6af8c8	0.057366163
250	0xbd96fe20	-0.07372689
251	0x3dd7a416	0.10529344
252	0x3dad6a28	0.08467513
253	0x3dbfddc6	0.09368472
254	0x3dad271c	0.08454725
255	0xbd9ca7ea	-0.076492146

fc2.bias f4 [32]
0	0xbdcef3e2	-0.10105111
1	0x3c89d7a0	0.01682645
2	0xbdfca678	-0.12336439
3	0x3db455dc	0.08805439
4	0xbd479b08	-0.048731834
5	0xbd78962c	-0.06069009
6	0xbdd046de	-0.10169767
7	0x3d944500	0.07239723
8	0x3d3688b4	0.044563964
9	0x3d030640	0.031988382
10	0xbd6fd20c	-0.058549926
11	0x3ccc5e90	0.024947435
12	0xbdd32f1a	-0.10311718
13	0x3db43986	0.08800034
14	0xbc7e0bc0	-0.015505731
15	0x3d730378	0.05932948
16	0x3deac0b0	0.114625335
17	0xbcde1780	-0.027110815
18	0xbc8b8a68	-0.01703377
19	0xbdc3ea18	-0.09566134
20	0x3dc75b4a	0.09734209
21	0xbd7664fc	-0.0601549
22	0xbdc5a782	-0.0965109
23	0x3da504d2	0.0805756
24	0xbc5af640	-0.013364375
25	0x3ddad390	0.106848836
26	0x3cdc1818	0.026866958
27	0xbce40050	-0.02783218
28	0x3d790b30	0.060801685
29	0x3d68d514	0.056843832
30	0xbd72e5c0	-0.059301138
31	0x3d9dd05a	0.077057555

fc3.weight f4 [7, 32]
0	0x3e127b3b	0.14304821
1	0xbd0ac230	-0.033876598
2	0xbe24495e	-0.16043612
3	0x3d6e6b40	0.05820775
4	0xbdefb070	-0.11703575
5	0x3e017835	0.12643512
6	0xbe2426c4	-0.16030413
7	0x3ded145e	0.1157615
8	0xbe326bd9	-0.17423953
9	0x3d98453e	0.07435082
10	0x3e0ba1bb	0.13635914
11	0xbdedb66d	-0.116070606
12	0x3d6ac8c8	0.057320386
13	0x3d42e84c	0.047584817
14	0x3cce6828	0.02519615
15	0xbe2560e3	-0.1615024
16	0xbdab2859	-0.08357305
17	0x3d82984c	0.063767046
18	0xbdce87e9	-0.100845166
19	0x3df65032	0.12027015
20	0x3dfa1dca	0.12212713
21	0x3c079bc0	0.00827688
22	0x3e03a589	0.12856115
23	0x3d8971b0	0.06711137
24	0x3d68c2f4	0.056826547
25	0x3e0107bf	0.12600611
26	0xbd98dc37	-0.07463878
27	0x3c577840	0.013151228
28	0x3dff357e	0.12461375
29	0x3dfe6446	0.124214694
30	0x3dab67ce	0.083694085
31	0x3e1174e3	0.14204745
32	0x3c793310	0.015209928
33	0xbe22ec21	-0.15910389
34	0x3d9f954a	0.077921465
35	0x3e136505	0.14394005
36	0xbe053016	-0.13006625
37	0xbe2f66d8	-0.17129076
38	0xbddd99e5	-0.10820369
39	0x3ba8ae80	0.005147755
40	0xbdc6a12a	-0.09698708
41	0x3e1b95af	0.15193819
42	0xbd02fdc8	-0.031980306
43	0xbe2d08dc	-0.16897911
44	0x3da517da	0.0806119
45	0xbe262bc9	-0.1622764
46	0xbdbb8e1c	-0.091579646
47	0x3dfecd4e	0.124415025
48	0xbe139b48	-0.14414704
49	0xbd1150e4	-0.035477534
50	0xbdf332e8	-0.11874944
51	0x3c66a820	0.01407817
52	0x3e21babd	0.15793891
53	0x3e0ac423	0.13551383
54	0x3e2409df	0.1601939
55	0xbdadc613	-0.08485045
56	0xbe04d18a	-0.12970558
57	0x3d905e0a	0.070491865
58	0x3e143399	0.14472808
59	0x3e26b7af	0.16281007
60	0x3d1a6be8	0.037700564
61	0xbe244eee	-0.16045734
62	0xbc4b41e0	-0.012405843
63	0xbe14b735	-0.14523013
64	0x3e1898dd	0.14902063
65	0xbcd11580	-0.025522947
66	0x3d1d501c	0.038406476
67	0x3e2436b9	0.160365
68	0xbd5dea3e	-0.05417847
69	0xbd43c1e0	-0.047792315
70	0xbd94b904	-0.072618514
71	0x3c488740	0.012239277
72	0xbde68c67	-0.11257248
73	0xbe2d67c1	-0.1693411
74	0xbdb9a8c7	-0.09065395
75	0xbdab51a5	-0.08365182
76	0x3dd4d6ae	0.103925094
77	0xbd7dde4c	-0.061979577
78	0x3d5c4ee8	0.05378619
79	0x3dc2f61a	0.095195964
80	0xbd95828a	-0.07300289
81	0x3ddcca66	0.10780792
82	0xbe2d2563	-0.16908793
83	0xbe21c368	-0.15797198
84	0xbe1e6544	-0.15468317
85	0x3cb05d88	0.021528974
86	0xbdcd186c	-0.10014424
87	0xbddda100	-0.10821724
88	0xbddb93e2	-0.10721566
89	0x3d98bf56	0.074583694
90	0x3d6e8ba0	0.058238626
91	0xbddc18dd	-0.1074693
92	0x3e25ea1d	0.16202588
93	0xba6c6200	-0.00090172887
94	0x3d229134	0.039689258
95	0x3bdcf0a0	0.006742552
96	0xbe1d613d	-0.15369125
97	0xbdd76f14	-0.10519233
98	0x3d2e9110	0.04261881
99	0x3e33807f	0.17529486
100	0xbdffd77d	-0.12492273
101	0xbd1a31c4	-0.037645116
102	0x3b79c2c0	0.0038110465
103	0xbdc1e277	-0.09467023
104	0xbe0d15e7	-0.13777886
105	0xbd7d5440	-0.061847925
106	0x3d5f2ed4	0.05448802
107	0x3e06d811	0.1316836
108	0x3e215f37	0.15758978
109	0xbdda8548	-0.10669953
110	0xbe0ef636	-0.1396111
111	0xbd88aaa0	-0.06673169
112	0xbd300e54	-0.042982414
113	0x3de43492	0.111428395
114	0x3d4119b4	0.047143653
115	0xbd0fb17c	-0.03508137
116	0xbd640442	-0.055668123
117	0x3d8eb61e	0.0696833
118	0xbc3ffab0	-0.011717483
119	0xbd3ed044	-0.046585336
120	0xbd8c88be	-0.06862019
121	0x3dc5cb86	0.0965796
122	0x3d8a9614	0.067669064
123	0xbde43877	-0.11143582
124	0xbd2c35c8	-0.042043477
125	0xbd86140e	-0.06546794
126	0xbe1237da	-0.14279118
127	0x3db3b9f6	0.087757036
128	0x3e24416b	0.1604058
129	0xbdcba76a	-0.09944041
130	0x3d883392	0.06650461
131	0x3daa66c2	0.08320381
132	0x3d41971c	0.04726325
133	0x3dc4536e	0.095862255
134	0xbd1aa184	-0.03775169
135	0x3cc46390	0.023973256
136	0xbce898f0	-0.028393239
137	0xbdfc0ab6	-0.123067304
138	0x3d4c7fa4	0.049926415
139	0xbdb5d79a	-0.08879013
140	0xbe29cb86	-0.16581544
141	0xbdc4b73a	-0.0960526
142	0xbda51fcb	-0.08062705
143	0xbd78e0b4	-0.06076117
144	0x3e28a4e7	0.16469155
145	0xbdaa1252	-0.083042756
146	0xbdad3072	-0.08456506
147	0x3e174d59	0.147756
148	0x3d1d2a2c	0.038370296
149	0x3e07ba2b	0.13254611
150	0x3c1d11a0	0.009586722
151	0x3d6771b8	0.056504935
152	0x3dc55baa	0.09636624
153	0xbd413f48	-0.04717949
154	0x3d7b3b74	0.061335996
155	0x3aa8ac00	0.0012868643
156	0xbd0b4334	-0.033999637
157	0x3e1f130b	0.15534608
158	0xbc4b59a0	-0.012411505
159	0xbda73305	-0.08164028
160	0x3c594680	0.013261437
161	0xbd4f0910	-0.050545752
162	0xbd8452d5	-0.064611115
163	0x3e3439d7	0.17600189
164	0x3c485740	0.012227833
165	0xbe1e7bc6	-0.15476903
166	0x3e23829d	0.15967794
167	0xbb06db80	-0.002057761
168	0xbd3a62c0	-0.04550433
169	0x3de3fb12	0.11131872
170	0xbd5bc236	-0.05365201
171	0x3e28ec7b	0.1649646
172	0x3df4bc9e	0.119500384
173	0x3d926f7c	0.0715017
174	0x3db28402	0.08716585
175	0xbdbbd6b2	-0.09171809
176	0x3c355110	0.01106669
177	0x3df46306	0.1193295
178	0x3df1770a	0.11790283
179	0xbdce145a	-0.100624755
180	0xbd50b52c	-0.05095403
181	0x3e0bbdc1	0.13646604
182	0x3dd26f76	0.10275166
183	0x3e31c11b	0.1735882
184	0xbc7de190	-0.015495673
185	0xbe0d0e5c	-0.13775009
186	0x3e2649f1	0.16239144
187	0xbca5ae20	-0.02022463
188	0xbe1c19a4	-0.15244156
189	0x3e2abd5b	0.16673796
190	0xbdaf3c1d	-0.085563876
191	0xbbcf1420	-0.0063195378
192	0xbdd6c272	-0.10486306
193	0xbdb2746c	-0.08713612
194	0xbdbd4319	-0.092413135
195	0xbe08f0ee	-0.13373157
196	0x3d701470	0.05861324
197	0x3e1d9a43	0.15390877
198	0xbd343d80	-0.044003963
199	0x3d14b7a4	0.036307946
200	0x3e23ad33	0.15984039
201	0xbbd10de0	-0.006379828
202	0xbdde44fe	-0.10853003
203	0xbd9db582	-0.077006355
204	0xbdd18c3f	-0.10231828
205	0xbd16d1f4	-0.03682132
206	0x3e209103	0.15680318
207	0x3d94bc2a	0.07262452
208	0x3cc486f8	0.02399014
209	0x3dd98fe6	0.106231496
210	0xbdf5e962	-0.12007405
211	0x3e2a5fab	0.16638057
212	0x3e22838b	0.15870492
213	0xbd080bd0	-0.03321439
214	0xbe025596	-0.12727961
215	0x3dfeee76	0.124478266
216	0xbc88e910	-0.016712695
217	0x3e223965	0.15842207
218	0xbe0211a1	-0.12702037
219	0x3c6fae80	0.014629006
220	0xbba546a0	-0.0050438195
221	0xbde03a93	-0.10948672
222	0xbe1c7fef	-0.15283178
223	0xbe0f5e0a	-0.14000717

fc3.bias f4 [7]
0	0x3c47b410	0.012188926
1	0x3e202911	0.15640666
2	0x3c929f58	0.017898247
3	0x3e04dd97	0.12975155
4	0x3d7c6dc4	0.06162812
5	0xbdf772ca	-0.12082441
6	0x3c629440	0.013829291
