saves/final_ai_memory_npc_3_decision.pth (torch, 27433 bytes, 6 tensors)

fc1.weight f4 [64, 20]
00000000: d068 533d b723 21be f8b9 c93d a4f8 023e
00000010: 10d2 dc3c 6ce5 cb3d daba 323e 1405 86bd
00000020: 1c5f 353e 28bc e23d abf9 2ebe b816 613d
00000030: e3a1 1abe 9a1e 003e e064 52bd 5be2 41be
00000040: d00b 2b3c 6a8c 83bd d475 043e b942 f0bd
00000050: ecfd e6bd aa8c 103e 8095 993c 42e3 323e
00000060: 00b6 9839 0798 1abe dac9 253e f2fc 5f3e
00000070: 3618 e0bd 98e6 3d3d f8b3 1b3d e457 313e
00000080: 3ec5 0cbe 2237 27be 8e10 3cbe e986 52be
00000090: a663 ffbd 4048 4abb 657a 2abe 66b3 2a3e
000000a0: 00ca 9c39 3c5d 603e 5848 f8bd a762 0dbe
000000b0: 745d 4abe 7e57 533e d8cf 4c3e 965c 5c3e
000000c0: 40fd bcbc 20a2 5a3d 294c 53be bcd5 253e
000000d0: e0b6 5dbe 7ced 0a3e 7c5e 2ebd 9a04 3d3e
000000e0: 40f6 b53b 384a 033d 38f7 133e e584 58be
000000f0: d090 97bd 420a 44be 2c19 3b3e f061 2b3d
00000100: 26af 38be e078 38be 6ffb 31be 5e72 153e
00000110: eacb 1fbe 0cc7 933d b202 5b3e 444b b83d
00000120: 5499 35bd 5884 233d e828 f13d e4aa 023e
00000130: 807e 1cbc c845 cc3d c0b1 78bc 68c0 253d
00000140: fa9c 283e e09e 853b 70f8 583d 4478 41bd
00000150: 981e 763d 1436 0dbe f8ef a73c c08c 1e3d
00000160: f63a 153e 20c9 f43c d4c7 b3bd 098c e5bd
00000170: 64d9 ab3d 2cc7 473e ec48 a43d 7271 2bbe
00000180: c879 3a3e b479 343e c6c2 d5bd 1868 4c3e
00000190: 948a d03d 7034 e33d 4837 9e3c 5c40 1ebd
000001a0: 8000 e63d b093 9fbc 4049 0d3d 195b 60be
000001b0: a4d7 b7bd 164b 1a3e fab3 a7bd 7406 d03d
000001c0: 38e4 f93d e07f f03c feb6 87bd 9eac 4e3e
000001d0: 6c43 8ebd a801 a6bd 24a4 4c3e d352 4abe
000001e0: 80aa 4a3b 400c 49bc 6951 08be a423 d13d
000001f0: fca9 99bd 0844 9e3c e8dc ee3d 1a85 563e
00000200: 5238 343e e42c a13d 3c27 45be 3cd3 3c3e
00000210: 0837 60be c01c c7bb e8ea 193d d47e 0c3e
00000220: aeaa 11be 78e3 133e 86e3 2dbe b663 1fbe
00000230: 20e1 5c3d 386c 963d 8423 473e 2039 233d
00000240: 2838 aebc 1dcc cfbd 384c a5bd d07c 66bc
00000250: 30b2 e03c e023 10bd 449d b53d da14 afbd
00000260: d8e0 78bd 100a 38be 1ac2 193e 30da 643c
00000270: 9e1b 353e 4f8f 3ebe 6f5d 12be e058 5a3c
00000280: 20aa 653d 4ce9 9b3d 4cd0 1c3e 9875 173e
00000290: 1400 63be b8d2 c43c 303a e83c d479 4abe
000002a0: 3c6f 473e 60b8 6d3d 8737 f7bd 4038 45bb
000002b0: 2033 27be 204a 2c3d 301c dc3d e421 8c3d
000002c0: 96f0 483e 60c7 843c 84b4 013e b4ab 72bd
000002d0: ea99 473e df2c e2bd d038 3f3d ec13 0cbe
000002e0: c057 15bb 0857 abbd 7848 c4bc d479 0fbe
000002f0: c080 633e 0070 6738 66f0 e9bd f4fd b3bd
00000300: 0eb3 643e 180c 02bd 9824 833c e802 b2bc
00000310: da78 063e 5cb5 5a3e 3cc4 37be 1c12 25bd
00000320: 0cac 7bbd 0381 d0bd cfa8 20be 810e 60be
00000330: 6ef5 413e 08f3 5abe c03e 0b3e 0647 353e
00000340: 62ed 193e c8fe 263d 8894 473e 8fa9 d4bd
00000350: 5218 4a3e da49 8cbd d483 293e d678 413e
00000360: 1066 643e d802 37bd 2810 f13d 68b2 933d
00000370: f057 84bd 96d7 b2bd f0f0 5a3e 8fce 21be
00000380: 601c 3d3e 38ff 47be 4828 c43d a80a 243e
00000390: 008f 71bb 7c40 b8bd 3821 aa3d 24c7 11bd
000003a0: 04f7 ce3d bedd 4f3e 84ad 343e 8829 a13c
000003b0: 64f0 e4bd 00b9 3fbd eecc 80bd 2cab c53d
000003c0: ba34 bebd a892 373d b269 4f3e 1629 5cbe
000003d0: 9859 963c 1839 82bd 38f4 aebd 1008 953c
000003e0: 948d 373e 001a 353d 8849 4c3e 813f cebd
000003f0: 9c8d 2dbe bc35 0dbd d08f 103d 90e8 0fbe
0.05161363 -0.1573628 0.09849924 0.12790161 0.026955634 0.09955868 0.1745409 -0.06543937
0.17712063 0.11071044 -0.17087428 0.054953307 -0.15100817 0.12511674 -0.051365733 -0.18934004
0.010439828 -0.06423266 0.12935573 -0.11731476 -0.112789005 0.14116159 0.018748045 0.17469504
0.000291273 -0.15097056 0.16190282 0.21873835 -0.10942118 0.04636249 0.03801343 0.17318684
-0.13747117 -0.16329625 -0.1836569 -0.20559277 -0.12470178 -0.0030865818 -0.16648252 0.16669998
0.0002990514 0.21910566 -0.121231735 -0.13807164 -0.19762212 0.20638844 0.20001161 0.21519694
-0.023069978 0.05337727 -0.20634522 0.16194814 -0.21651793 0.13567156 -0.042570576 0.18458787
0.005553037 0.032053202 0.14449775 -0.21144445 -0.07400668 -0.19144538 0.18271321 0.041841447
-0.18035564 -0.1801486 -0.1738107 0.14594409 -0.15605131 0.072156996 0.21387747 0.08998731
-0.04433568 0.039921135 0.117753804 0.12760502 -0.009551644 0.09974247 -0.015179098 0.040466696
0.16466132 0.0040777773 0.052971303 -0.047233835 0.06008777 -0.1379016 0.020500168 0.03870845
0.14573273 0.02988106 -0.087783486 -0.1120835 0.08391073 0.19509572 0.08021721 -0.16742495
0.18210518 0.17624551 -0.10437541 0.19961584 0.10182682 0.11093986 0.01931347 -0.038635597
0.11230564 -0.019479603 0.034493685 -0.21909751 -0.08976677 0.15067706 -0.08188625 0.10157481
0.122017324 0.02935785 -0.066267 0.20183036 -0.069464535 -0.08105785 0.1998449 -0.19758157
0.003092438 -0.012270987 -0.13312306 0.10211876 -0.07503125 0.01931955 0.11663228 0.20949212
0.1759961 0.0786989 -0.19253248 0.18439955 -0.21895993 -0.0060764253 0.03757754 0.13720256
-0.14225265 0.14442241 -0.16981325 -0.1556538 0.053925633 0.0734486 0.19447142 0.0398494
-0.021267012 -0.101463534 -0.08071178 -0.014067844 0.027428716 -0.035190463 0.08867887 -0.08548899
-0.060761303 -0.17972589 0.1501545 0.013968036 0.17686316 -0.18609355 -0.14293455 0.0133268535
0.056070447 0.07612857 0.15313834 0.14790952 -0.22167999 0.02402626 0.028348058 -0.19773036
0.19476026 0.05803716 -0.12071138 -0.0030093342 -0.16328096 0.04206288 0.10747564 0.068424016
0.19623026 0.01620835 0.12666517 -0.05924578 0.19492307 -0.11043715 0.04668504 -0.13679475
-0.0022787899 -0.08366209 -0.023960337 -0.14011317 0.22217083 5.5179e-05 -0.114228055 -0.08788672
0.22333929 -0.031749815 0.01600866 -0.021729901 0.13132039 0.21358246 -0.17945951 -0.040300474
-0.061443374 -0.10180857 -0.15689395 -0.21880533 0.1894128 -0.21381772 0.13598156 0.17702875
0.1503196 0.040770322 0.19490254 -0.10383903 0.1973584 -0.068500236 0.16554195 0.18893752
0.22304559 -0.044680446 0.1177066 0.07211763 -0.06462085 -0.08732526 0.21380973 -0.15801452
0.18467855 -0.19530952 0.095779955 0.1601969 -0.0036858916 -0.089966744 0.08307117 -0.035590306
0.10105708 0.20299432 0.17644316 0.019673124 -0.111786634 -0.04680729 -0.06289087 0.09651789
-0.092874005 0.044817597 0.20255163 -0.21500048 0.018353269 -0.06358546 -0.08542675 0.018192321
0.17925102 0.04421425 0.19949925 -0.10070706 -0.16948551 -0.034475073 0.0352934 -0.1405356

fc1.bias f4 [64]
00000000: f813 91bd 6079 7f3d 0095 95bc e7c2 2cbe
00000010: ae64 09be b8fa 70bd 1837 43be 7057 313c
00000020: 8200 643e 0cc5 b2bd d65e 053e 6c94 d13d
00000030: 82a7 30be 0c03 943d 8000 43bd 7a2f 0abe
00000040: 24ae 563e 4e13 45be f0c7 84bd 3cf5 933d
00000050: 400a 6cbb 2c54 6fbd 44fb 2d3e a2ee 54be
00000060: f4dc 34bd 78a1 523d e8fe 9a3d 9632 013e
00000070: e782 43be 6e2f 80bd 082e 453d 43dd 31be
00000080: d487 28be c0f1 01bc cba2 5abe 4237 11be
00000090: 5c90 9b3d 5040 193e e07f f83d a04e f53b
000000a0: 1880 8e3d 0495 183e 7042 18be d8eb 4c3e
000000b0: 085b 15be b86b 813c b8c8 c2bc 00a3 ad3d
000000c0: 489d d7bd 4c0d 15bd f0d2 33bc ac50 10bd
000000d0: 6c8f 473e 2ac9 f5bd 4065 0f3e 9032 4a3d
000000e0: 1482 923d 0077 8c3d a20b bbbd 14c1 b13d
000000f0: 08a1 313e e4e5 21bd c071 a33b 31d9 fbbd
-0.07083887 0.06237161 -0.018259525 -0.16871224 -0.13417313 -0.058832854 -0.19063985 0.010824069
0.22265819 -0.0872899 0.13024458 0.10233387 -0.17251399 0.07227144 -0.0476079 -0.13494673
0.20964867 -0.19245645 -0.064834476 0.07224509 -0.0036016852 -0.058429882 0.16990381 -0.20794156
-0.04415603 0.05142352 0.07568151 0.12616953 -0.19092904 -0.062590465 0.048139602 -0.17369561
-0.16458064 -0.007931173 -0.21351163 -0.14181235 0.07595894 0.1496594 0.12133765 0.0074861795
0.06958026 0.14900595 -0.14869094 0.20011842 -0.14585507 0.015798435 -0.02377735 0.084783554
-0.10528046 -0.036389634 -0.010975584 -0.035233185 0.19488305 -0.120012596 0.14003468 0.049364626
0.07153717 0.06858635 -0.09133078 0.08679405 0.17346585 -0.03952588 0.0049879253 -0.12297285

fc2.weight f4 [64, 64]
00000000: 0c79 ffbd fce6 c33d 1c22 b43d 922e c3bd
00000010: a885 ad3c 40d2 f43d 5c39 523d 001d a3ba
00000020: 6cae a83d 2288 933d c866 443d 4226 d1bd
00000030: 443b fa3d 268b c13d 6a8e ae3d 9c5e 17bd
00000040: 5ad6 bd3d a465 ce3d 5a83 ed3d b666 c2bd
00000050: 7444 a4bd 40e2 95bb 920b d2bd 20aa 7ebc
00000060: 0060 b637 302a 663d 56d6 8dbd 3093 773d
00000070: 1813 debd fa4f a93d da32 ff3d 404f 083c
00000080: 3c60 9bbd 10a7 9abc 18a1 55bd e6ed b83d
00000090: acd1 e13d 601d 1f3c c0fa b93d 44a1 0cbd
000000a0: 2ef5 86bd 984c debc c086 26bc b082 c5bd
000000b0: 6216 b53d f060 21bc 20ea cabd e25a cfbd
000000c0: eeca a2bd 7812 a9bd 2037 f0bc b810 75bd
000000d0: a8d6 fd3c 3ac4 d33d cc19 99bd 8afa e03d
000000e0: 1c79 2a3d 7e7b cbbd f454 ef3d d012 dabd
000000f0: 30cb 713d f481 96bd 80c0 f73d 5685 cc3d
00000100: 406d 44bc ec67 72bd cc4c 66bd f015 003d
00000110: 38d9 84bc a0d1 273c 0203 ffbd badc 9d3d
00000120: 601e 033d 4004 c43d a099 6dbd 8c24 babd
00000130: 5210 ce3d 8cd6 30bd fc18 603d dcbe 8c3d
00000140: 00d0 d4bc 5c0f e1bd 4853 613d b0a0 a0bd
00000150: 501f bbbd 60fa 7f3d f8be eabd 90f7 d7bd
00000160: 0080 29b8 805a d0bc 842e 663d 3c69 733d
00000170: aa93 a33d 66e4 ae3d 4e28 f93d a811 dd3c
00000180: 7223 943d 94f2 31bd c0fb e33d c03f fdbb
00000190: 6831 dabc 787b f43d 0002 43bd 7a4b 933d
000001a0: e0fc c83c d228 85bd f8c8 c93c 545e 8abd
000001b0: 7e56 de3d 7e52 f2bd 7e3e a5bd bef9 cebd
000001c0: 809b 89ba 1a6f d8bd d8d6 4d3d 5cdd 3a3d
000001d0: a000 35bc 5822 3abd d8d2 d13c b8f0 e03c
000001e0: ac5c f3bd 8030 683b 7017 3abc 6012 d7bb
000001f0: 50c8 ef3c 4002 7cbc 12d8 833d 6016 c33b
00000200: 72fa 80bd 2c88 ea3d dc1d 1a3d e85b 50bd
00000210: b06a 69bd b82f 25bd 0001 a5bd 9093 313c
00000220: bc61 883d 22ae 8d3d b892 7a3d 080c 94bd
00000230: 6c42 b4bd 4001 68bd 6026 423c 828a 9a3d
00000240: 5037 b63d 20cc 41bd c4d8 d3bd d0c5 ce3c
00000250: 00c1 f2ba 4079 6d3b 465d bf3d 40e1 e33d
00000260: 0a9e edbd 5a0d b93d 1c7e 8b3d a090 07bc
00000270: d47b 2a3d fef2 d8bd 0216 bbbd 60ce 2f3d
00000280: c835 cb3c 00ad c7bc bcae 9f3d eca1 4c3d
00000290: 7479 1a3d d65b e83d d0ba 2ebc 5069 1c3d
000002a0: f860 a7bc 86c5 8d3d 28cb fbbd 3c6f abbd
000002b0: c479 34bd f2a8 e13d cccf 3cbd 8005 ddbb
000002c0: 3289 8abd 5cce 953d ec28 e53d e8da a63d
000002d0: d625 da3d 349c ba3d c03a 6fbb 44aa 1d3d
000002e0: 3466 6ebd 4c9a 213d 9018 383d 304a ebbd
000002f0: 4201 ea3d 14ca 97bd 80cc cabd a8f5 23bd
00000300: 70d5 1b3d a003 11bc 300c d2bc 8ad6 e93d
00000310: 225f 843d b8da 89bd 60d0 a13b b863 61bd
00000320: b6fb bbbd 7056 60bd c09a 6dbc ea9e 91bd
00000330: a0ba 24bd 4019 2b3c b0a3 283c dc5b d5bd
00000340: c854 f7bd 08f4 d2bc d07b 8cbd 5c51 ce3d
00000350: 12b1 823d 1c99 293d 7c08 ed3d f85c 0dbd
00000360: 6811 6c3d e21d fabd 68dd bc3c dc32 6ebd
00000370: a845 cbbc 34fc 7bbd 50b8 3e3d da27 f43d
00000380: 947e d73d 92bd febd 3c2b 24bd 485a ad3d
00000390: c048 d73b 505d 6abc 00bf 343a 502a c43c
000003a0: 0070 363a 0643 bcbd da39 cc3d 8281 f7bd
000003b0: fccb 19bd beba 853d 90ef bbbd 002a 3a3d
000003c0: 4440 693d f849 edbd 80fa 80bb 30f3 74bc
000003d0: 987d 8c3d 04ab b2bd 8407 b1bd ac8b e7bd
000003e0: 0411 e03d b4ff 52bd 44d7 af3d 34e1 78bd
000003f0: 68d7 b73c 6833 283d 0efd fabd ec02 c73d
-0.1247426 0.09565541 0.08795568 -0.09530367 0.021181896 0.119541645 0.051324233 -0.0012444556
0.08236393 0.072037 0.047949582 -0.10212375 0.12218335 0.094503686 0.08523257 -0.03695546
0.092694 0.1007798 0.11597319 -0.09492247 -0.08020869 -0.0045740902 -0.10256113 -0.015543491
2.1740794e-05 0.056192577 -0.06925647 0.060443103 -0.108434856 0.082672074 0.12460871 0.008319676
-0.075867146 -0.01887849 -0.052155584 0.090297505 0.1102632 0.009711593 0.0908103 -0.034333482
-0.06589733 -0.027136132 -0.010163963 -0.09644067 0.0884216 -0.009849772 -0.09907937 -0.101247564
-0.07948862 -0.08255476 -0.02932316 -0.059830397 0.030986145 0.103401616 -0.074756235 0.109852865
0.041619405 -0.09935664 0.116861254 -0.106481194 0.059031665 -0.07349005 0.12097263 0.09986369
-0.011988938 -0.05918114 -0.056225583 0.03127092 -0.01621686 0.01024285 -0.124517456 0.07708116
0.03201139 0.09571123 -0.058007836 -0.09089002 0.100617066 -0.043173358 0.054711327 0.06872341
-0.025978088 -0.10989258 0.055011064 -0.07843149 -0.09136832 0.062494636 -0.11462206 -0.10545266
-4.041195e-05 -0.025433779 0.056196705 0.05942653 0.07987149 0.08539657 0.12165891 0.026985958
0.07233323 -0.04344423 0.11132002 -0.007728547 -0.026634887 0.11937612 -0.04760933 0.071921304
0.024534643 -0.065019265 0.024631962 -0.06756273 0.10856341 -0.118321404 -0.0806856 -0.10106228
-0.0010498613 -0.10568066 0.05025372 0.04562126 -0.011047512 -0.04544291 0.025613233 0.027458534
-0.1188291 0.00354293 -0.011358127 -0.00656347 0.029270321 -0.015381396 0.064376965 0.005953595
-0.06297769 0.11451754 0.037626132 -0.0508689 -0.05698651 -0.04032871 -0.08056831 0.010838404
0.06659266 0.06917979 0.06117508 -0.07228857 -0.088017315 -0.056641817 0.01184997 0.075459495
0.08897269 -0.04731381 -0.10344079 0.025240809 -0.0018520653 0.00362356 0.09343962 0.111269474
-0.11602409 0.0903575 0.06811163 -0.008274227 0.041621998 -0.10593222 -0.09135057 0.042921424
0.024805918 -0.024374485 0.07797 0.04995911 0.037713483 0.11345641 -0.010664657 0.03818637
-0.02043198 0.0692244 -0.12294608 -0.08370826 -0.044061437 0.11018552 -0.046096608 -0.0067450404
-0.06764449 0.073147506 0.11189446 0.08147222 0.10651748 0.09111825 -0.0036503524 0.038492456
-0.058202937 0.03945379 0.0449453 -0.114887595 0.11426021 -0.0741159 -0.099022865 -0.040029198
0.038045347 -0.008850962 -0.025640577 0.11417873 0.06463458 -0.067311704 0.0049381703 -0.05502674
-0.091788694 -0.054769933 -0.014502227 -0.071103886 -0.040217042 0.010443032 0.010292932 -0.104179114
-0.120767176 -0.025751129 -0.06859553 0.10074112 0.0638143 0.041405782 0.11573884 -0.03451249
0.057633787 -0.12212731 0.023054793 -0.058153972 -0.024813488 -0.061519817 0.046562493 0.119216636
0.1052219 -0.124385014 -0.040080294 0.084644854 0.006569952 -0.014304474 0.00068949163 0.023945957
0.00069594383 -0.09192471 0.09971972 -0.120852485 -0.03754805 0.06529759 -0.09176552 0.04545021
0.056946054 -0.11586374 -0.003936112 -0.014950559 0.068598926 -0.08724025 -0.086440116 -0.11305937
0.109407455 -0.05151339 0.085859805 -0.060761645 0.02244158 0.04106465 -0.122552976 0.09717354

fc2.bias f4 [64]
00000000: a232 b4bd e266 b63d f089 32bd b4d5 533d
00000010: c4e9 adbd 3400 2e3d 8445 d5bd 88b4 cdbd
00000020: 6071 bb3c 00cc ccb9 ccc2 40bd 800e ca3b
00000030: c028 e93d 1011 5dbc 6006 b83b 2c59 653d
00000040: 485f ff3d 5041 f2bd e2b6 c73d 1c4a 813d
00000050: 4451 71bd 5a0f f5bd 50f4 4b3c 82d1 98bd
00000060: 800b 823d 50a1 82bd 603c 7c3c 1e43 a0bd
00000070: d0e7 6dbc 326e c93d 4896 a93d 6074 aebd
00000080: 34ca 993d b036 e23c ac80 3dbd 1a9e d2bd
00000090: 3c04 3f3d 885e 473d 8290 f23d 0a5d b93d
000000a0: 8ecd b63d e865 a1bd 8025 aa3c 30e8 5abc
000000b0: c800 f63c e056 1dbd 7880 06bd 1822 663d
000000c0: 44d9 5a3d 0072 c2bc b09e 57bc fec7 8bbd
000000d0: 7ead b1bd b2dd 893d ac70 86bd 8252 93bd
000000e0: 4a8a fbbd 209d 7cbc f2d5 a7bd 2087 023d
000000f0: 20cd d7bb 0233 e53d f0f4 213d 88a0 ad3d
-0.0879872 0.08906342 -0.04358858 0.051717475 -0.08491853 0.042480662 -0.1041365 -0.10044199
0.02288121 -0.00039061904 -0.047060773 0.0061662793 0.113847256 -0.013492838 0.0056159943 0.055993244
0.12469345 -0.118288636 0.09751679 0.06312963 -0.05891539 -0.11965819 0.012448385 -0.074618354
0.0634985 -0.06378424 0.015395254 -0.078253016 -0.0145206 0.09835471 0.08280617 -0.085182905
0.0750927 0.027613968 -0.04626529 -0.10284062 0.046634898 0.048674136 0.11843969 0.09050949
0.08925925 -0.07880765 0.020769835 -0.013361022 0.03002967 -0.03841293 -0.03283736 0.056184858
0.053429857 -0.023736 -0.013160393 -0.06825255 -0.08675669 0.06731738 -0.06564459 -0.071934715
-0.12282236 -0.015418321 -0.08195104 0.031867146 -0.006585732 0.111913696 0.03954023 0.084778845

fc3.weight f4 [8, 64]
00000000: 8c5e e0bd 3ca3 83bd 803b 923c 0c97 073d
00000010: f29f c4bd 9ec0 e4bd 300d afbd 9006 45bd
00000020: 2877 8cbd 9004 993c 5efc e03d 202b a33c
00000030: 0e7f ae3d 8666 eebd 70c9 d2bd f49b fd3d
00000040: 7e08 cabd 40f0 2a3c a071 21bd f87a 57bd
00000050: 781b 1abd 2ec3 b23d 127d b1bd 80c3 16bb
00000060: a8a2 4abd 809a 81bb 5e5f 983d aea4 f03d
00000070: fcca 253d d040 56bc 6a57 e7bd a6f1 aabd
00000080: b8aa 80bc f414 ebbd 2861 86bd dc00 0f3d
00000090: 28f6 463d 68d2 ed3c 54a1 89bd 569f 9fbd
000000a0: 6a9b 87bd a4f1 fb3d ce71 b7bd 082d dabd
000000b0: 64d1 4dbd 70aa e7bc 00d7 5e3d 1c10 3fbd
000000c0: b845 0abd cc3c ecbd 8eaf f6bd 00af 1a3b
000000d0: 483a d63d 5864 d63c 6696 e9bd 0af4 d33d
000000e0: c006 75bd 980b 933c f89b febc eeee e23d
000000f0: 2496 003d d0cc a33d 6aae d2bd 0c2d 81bd
00000100: f4c5 c2bd aeed e3bd 78d4 8f3d b8fe dcbc
00000110: 0c91 b8bd 7270 aabd 2cd1 57bd 90c0 d93d
00000120: 1c83 9fbd f898 7f3d 888e edbd 4ebd fc3d
00000130: 14d3 5c3d 0464 e33d a0de e9bd 5072 c93d
00000140: 5006 c43c 94e1 c13d a80e b03d 805d 803a
00000150: dee0 9dbd ea61 babd d213 dc3d 6ab1 c7bd
00000160: 22f3 f6bd 904a d33c 5018 c4bd 9807 553d
00000170: e81f ca3d de40 fa3d 68e3 32bd a0ee 2b3c
00000180: 7096 ed3d 3209 d73d 1217 f2bd d090 643c
00000190: b092 c33c 7014 83bd 00c4 45b9 c89b 293d
000001a0: a68b a2bd 348f 1a3d a818 16bd 60b3 c93d
000001b0: 9860 393d 8032 a23c 808b 283b 6014 9ebb
000001c0: 3651 d13d 1c97 efbd 728c b73d 921d bebd
000001d0: 00a8 8f3c 88e1 683d a09c a63c ac5b a63d
000001e0: d440 ec3d 16a2 c4bd e417 d03d 344f 7cbd
000001f0: bcc9 743d 903a 0c3c 2081 9a3c 147d 3ebd
00000200: 5cf8 c1bd b6fd 963d a057 80bc 00bd 993b
00000210: a27b 9c3d c052 703c ba1e bfbd 90da 31bc
00000220: 64f5 0f3d b8a9 a2bc 946e 913d 8afd c9bd
00000230: 7082 e0bc 0ea5 d43d 6466 26bd 6861 1ebd
00000240: 0c1b fd3d 6835 893d 005e ed3b 2672 db3d
00000250: c0b8 a5bb 7843 15bd d887 db3d b4c4 a13d
00000260: 409f 4ebd 70eb fc3c b01f 4c3c c02c 463c
00000270: 6084 abbd 5450 993d 9cf1 5ebd 7615 f43d
00000280: a809 59bd f6fd b7bd 2cf2 a83d 5c93 043d
00000290: 02a9 d0bd 5afd eb3d 10aa e03c a003 b63d
000002a0: 9055 9d3c f86b e3bc 5c42 44bd 581f 933c
000002b0: d03a a33d 3c23 c73d 4801 b43c 98fe 903d
000002c0: 1cf9 0dbd 0457 973d 280f 0c3d 88dd 943d
000002d0: ecd0 86bd 9279 c83d a0d9 3cbd 7453 43bd
000002e0: 00f8 c0b8 e8ce 623d fabd c5bd dc54 29bd
000002f0: 4866 1cbd 1a5c 86bd a45c e03d c8b9 e03d
00000300: d4e1 f2bd a4e8 4d3d 0e78 cf3d 7411 fb3d
00000310: 9c46 f6bd 7206 b43d 3632 c0bd e656 89bd
00000320: 304e 18bc 6005 9cbb c060 0abb 6626 bc3d
00000330: 4049 f9bb d842 99bd 601a 61bd 848a 8f3d
00000340: 06f2 dbbd e085 a23d c092 d63b 92dc c53d
00000350: 3cf4 0b3d 00df 5abc fc88 f0bd c824 71bd
00000360: c68f f7bd 0a20 aa3d 7075 793d 763d 99bd
00000370: 6406 bc3d 9482 03bd 087d f33c 78d6 e8bd
00000380: a62f e4bd 609a dc3c 50c6 843c 60da 9bbc
00000390: 389a 703d 80a0 a43a 0042 13ba 1ac5 e93d
000003a0: 88f5 e63d 584b 5a3d 68ce f0bc 4027 b23c
000003b0: 6011 c1bd f63c 983d e0dd cdbd c898 b6bd
000003c0: 28f7 313d 0040 b7b9 46fc 9bbd 285d 51bd
000003d0: f432 353d 5884 acbc 9c10 dd3d ba8f 833d
000003e0: 089b f33d 30c5 4ebd fae7 fb3d d40a 07bd
000003f0: 1ede ccbd 1810 113d 187e cc3d f4e6 b53d
-0.109555334 -0.06427619 0.017850637 0.033103034 -0.0960082 -0.11169551 -0.08547437 -0.04810196
-0.06858665 0.018678933 0.10985635 0.019918025 0.085203275 -0.116406485 -0.102923274 0.12383261
-0.09864901 0.010433257 -0.039415002 -0.052607507 -0.037623852 0.08728634 -0.086664334 -0.002300471
-0.049471527 -0.0039551854 0.07440065 0.1175016 0.040476784 -0.013076976 -0.1129597 -0.08346872
-0.015706405 -0.11478606 -0.065615 0.03491293 0.048574597 0.029030994 -0.06720224 -0.07794063
-0.0662144 0.12301949 -0.089572534 -0.1065312 -0.05024852 -0.028279513 0.05440426 -0.046646222
-0.033757895 -0.115350336 -0.12045203 0.0023602843 0.10460335 0.026170895 -0.11405639 0.10349281
-0.05982089 0.017949864 -0.031080231 0.110807285 0.031393185 0.07998049 -0.10287173 -0.0630742
-0.09510413 -0.11129318 0.07022947 -0.026976928 -0.090120405 -0.083222285 -0.052689716 0.106324315
-0.07788679 0.06240174 -0.11599451 0.123407945 0.053912237 0.11103061 -0.114194155 0.098362565
0.023928791 0.09466854 0.085965455 0.000979349 -0.07708906 -0.09100707 0.10745968 -0.09750636
-0.12058093 0.02579239 -0.0957495 0.052009195 0.09869367 0.12219404 -0.043673903 0.010493904
0.11600959 0.10499801 -0.118208066 0.013950542 0.023873657 -0.064003825 -0.000188604 0.04140833
-0.07936792 0.037734225 -0.036644608 0.09848666 0.045258135 0.01979947 0.0025717914 -0.0048242062
0.10220568 -0.11698744 0.08962335 -0.09282984 0.017536163 0.05685571 0.020338356 0.08122954
0.115358025 -0.09601228 0.10160807 -0.06159897 0.0597627 0.008558884 0.0188604 -0.046506003
-0.09471199 0.0737261 -0.015666783 0.00469172 0.076407686 0.014668167 -0.093320325 -0.010855332
0.035146132 -0.019856319 0.07101169 -0.09862812 -0.027405947 0.10383044 -0.04062499 -0.038667113
0.123586744 0.066996396 0.0072438717 0.107151315 -0.0050574243 -0.036441296 0.107192695 0.07898846
-0.05044484 0.030873984 0.012458727 0.01209563 -0.08374858 0.074860245 -0.054429635 0.11918156
-0.052987725 -0.08983986 0.082493156 0.032367095 -0.10188486 0.11522932 0.027424842 0.0888741
0.019205838 -0.027761444 -0.047914848 0.017959282 0.07970202 0.09723517 0.021973267 0.0707981
-0.034661397 0.07389644 0.03419414 0.07268816 -0.065828174 0.09788813 -0.04610598 -0.04768701
-9.201467e-05 0.055373102 -0.09655376 -0.041340694 -0.03818348 -0.06560536 0.1095517 0.10972935
-0.118594795 0.05027069 0.101303205 0.12259188 -0.120251864 0.08790292 -0.09384577 -0.06706028
-0.009295985 -0.004761383 -0.0021114796 0.091870114 -0.007607609 -0.074834526 -0.054956794 0.07008842
-0.10739522 0.07935691 0.0065482557 0.09661211 0.034168467 -0.013358831 -0.11744878 -0.058872968
-0.120879695 0.08306892 0.060903013 -0.07482426 0.091809064 -0.03210695 0.029722705 -0.11369032
-0.11141901 0.02692908 0.016207844 -0.019025028 0.058740824 0.001256004 -0.000561744 0.11414547
0.112773 0.05329451 -0.029395297 0.021747231 -0.09427142 0.074335024 -0.10052085 -0.089158595
0.043448597 -0.00034952164 -0.07616477 -0.05111423 0.044238046 -0.0210592 0.107941836 0.06423898
0.11894804 -0.05048102 0.123001054 -0.03296931 -0.10003303 0.03541574 0.09984988 0.088819414

fc3.bias f4 [8]
00000000: dc75 87bd 80f4 bb3c ea75 aebd 1074 0e3d
00000010: 00b8 e839 ccd0 bfbd 1c75 18bd 781b d03c
-0.06614277 0.022943735 -0.08518584 0.034778655 0.0004438758 -0.09365997 -0.03722106 0.025403723
