saves/final_ai_memory_npc_2_decision.pth (torch, 27433 bytes, 6 tensors)

fc1.weight f4 [64, 20]
0	0x3e35c654	0.17751437
1	0xbe539c58	-0.20665109
2	0x3cc3fe20	0.023924887
3	0x3e08e140	0.13367176
4	0x3d13d638	0.036092967
5	0xbe55b2e0	-0.20869017
6	0x3b9a98e0	0.004717931
7	0x3dbbcb20	0.091696024
8	0xbe155dd8	-0.1458658
9	0x3d366d30	0.044537723
10	0xba626300	-0.0008635968
11	0xbba58c00	-0.0050520897
12	0x3d8b12ec	0.067907184
13	0xbe405053	-0.18780641
14	0x3de78a18	0.11305636
15	0x3e26bb3a	0.16282359
16	0xbbd6bb00	-0.006553054
17	0xbe39329f	-0.18085717
18	0xbdb3b30c	-0.08774385
19	0xbe38f314	-0.18061477
20	0x3c991f70	0.018691748
21	0x3e314cae	0.17314407
22	0xbd9154bc	-0.0709624
23	0xbd7b7808	-0.061393768
24	0xbdc29b3e	-0.09502266
25	0x3e44a00a	0.19201675
26	0x3e502f2c	0.20330495
27	0xbe54f66d	-0.20797129
28	0xbe2e389b	-0.17013781
29	0xbe0a2ef4	-0.13494474
30	0x3d8eca94	0.069722325
31	0x3c45a450	0.012063101
32	0x3c38e5a0	0.011285216
33	0x3e2c903a	0.16851893
34	0x3e294898	0.16531599
35	0x3d829c08	0.06377417
36	0x3cc0dcf0	0.023542851
37	0x3d279c00	0.040920258
38	0xbdf3b734	-0.119001776
39	0xbe29ede0	-0.16594648
40	0x3b89c9c0	0.0042049587
41	0x3c86e878	0.016468272
42	0x3e4c7d38	0.19969642
43	0xbe1f0f38	-0.15533149
44	0x3dd4ad30	0.103845954
45	0x3e0a0696	0.13479075
46	0x3e3bb748	0.18331635
47	0xbd6fafc0	-0.058517218
48	0xbd1417e4	-0.036155596
49	0xbdab2e84	-0.083584815
50	0x3e1ee7b8	0.15518081
51	0x3d7bf098	0.061508745
52	0x3d84d0e8	0.06485158
53	0x3ca44480	0.020052195
54	0x3ccad300	0.024758816
55	0xbd8bd1ca	-0.068271235
56	0xbce04060	-0.027374446
57	0xbd029494	-0.031879976
58	0x3de4d1e4	0.11172846
59	0x3cf34590	0.029696256
60	0xbc1fcf70	-0.009754047
61	0xbe1d3dd8	-0.15355623
62	0x3e3454f6	0.17610535
63	0x3e0adc86	0.13560686
64	0xbe2a9d28	-0.16661513
65	0xba9f4a80	-0.001215294
66	0xbd91cde0	-0.07119346
67	0xbe4351b7	-0.1907414
68	0xbe3a6c29	-0.18205322
69	0xbe017f86	-0.12646303
70	0x3d684140	0.056702852
71	0x3d91f350	0.07126486
72	0xbd215e28	-0.039396435
73	0xbd978e9e	-0.07400249
74	0x3d626d48	0.05528
75	0xbe52e688	-0.20595753
76	0x3dabc914	0.08387962
77	0xbe4df6e1	-0.20113708
78	0xbe322589	-0.17397131
79	0x3dd035c4	0.10166505
80	0x3ccd4730	0.025058359
81	0xbdedbaa4	-0.116078645
82	0xbd661568	-0.05617276
83	0x3e13b842	0.14425758
84	0x3d2e2cf8	0.042523354
85	0xbdfb6ec4	-0.12276986
86	0x3e3385b0	0.17531466
87	0x3d8078f0	0.06273067
88	0x3e16cf78	0.1472758
89	0xbda56db4	-0.08077565
90	0xbb0cbf80	-0.0021476448
91	0x3ccd7878	0.025081858
92	0xbe2d29f8	-0.16910541
93	0xbd6c24dc	-0.05765234
94	0xbd8bfec6	-0.068357036
95	0xbe4b73cd	-0.19868393
96	0xbe3b96f4	-0.18319303
97	0xbdcfe851	-0.10151733
98	0x3e4f5c02	0.20249942
99	0xbe3f7ae1	-0.18699218
100	0x3d04fb28	0.032466084
101	0x3e06ce5e	0.1316466
102	0x3d297fa0	0.04138148
103	0xbc80fe78	-0.01574634
104	0xbe5a00f7	-0.2128943
105	0xbdb3f47e	-0.087868676
106	0xbe2debfa	-0.16984549
107	0x3df17b48	0.11791092
108	0xbdf49871	-0.119431384
109	0xbe2d59c0	-0.16928768
110	0xbe0cebde	-0.13761851
111	0x3d8a09a0	0.06740117
112	0xbe5d79f8	-0.21628559
113	0x3d402950	0.0469144
114	0x3d24d338	0.040240496
115	0xbcb7bec0	-0.022429824
116	0xbd259d30	-0.04043311
117	0xbc731790	-0.014837161
118	0x3c4cedf0	0.012507901
119	0x3ddc2fd8	0.10751313
120	0x3e50bb58	0.20383966
121	0x3e6334d6	0.22188124
122	0xbd591a48	-0.05300358
123	0x3e2fde00	0.1717453
124	0x3d5a6f30	0.053328693
125	0xbd9fe98a	-0.07808216
126	0xbdc70a50	-0.09718764
127	0x3e2c610e	0.16833898
128	0x3e15679e	0.14590308
129	0xbe3bf479	-0.18354978
130	0x3e13f59a	0.14449158
131	0x3ddf76b4	0.10911313
132	0xbddd057a	-0.1079206
133	0x3c987908	0.0186124
134	0xbdd4c021	-0.10388208
135	0xbd5f969c	-0.05458699
136	0xbe5e1417	-0.21687351
137	0x3d4bcca8	0.049755722
138	0xbe196d64	-0.14983135
139	0x3d9c7b20	0.07640672
140	0x3e4add9a	0.19811097
141	0x3d2fcee0	0.0429219
142	0x3b69a100	0.0035648942
143	0xbc1ae670	-0.009454355
144	0xbe29282c	-0.1651923
145	0xbc23eee0	-0.010005683
146	0x3dc4b664	0.09605101
147	0xbdd3abd6	-0.103355095
148	0xbe531ff3	-0.20617656
149	0xbde56b6e	-0.11202131
150	0xbe604d2b	-0.21904437
151	0xbe5935f3	-0.21211986
152	0xbd412a88	-0.0471597
153	0xbe3d31be	-0.18476006
154	0x3dc86c6c	0.09786305
155	0x3c11b950	0.00889428
156	0x3cb36460	0.021898448
157	0x3c9a8c50	0.018865734
158	0x3e566ed6	0.20940718
159	0x3daaa078	0.08331388
160	0x3e3aee00	0.18254852
161	0xbe489488	-0.1958791
162	0xbd3d2fb8	-0.046188086
163	0x3e429c2c	0.19004887
164	0xbe1e650c	-0.15468234
165	0xbd609640	-0.05483079
166	0xbd08dcd0	-0.03341371
167	0xbe43c82a	-0.19119325
168	0x3d841fdc	0.06451389
169	0x3e42f46a	0.19038549
170	0xbe323b1f	-0.17405365
171	0x3e2fac9c	0.17155689
172	0x3d6963e0	0.056980014
173	0xbcf8a740	-0.030353189
174	0x3dd77f28	0.105223
175	0x3d9c0560	0.07618213
176	0x3e1d1cf6	0.15343079
177	0xbc14c5d0	-0.009080365
178	0xbde6227e	-0.112370476
179	0x3e0c41a2	0.13696912
180	0x3e4c6374	0.19959813
181	0xbe59f6ae	-0.21285507
182	0xbe1948fe	-0.1496925
183	0x3a245300	0.00062684715
184	0x3d8c607c	0.068543404
185	0x3dd6ca14	0.10487762
186	0xbdefcc0c	-0.11708841
187	0x3d12e3a8	0.03586164
188	0x3e07ac04	0.13249213
189	0x3d1ebbe0	0.03875339
190	0xbe0f09e6	-0.1396862
191	0xbcfcd2d0	-0.030862242
192	0x3df0cf90	0.117583394
193	0x3e0a158a	0.13484779
194	0xbe37c890	-0.17947602
195	0xbdaf3f92	-0.08557047
196	0x3e5d4330	0.21607661
197	0xbe3bab1f	-0.18326996
198	0xbdf961d3	-0.121768616
199	0xbdfd692b	-0.12373575
200	0xbe24231e	-0.16029021
201	0x3c5414c0	0.0129444
202	0x3dc52274	0.09625712
203	0x3dd73a14	0.105091244
204	0xbd8cba36	-0.068714544
205	0xbdc3aefe	-0.095548615
206	0xbe086a61	-0.1332183
207	0x3dfc813c	0.12329337
208	0x3e2d59b8	0.16928756
209	0x3dc897a8	0.09794551
210	0xbdf4e7ec	-0.11958298
211	0x3e203080	0.15643501
212	0x3c1539a0	0.009107977
213	0x3d93c3e8	0.072151005
214	0x3d90e654	0.070751816
215	0xbe27c3ec	-0.16383332
216	0xbd8d6030	-0.06903112
217	0x3df0ffd8	0.11767548
218	0xbe0fca72	-0.1404207
219	0x3da59050	0.08084166
220	0x3d049050	0.03236419
221	0x3e3874a2	0.18013242
222	0x3d75f408	0.06004718
223	0xbe1dc9b7	-0.1540898
224	0xbcec26a8	-0.028827026
225	0xbcbecbc8	-0.02329053
226	0xbcbd2e28	-0.023093298
227	0xbcbb0ce8	-0.022833303
228	0xbd54f31c	-0.05198966
229	0xbde28914	-0.11061302
230	0x3d28b3f0	0.041187227
231	0xbe32bebe	-0.17455575
232	0xbbe98fa0	-0.007127717
233	0x3e242b60	0.16032171
234	0xbe0cdc52	-0.1375592
235	0x3c2a0b50	0.010378674
236	0xbdd89477	-0.105751924
237	0xbc574d10	-0.013140932
238	0x3e0656a2	0.13118985
239	0xbe46d181	-0.19415857
240	0x3d8a2610	0.06745541
241	0x3ca96468	0.02067776
242	0xbe516447	-0.20448409
243	0x3e0f2cbe	0.13981912
244	0xbdef6f80	-0.11691189
245	0x3e06f190	0.13178086
246	0xbdd95c54	-0.10613313
247	0x3dd377c0	0.10325575
248	0x3e47d3ae	0.19514343
249	0xbd98dc24	-0.074638635
250	0x3e39790a	0.18112579
251	0xbe2b24de	-0.16713282
252	0x3c57c7b0	0.013170168
253	0x3e056442	0.13026527
254	0xbd5c8024	-0.053833142
255	0x3d912794	0.07087627

fc1.bias f4 [64]
0	0xbe386426	-0.18006954
1	0x3ce96730	0.028491586
2	0x3e20dab2	0.15708426
3	0xbe312aad	-0.17301436
4	0x3e343f0e	0.17602178
5	0xbd501c70	-0.05080837
6	0xbe210555	-0.1572469
7	0x3dc63988	0.09678942
8	0x3e3b4390	0.18287492
9	0xbe390be7	-0.18070947
10	0xbe4e440e	-0.20143148
11	0xbe58637d	-0.21131702
12	0x3e54ab74	0.20768529
13	0xbe021899	-0.12704696
14	0xbe4c89c8	-0.19974434
15	0x3e400c2a	0.1875464
16	0x3e267ec4	0.16259295
17	0xbdbfb02a	-0.093597725
18	0x3e385cd6	0.18004164
19	0xbd5162e8	-0.051119715
20	0x3e2a5fb4	0.1663807
21	0xbe3a1dc2	-0.18175414
22	0xbd238988	-0.039926082
23	0x3de421d4	0.11139265
24	0x3d6bac18	0.05753717
25	0x3dfc11e0	0.12308097
26	0xbda7d058	-0.08194035
27	0xbe43564c	-0.19075888
28	0x3de8c958	0.11366528
29	0x3ddaa9d8	0.106769264
30	0xbd082184	-0.033235088
31	0x3c05d240	0.008167803
32	0x3c402190	0.011726752
33	0xbe00fb31	-0.12595822
34	0x3daeea00	0.08540726
35	0x3e34f3a4	0.17671067
36	0x3e1ae0da	0.15124837
37	0x3e53c24c	0.20679587
38	0xbdbf8458	-0.093514144
39	0x3bb64440	0.0055623353
40	0x3cf88720	0.03033787
41	0xbd2652ac	-0.040606186
42	0xbded6341	-0.11591197
43	0xbe0b69c6	-0.13614568
44	0xbe075f0c	-0.13219851
45	0xbdde45e1	-0.10853172
46	0x3cc2da98	0.023785874
47	0xbdf6c1a9	-0.120486565
48	0x3a7cb600	0.0009640157
49	0xbe0074e2	-0.12544587
50	0xbe5b8794	-0.21438438
51	0x3e1d23ac	0.15345639
52	0x3dafb4e0	0.08579421
53	0x3e02bbd8	0.12766969
54	0x3dedc674	0.116101176
55	0xbc59a770	-0.013284549
56	0xbdf5e62d	-0.12006793
57	0x3e27c1be	0.163825
58	0x3c46c580	0.012132049
59	0x3e49d764	0.19711071
60	0x3c8535a8	0.016260937
61	0xbd82b58a	-0.06382282
62	0xbdcaad22	-0.09896304
63	0x3dd53680	0.10410786

fc2.weight f4 [64, 64]
0	0x3d906af2	0.07051648
1	0x3da1f732	0.07908477
2	0xbd54bc6c	-0.051937506
3	0xbdbad0ba	-0.09121843
4	0x3dec199a	0.115283206
5	0x3daefd0c	0.085443586
6	0x3ccf7d00	0.02532816
7	0xbd8b4152	-0.06799568
8	0x3d7cf83c	0.061760172
9	0x3cee7a70	0.029111117
10	0x3d7c2a00	0.06156349
11	0xbdc7a4b0	-0.097482085
12	0xbdcd7622	-0.10032298
13	0xbb356bc0	-0.0027682632
14	0x3de24c7c	0.110497445
15	0x3df6e6e8	0.120557606
16	0x3cbc45f0	0.022982568
17	0xbd347b70	-0.04406303
18	0xbde95276	-0.11392681
19	0x3d412cbc	0.047161803
20	0xbdf6c240	-0.12048769
21	0x3d38554c	0.04500322
22	0x3d713978	0.058892697
23	0x3d80ef46	0.06295638
24	0x3cfc0550	0.030764252
25	0x3d83bd28	0.06432563
26	0x3dec3162	0.115328565
27	0x3d935312	0.07193579
28	0xbb980a80	-0.0046399236
29	0x3dd410f2	0.103547946
30	0x3da76cc0	0.08175039
31	0x3cc5ddd0	0.02415362
32	0x3d9f57a6	0.077803895
33	0xbd913890	-0.070908666
34	0x3d9fde64	0.078060895
35	0xbdc6dc5a	-0.097099975
36	0x3d6c79b0	0.057733238
37	0x3da72922	0.08162142
38	0xbda3e31e	-0.080023035
39	0xbc73a2c0	-0.014870346
40	0xbc1f3e20	-0.009719402
41	0x3d461324	0.048358098
42	0xbdc2f2b6	-0.0951895
43	0xbc553ea0	-0.013015419
44	0xbd85b544	-0.06528714
45	0x3da58c2c	0.08083376
46	0xbccdca78	-0.025120959
47	0x3c708c10	0.014681831
48	0xbd17403c	-0.036926493
49	0x3dd65602	0.104656234
50	0x3cd8e860	0.026477993
51	0xbde6b14a	-0.11264284
52	0x3d8602cc	0.06543502
53	0xbd390538	-0.045170993
54	0xbddfb39e	-0.10922931
55	0xbd80c578	-0.06287664
56	0xbd1a4eb4	-0.037672713
57	0xbd729350	-0.05922252
58	0xbdd322fa	-0.103094056
59	0x3dbb05c2	0.091319576
60	0xbdd90dd2	-0.10598339
61	0x3d95e83c	0.07319686
62	0xbbe5de20	-0.0070150048
63	0xbcc5fba8	-0.02416785
64	0xbd406df8	-0.046979874
65	0xbd4b6e60	-0.04966581
66	0xbd804028	-0.06262237
67	0xbc962200	-0.01832676
68	0x3d9c2d2e	0.07625805
69	0x3db4979c	0.0881798
70	0xbdef74f4	-0.11692229
71	0xbb9900c0	-0.004669279
72	0x3dd25342	0.102697864
73	0x3ddf29cc	0.10896644
74	0x3b8a79c0	0.0042259395
75	0x3d8de1ba	0.069278196
76	0xbddb6c34	-0.107139975
77	0xbc2211f0	-0.009891972
78	0x3be1b0a0	0.0068875104
79	0xbddb7ac6	-0.107167765
80	0x3dd44a06	0.10365681
81	0x3d21f3ac	0.039539024
82	0x3b067900	0.00205189
83	0x3df02d40	0.11727381
84	0xbce5a138	-0.028030977
85	0x3d90ed30	0.0707649
86	0xbc67d120	-0.01414898
87	0x3d197638	0.037466258
88	0xbd92a674	-0.07160655
89	0x3d7710c0	0.06031871
90	0xbdeed8c2	-0.11662437
91	0x3c7350e0	0.014850825
92	0x3db681c8	0.089114726
93	0xbd6c296c	-0.05765669
94	0xbcc466f8	-0.02397488
95	0x3d5727a4	0.05252804
96	0xbd71fe58	-0.05908045
97	0xbd37e0e8	-0.04489222
98	0x3df687c2	0.120376125
99	0x3dab8586	0.08375077
100	0x3d725b34	0.05916901
101	0xbcf6ba88	-0.030118242
102	0xbdf02ca2	-0.11727263
103	0x3dbd82c6	0.09253459
104	0xbd92e042	-0.0717168
105	0x3c9872a8	0.01860936
106	0xbd981128	-0.07425147
107	0xbcc6c798	-0.024265096
108	0xbd3b7ed4	-0.04577525
109	0xbce52f00	-0.027976513
110	0xbdd149e6	-0.10219173
111	0x3c629770	0.013830051
112	0xbde1e2b0	-0.11029565
113	0x3dfdafde	0.1238706
114	0x3d0b69a4	0.034036294
115	0xbd988138	-0.074465215
116	0xb82ab000	-4.069507e-05
117	0xbd218be4	-0.03944005
118	0xbd4de820	-0.0502702
119	0x3dc27944	0.09495786
120	0x3d50a428	0.0509378
121	0x3db301bc	0.08740565
122	0xbd262918	-0.040566534
123	0x3d9c0c70	0.0761956
124	0xbdb40ad4	-0.08791128
125	0x3dd7586a	0.105149105
126	0x3d30a79c	0.043128595
127	0x3d19bc2c	0.03753297
128	0xbd585b80	-0.052821636
129	0x3d86a4e6	0.06574421
130	0xbdd0c592	-0.101939335
131	0xbdc7e71a	-0.09760876
132	0x3dd474a0	0.10373807
133	0xbde889ce	-0.11354409
134	0x3cf30850	0.02966705
135	0x3dccea66	0.100056455
136	0xbdef6734	-0.11689606
137	0xbd319220	-0.043352246
138	0xbd7ca10c	-0.061677024
139	0x3dde8c52	0.10866608
140	0x3db2f6a6	0.08738451
141	0xbd376ee8	-0.044783503
142	0x3d70a83c	0.05875419
143	0x3dd8d7a8	0.10588008
144	0x3ca3d8a8	0.02000077
145	0x3ce97140	0.028496385
146	0xbcfe5d48	-0.03105034
147	0xbd234f98	-0.03987083
148	0xbd915d20	-0.0709784
149	0x3c738c40	0.014864981
150	0xbdea3e1a	-0.11437626
151	0xbda395cc	-0.07987556
152	0xbcfe9e88	-0.031081453
153	0x3d8f7bfe	0.070060715
154	0xbdd1d49a	-0.10245629
155	0x3df0ef08	0.117643416
156	0xbd27ae28	-0.040937573
157	0x3c047bb0	0.00808613
158	0x3df6de44	0.120541126
159	0xbd9d6628	-0.076855004
160	0x3c9e1090	0.019295007
161	0xbd5e7944	-0.054314867
162	0x3de99b08	0.11406523
163	0xbdd709ce	-0.10499917
164	0x3de815b2	0.11332263
165	0x3b709300	0.0036708713
166	0x3de70d34	0.11281815
167	0xbc7c6cf0	-0.015406832
168	0x3da0bbbe	0.07848309
169	0xbc752400	-0.014962196
170	0x3d0bf7f8	0.03417203
171	0x3c9c6370	0.019090384
172	0x3ddca26c	0.10773167
173	0xbd5efcd0	-0.05444032
174	0xbb9dcca0	-0.004815653
175	0xbc51ad50	-0.012797669
176	0x3d9fa40e	0.07794963
177	0xbbd83dc0	-0.006599158
178	0x3dfe837c	0.124274224
179	0xbdd078bc	-0.10179278
180	0x3afba880	0.0019199997
181	0xbdea7c92	-0.11449541
182	0x3cb4f2e8	0.022088483
183	0xbda7b548	-0.081888735
184	0x3c543d90	0.012954131
185	0xbdc02780	-0.09382534
186	0x3de66f20	0.11251664
187	0xbdd45c4c	-0.10369167
188	0xbb5c0940	-0.003357485
189	0x3d6e78a8	0.058220536
190	0xbdaddd1c	-0.08489439
191	0xbd6cc840	-0.05780816
192	0x3d66c118	0.056336492
193	0x3ddffa0a	0.10936363
194	0x3dbcd022	0.09219386
195	0x3da10f7a	0.0786428
196	0xbdcfb1ca	-0.101413324
197	0xbd6265a8	-0.05527273
198	0xbd5b3a44	-0.053522363
199	0xbdd87896	-0.10569875
200	0x3cb62768	0.022235587
201	0xbd250a74	-0.040293172
202	0x3dc529de	0.09627126
203	0xbda9977e	-0.08280848
204	0xbd1c8554	-0.03821309
205	0xbdbe321a	-0.092869
206	0x3d938760	0.07203555
207	0x3dfd3542	0.12363674
208	0x3d6b2a30	0.05741328
209	0xbd4fd7cc	-0.05074291
210	0xbd2b9704	-0.041892067
211	0x3ddf6232	0.10907401
212	0xbdaef90c	-0.08543596
213	0x3d78e938	0.06076929
214	0xbd496fb8	-0.04917881
215	0x3d58c900	0.052926064
216	0x3cc61bb0	0.024183124
217	0x3ce2d950	0.027691513
218	0x3d0d6678	0.03452155
219	0xbdc764aa	-0.09735997
220	0x3c90fcb0	0.017698616
221	0xbd8e488c	-0.06947431
222	0x3d5d4c5c	0.0540279
223	0xbc921fa0	-0.017837346
224	0xbd6a0d44	-0.057141557
225	0xbcb6ca10	-0.022313148
226	0xbcc368b0	-0.02385363
227	0xbdd35872	-0.10319604
228	0xbc1d34a0	-0.009595066
229	0x3c2ee8e0	0.010675639
230	0x3d2c0418	0.04199609
231	0xbc86a1e0	-0.01643461
232	0xbdc0c2ce	-0.09412156
233	0xbc33f0a0	-0.010982662
234	0x3b9f44e0	0.0048605055
235	0xbdf09d62	-0.117487684
236	0xbdb19d28	-0.08672553
237	0xbccabd18	-0.02474837
238	0xbd3b5ca0	-0.04574263
239	0x3d45829c	0.048220262
240	0xbd54aeac	-0.051924393
241	0x3d68d400	0.056842804
242	0xbdee4f28	-0.116361916
243	0x3d86b38a	0.06577213
244	0xbd9892dc	-0.07449886
245	0x3d879f70	0.06622207
246	0x3d228210	0.03967482
247	0xbcbb2c00	-0.02284813
248	0xbd6ab7f8	-0.057304353
249	0xbdebd2f8	-0.115148485
250	0xbd74d8b0	-0.05977696
251	0x3dc32812	0.09529127
252	0xbdb1a852	-0.08674683
253	0x3dae7538	0.085184515
254	0x3dd07942	0.10179378
255	0xbbfe0480	-0.0077520013

fc2.bias f4 [64]
0	0x3c3b4c20	0.011431724
1	0x3c841f38	0.016128168
2	0xbd841c40	-0.06450701
3	0xbdb508be	-0.08839558
4	0xbd30a9e0	-0.043130755
5	0xbdaaccd8	-0.08339852
6	0xbde97404	-0.11399081
7	0xbd87b9dc	-0.06627247
8	0x3d087e9c	0.03332387
9	0x3dea85fa	0.11451335
10	0xbdea3b18	-0.114370525
11	0xbcfe2b68	-0.031026557
12	0xbd024a44	-0.031809106
13	0x3a9fb880	0.0012185723
14	0x3df5191e	0.11967681
15	0x3d200960	0.03907144
16	0xbba48be0	-0.005021557
17	0xbcb90f10	-0.02259019
18	0x3dd4d84c	0.10392818
19	0xbd9702e4	-0.07373598
20	0x3ddf8632	0.109142676
21	0xbdd09724	-0.10185078
22	0x3c87d3d0	0.016580492
23	0x3d0d0c84	0.034435764
24	0x3c8d19d0	0.017224222
25	0xbd3f7810	-0.04674536
26	0xbd519e54	-0.051176384
27	0x3dc8518c	0.09781179
28	0x3c9a2968	0.018818572
29	0x3db472c0	0.08810949
30	0xbd00ae98	-0.031416506
31	0xbb3e88c0	-0.0029073209
32	0xbda55a52	-0.08073868
33	0x3cd94120	0.026520312
34	0x3dd30be6	0.10305004
35	0x3ddd1dba	0.107966855
36	0x3c7ea030	0.015541121
37	0xbd0eb44c	-0.034839913
38	0xbdd5f690	-0.10447419
39	0x3d1c9534	0.03822823
40	0xbdd20792	-0.1025535
41	0x3d62e564	0.055394545
42	0x3c8f9988	0.017529264
43	0x3c92f380	0.017938375
44	0xba903480	-0.0011001974
45	0x3dda7464	0.10666731
46	0xbd2fa9d0	-0.042886555
47	0x3d1bcaec	0.03803532
48	0x3d9e28d0	0.07722628
49	0x3de3f2da	0.11130305
50	0xbd2b1474	-0.041767552
51	0x3ba68020	0.0050811917
52	0x3d85c3f6	0.06531517
53	0x3c4a4370	0.01234518
54	0x3d8d59ae	0.06901871
55	0x3d1b4834	0.037910655
56	0xbd1d3564	-0.038380995
57	0xbc9ad6b0	-0.0189012
58	0xbdee71a2	-0.116427675
59	0x3defaf60	0.11703372
60	0x3d633c44	0.055477396
61	0x3cb45908	0.02201511
62	0x3df5b97e	0.119982705
63	0x3bc49ee0	0.0060003847

fc3.weight f4 [8, 64]
0	0x3d346b64	0.04404773
1	0x3d259e64	0.040434256
2	0xbdb2d11c	-0.08731291
3	0xbd2fd614	-0.04292877
4	0x3ce7be18	0.028288886
5	0xbdb86e3e	-0.09005402
6	0x3df898a0	0.12138486
7	0x3b901900	0.0043975115
8	0xbd6a8790	-0.05725819
9	0xbc0003f0	-0.007813439
10	0x3dbc7cc2	0.09203483
11	0x3dbd38a0	0.09239316
12	0x3ddb8c9c	0.107201785
13	0xbcfe6918	-0.031055972
14	0x3d80ad3e	0.06283043
15	0x3dd85a68	0.105641186
16	0x3dfd1a54	0.12358537
17	0xbdbe9882	-0.09306432
18	0x3d60fc70	0.054928243
19	0x3d277094	0.040878847
20	0x3ca7e6e8	0.020495847
21	0xbcde8b18	-0.027165934
22	0x3c9db658	0.019251987
23	0xbdfdb9e2	-0.1238897
24	0x3d70d174	0.0587935
25	0x3c710fd0	0.014713243
26	0xbd91bd34	-0.07116166
27	0x3dc10954	0.09425607
28	0x3cd5de90	0.026107103
29	0xbde87688	-0.11350733
30	0xbc10f180	-0.008846641
31	0x3d6aba7c	0.05730675
32	0x3dfb8026	0.12280302
33	0xbbac1fa0	-0.0052527934
34	0xbdcb3fa4	-0.09924248
35	0x3df2f660	0.118633986
36	0x3ab68c80	0.001392737
37	0xbdfb3b46	-0.12267165
38	0x3d116984	0.03550102
39	0xbcc2d9d0	-0.023785502
40	0x3cd948f8	0.026524052
41	0x3ceb4348	0.028718606
42	0xbda121a4	-0.078677446
43	0xbc8bb210	-0.01705268
44	0xbc946888	-0.01811625
45	0x3c3935b0	0.011304304
46	0x3d5b8c7c	0.053600773
47	0xbdef68c6	-0.11689906
48	0xbcb6a818	-0.02229695
49	0xbdf1d998	-0.11809081
50	0x3d3035e0	0.04302013
51	0xbc02ee40	-0.007991374
52	0xbd8bba78	-0.068226755
53	0xbd058988	-0.032601863
54	0xbd47c66c	-0.048773214
55	0xbd6983e8	-0.05701056
56	0x3de9380c	0.11387643
57	0xbd582f88	-0.052779704
58	0x3d9ecee0	0.07754302
59	0xbdd6740a	-0.104713514
60	0xbd2916b4	-0.041281417
61	0x3dd24ac8	0.1026817
62	0x3dd4398e	0.1036254
63	0x3ca051b0	0.019570202
64	0xbd5cde2c	-0.053922817
65	0x3ddd50a2	0.10806395
66	0xbdadce60	-0.084866285
67	0xbd0db770	-0.034598768
68	0x3dac34a0	0.08408475
69	0x3dd8360a	0.10557182
70	0x3db86cfc	0.09005162
71	0x3c4227b0	0.011850283
72	0x3ddd543e	0.108070835
73	0x3ba06f40	0.0048960745
74	0x3d2559e0	0.040368915
75	0xbdcecbbc	-0.10097453
76	0x3de65954	0.11247507
77	0xbdcf6912	-0.101274624
78	0xbcc21be0	-0.023694932
79	0x3dbd9fa4	0.09258965
80	0x3ddbf704	0.10740474
81	0xbd5c1534	-0.05373116
82	0xbbde64c0	-0.0067869127
83	0x3de3c262	0.1112106
84	0xbdd7377c	-0.1050863
85	0xbcd964f8	-0.026537403
86	0x3d7a58c8	0.061119825
87	0xbdef9f6e	-0.11700331
88	0x3def2eb0	0.11678827
89	0xbdb7515a	-0.089510635
90	0x3d9c5450	0.07633269
91	0xbdc94bb2	-0.09828891
92	0x3dafc0d8	0.08581704
93	0xbde12dae	-0.10995041
94	0x3d48b548	0.04900101
95	0x3d381b58	0.044947952
96	0xbc465cb0	-0.012107059
97	0xbdeb769a	-0.11497231
98	0xbc09cb80	-0.008410335
99	0x3d8c4590	0.068492055
100	0xbd9bfbf4	-0.076164156
101	0x3df71880	0.1206522
102	0xbdbc6626	-0.09199171
103	0xbcaab8b8	-0.020840034
104	0x3d8e8fc4	0.06961015
105	0x3de3f90a	0.11131485
106	0xbdd83682	-0.105572715
107	0x3dfdcf6a	0.12393077
108	0x3ce20fc8	0.027595416
109	0xbdf82d8a	-0.12118061
110	0x3ce89f28	0.028396204
111	0x3df38da2	0.11892249
112	0x3d5cf7e8	0.05394736
113	0xba7f4600	-0.0009737909
114	0x3d9ffe34	0.07812157
115	0x3d311d4c	0.04324083
116	0x3d9a29bc	0.075274915
117	0xbd9d3044	-0.076752216
118	0x3c5056a0	0.0127159655
119	0x3d947940	0.07249689
120	0x3d6e1700	0.058127403
121	0xbacf4700	-0.0015814006
122	0xbdb41db6	-0.087947294
123	0x3de92b16	0.11385171
124	0xbdfb01aa	-0.12256177
125	0xbd9cb61e	-0.076519236
126	0x3bf718a0	0.0075407773
127	0xbdbd330a	-0.092382506
128	0x3dd4b28c	0.103856176
129	0xbc1a8a80	-0.009432435
130	0x3ca22080	0.019790888
131	0xbd7463c8	-0.05966547
132	0xbdfa1d0c	-0.122125715
133	0x3cbff3e8	0.023431733
134	0xbcf9bf98	-0.030486867
135	0xbc3df580	-0.011594176
136	0xbd7cf89c	-0.06176053
137	0x3db41cf6	0.08794586
138	0xbc30a980	-0.010782599
139	0x3dd12202	0.102115646
140	0xbd2cf864	-0.04222907
141	0x3d9ab36a	0.07553752
142	0x3dc1e828	0.094681084
143	0x3d2074dc	0.039173946
144	0x3d1a4b80	0.03766966
145	0xbd5607f4	-0.05225368
146	0xbd5fcb68	-0.054637343
147	0xbdf15480	-0.11783695
148	0xbcd2c758	-0.02572982
149	0xbd43254c	-0.04764299
150	0x3b2c9640	0.0026334673
151	0x3d5c764c	0.053823754
152	0x3d6045cc	0.054754063
153	0xbdda8fc6	-0.10671954
154	0x3dfe99be	0.12431668
155	0x3dbfa3f8	0.093574464
156	0xbdd7b2d0	-0.10532153
157	0xbd71846c	-0.058964178
158	0xbda9f108	-0.08297926
159	0xbdfab714	-0.12241951
160	0x3dd79a14	0.10527435
161	0xbdb0223c	-0.0860028
162	0xbd8c038a	-0.068366125
163	0x3d4eed90	0.050519526
164	0xbd28f250	-0.041246712
165	0xbcd4b060	-0.025963008
166	0xbbdc1320	-0.006716147
167	0xbdc0e862	-0.094193235
168	0x3dc79838	0.0974583
169	0x3d4df9b4	0.050286964
170	0xbdcc7e18	-0.09984988
171	0x3c692780	0.014230609
172	0xbcd71ff8	-0.026260361
173	0x3d8d07a4	0.06886223
174	0xbcc9b4f0	-0.02462241
175	0xbd93de5a	-0.072201446
176	0x3cf246e0	0.029574811
177	0xbcd94ce8	-0.02652593
178	0xbcfa91e0	-0.030587137
179	0x3dbf393a	0.09337087
180	0xbd4f1638	-0.0505583
181	0xbd7afe84	-0.06127788
182	0x3ce66128	0.0281225
183	0xbd4301b4	-0.047609046
184	0x3dbe7a12	0.09300627
185	0x3ceda510	0.029009372
186	0xbd8b8644	-0.068127185
187	0x3c609ce0	0.013709277
188	0x3cfd3a60	0.030911624
189	0x3ddd4986	0.10805039
190	0xbb830080	-0.0039978623
191	0xbdaee2a6	-0.085393235
192	0x3cef0f68	0.029182151
193	0xbd1cd5b0	-0.038289726
194	0x3da03d8a	0.07824238
195	0xbd1d46bc	-0.038397536
196	0xbdab71fc	-0.0837135
197	0xbdc3b050	-0.09555113
198	0x3da060fa	0.07830997
199	0x3c6a4df0	0.014300808
200	0xbdc117c2	-0.094283596
201	0x3cc0ac00	0.023519516
202	0x3c7078a0	0.014677197
203	0x3d079bbc	0.033107504
204	0xbdd1751a	-0.102274135
205	0xbdf81710	-0.12113774
206	0xbdde4d74	-0.10854617
207	0x3c807120	0.015678942
208	0x3d7be834	0.061500743
209	0xbde8258e	-0.11335288
210	0x3d5a46a4	0.053290024
211	0xbb80dd80	-0.003932655
212	0xbddb59da	-0.10710497
213	0x3dc7dcd2	0.09758915
214	0xbdca06fc	-0.098646134
215	0x3d92101e	0.0713198
216	0x3dc4393c	0.09581229
217	0x3cc26990	0.023731977
218	0xbdc5c2ae	-0.09656273
219	0xbcd76288	-0.0262921
220	0x3de88e48	0.11355263
221	0xbdb2d3b0	-0.087317824
222	0x3dd8b988	0.10582262
223	0xbd92e858	-0.07173222
224	0xbd71fc14	-0.05907829
225	0xbd8995c4	-0.06718019
226	0xbc61c0f0	-0.01377891
227	0xbd915698	-0.070965946
228	0xbdc86ca4	-0.097863466
229	0xbcd7f8d8	-0.026363775
230	0x3dc72fb2	0.09725894
231	0xbd847974	-0.06468478
232	0x3d2261f0	0.03964418
233	0x3db3c5f2	0.087779894
234	0x3d62d310	0.055377066
235	0x3cefdbc0	0.02927959
236	0x3d4de47c	0.050266728
237	0x3d2b6610	0.04184538
238	0x3c8e83d8	0.017396852
239	0x3de28d68	0.11062127
240	0xbd0d6c3c	-0.03452705
241	0xbc566db0	-0.013087675
242	0x3d901016	0.07034318
243	0x3c0d7ae0	0.008635253
244	0xbdc34dba	-0.095363095
245	0x3c8bb038	0.017051801
246	0xbdc3857c	-0.095469445
247	0x3deae9dc	0.114703864
248	0x3ca2e030	0.019882292
249	0x3b80d1a0	0.0039312392
250	0x3dd58e48	0.104275286
251	0xbd38e280	-0.045137882
252	0xbd710ad8	-0.058848232
253	0x3d915ee2	0.070981756
254	0xbc837790	-0.016048223
255	0x3d92c498	0.071664035

fc3.bias f4 [8]
0	0xbc827520	-0.01592499
1	0xbda007ea	-0.078140095
2	0xbab57b00	-0.0013845861
3	0x3c870da8	0.016486004
4	0xbda93002	-0.0826111
5	0xbdb6e258	-0.089298904
6	0xbd753118	-0.059861273
7	0xbddb178c	-0.106978506
