saves/final_ai_memory_player_1_emotion.pth (torch, 15425 bytes, 6 tensors)

fc1.weight f4 [64, 10]
000000 76 c9 46 3e ed 08 3e be ac 51 45 be f5 8f 95 3e
       0.19412789 -0.18558092 -0.19269437 0.29211393
000010 9e 7c 8b be f4 14 f5 bd ae 62 1f be c0 79 60 be
       -0.27243513 -0.11966887 -0.15564987 -0.21921444
000020 44 5d f4 3d 22 e2 3b be fa d4 b1 bd 64 ca ab bd
       0.119318515 -0.18347982 -0.086832 -0.08388212
000030 f8 c0 31 be e5 a9 99 3e ea 16 70 3e 28 8d d1 bd
       -0.17358768 0.30012432 0.23446241 -0.102320015
000040 62 1f 97 bd 1b 45 94 3e 60 9c 43 be e0 02 15 bd
       -0.07379033 0.28958973 -0.19102621 -0.036379695
000050 8a 2a f9 bd 4c fc b1 3d 20 d5 f0 bd 22 d4 ef bd
       -0.12166317 0.086907 -0.117594 -0.11710383
000060 2a 2b 40 3e a0 2d 42 bc 18 d0 35 bd 84 65 fc bd
       0.18766466 -0.011851698 -0.044387907 -0.1232405
000070 1b 34 8a be 58 e7 23 bd 5e 68 4b 3e cc 70 b7 3d
       -0.26992878 -0.04001555 0.19864032 0.08957061
000080 60 f7 27 3e 74 19 15 3e 5b f7 8f 3e 00 d2 51 bc
       0.1640296 0.14560491 0.28118405 -0.012806416
000090 40 75 6a bd 70 75 e4 bd 49 1e 92 be 77 4d 21 be
       -0.057240725 -0.11155212 -0.2853873 -0.15752207
0000a0 ec 81 a5 3d 4b cb 31 be 30 5a 4a be e8 9c fa 3d
       0.08081421 -0.17362706 -0.19760966 0.12236959
0000b0 00 6b b2 bb c6 15 4f 3e 78 06 15 3e 2b 5f 8b be
       -0.0054448843 0.2022315 0.14553249 -0.27221045
0000c0 af bd 12 be 48 d6 19 3e 54 9c e4 bd 40 e7 96 bd
       -0.14330171 0.15023148 -0.1116263 -0.07368326
0000d0 08 dd 3e bd 6b 10 5a be 54 35 ff bd 1d 4d 90 3e
       -0.04659751 -0.21295325 -0.124613434 0.28183833
0000e0 10 25 de 3d 80 52 29 bd 2b d5 1c be 00 ac 68 3c
       0.10846913 -0.041338444 -0.15315692 0.014201164
0000f0 95 7b 97 be 15 3c 7e be d6 25 24 3e 77 3b 85 3e
       -0.29586473 -0.24827607 0.16030058 0.2602193
000100 80 a3 24 3b 5c a5 89 be 00 1b 85 bd 58 95 10 be
       0.0025121868 -0.26883972 -0.064992905 -0.1411947
000110 ae 1c 83 be 80 d9 23 be db 40 56 be e2 ea 44 be
       -0.25607818 -0.16000938 -0.20923178 -0.19230226
000120 62 0c 81 be 64 52 09 3e 4c 67 04 be 18 a1 30 3e
       -0.2520476 0.13410336 -0.1293003 0.17248952
000130 43 08 1c be 14 ac 33 3e 73 ba 35 be b6 42 84 be
       -0.15237527 0.17546111 -0.17746906 -0.25832146
000140 3a b1 4f 3e 62 c6 09 3e 00 55 a6 bd 94 f8 20 3e
       0.2028245 0.13454583 -0.08121681 0.15719825
000150 cc cb 22 be b0 84 9a be 35 06 96 be b6 d8 b4 bd
       -0.15898055 -0.30179358 -0.2930161 -0.08830397
000160 e7 53 89 3e 9a 51 72 be 59 68 18 be 41 d1 24 be
       0.26821825 -0.23663941 -0.14883555 -0.16095449
000170 64 8d 8d bd 26 3b 23 3e 00 4a 4b 3b 60 0c 6e bd
       -0.06911734 0.15940532 0.003101945 -0.05811727
000180 6e 51 eb bd e8 2b 96 be 89 41 97 3e 1a b8 12 be
       -0.11490141 -0.29330373 0.29542187 -0.14328042
000190 40 23 12 3d 72 fe 31 3e 64 ff f3 3d 11 07 96 3e
       0.03567815 0.1738222 0.11913946 0.29302266
0001a0 e0 47 36 3e 2e 88 76 3e a0 0a 8b bc ae 2f 3a 3e
       0.17800856 0.24075386 -0.01697284 0.18182251
0001b0 1a 38 89 bd 24 41 6b be ac 4d e7 3d 05 66 94 3e
       -0.06700154 -0.22974068 0.112941116 0.28984085
0001c0 d0 fb 96 be bb a4 2f be bb a4 94 be f0 b1 fd bc
       -0.29488993 -0.17152683 -0.2903193 -0.030968636
0001d0 95 d1 30 be 0d 55 84 3e 37 dc 9d 3e 7c 69 db bd
       -0.17267449 0.2584614 0.30832073 -0.10713479
0001e0 6a 31 5a 3e ba 09 74 3e ec 21 a1 be d8 ad 6c 3d
       0.21307912 0.23831835 -0.31471193 0.057782978
0001f0 7b 16 0a be e3 8c 95 be 24 4d 33 be ad b1 87 3e
       -0.13485138 -0.2920905 -0.17509896 0.26502743
000200 90 6e f7 3c 3a b9 81 be 80 a2 00 3c 68 7c 56 3d
       0.030204087 -0.2533663 0.007851243 0.052364737
000210 06 aa 71 3e ec 23 98 be e4 a8 cf bd 00 cc 4e 3c
       0.23600015 -0.29714906 -0.10139635 0.01262188
000220 be 32 2f be f0 08 10 3d c0 72 7f 3c 50 24 f3 bd
       -0.171092 0.035164773 0.015591323 -0.118721604
000230 50 7b 72 3d 00 80 d4 38 5e c5 45 be 60 63 60 3c
       0.05919963 0.000101327896 -0.19313571 0.013695568
000240 ae 5c 9c bd 24 08 71 be 88 84 2f 3d c0 1f da 3c
       -0.07634865 -0.23538262 0.042851 0.026626468
000250 ee 4b 52 3e 00 47 25 bc 0a a6 17 3e 9a 1e 15 be
       0.20536777 -0.0100877285 0.14809433 -0.14562455
000260 1a d5 f5 bd 3e 14 f5 bd 30 a7 d8 3c 41 71 8f 3e
       -0.120035365 -0.119667515 0.026446909 0.28016093
000270 88 f2 0d bd b8 47 97 bd 42 25 1e 3e 8c 57 c1 3d
       -0.034655124 -0.07386726 0.154439 0.09440526
000280 34 83 2f be ba d0 93 be 44 ae 23 3e f6 0f 8f bd
       -0.17139894 -0.28870183 0.15984446 -0.06985466
000290 e8 ed 4d bd 68 c3 5d 3d 90 cc e0 3c 00 df 45 3c
       -0.050275713 0.054141432 0.027441293 0.012077093
0002a0 0e a2 63 3e 94 0b 93 bd 60 69 6c bd c8 f5 33 be
       0.22229788 -0.07179943 -0.05771768 -0.17574227
0002b0 92 a0 76 3e 89 97 9c be de 10 9b be e8 fa 35 3d
       0.2408469 -0.30584362 -0.30286306 0.044428736
0002c0 b7 de 9f 3e fc 77 94 be e0 6c e6 3d 00 16 34 bb
       0.31224605 -0.2899779 0.11251235 -0.0027478933
0002d0 4f d9 8b 3e 66 02 0a be 02 5b 09 3e fa 0c 66 3e
       0.2731423 -0.13477477 0.13413623 0.22465888
0002e0 a0 29 d9 3d 1c 52 1c 3e ef 73 3c be fe e8 2b be
       0.106036425 0.15265697 -0.184036 -0.16788098
0002f0 8c 47 7d be 28 d2 54 3d a2 40 88 bd d8 56 ba 3d
       -0.24734324 0.051958233 -0.06652953 0.090985954
000300 44 4c e3 3d c0 ea 9a be b1 4e 91 be 40 e6 c1 3b
       0.11098531 -0.30257225 -0.2838035 0.0059173405
000310 c0 82 79 be 69 3a 8d be f0 b5 27 bd 5a 6f 34 3e
       -0.24366283 -0.27583626 -0.040944993 0.17620602
000320 52 ab 2d 3e fa 2c 58 3e 80 32 12 bc f6 51 b4 bd
       0.16959885 0.21110907 -0.008923173 -0.08804695
000330 ca 83 4f 3e 3a 9f 91 be 00 2e 6c ba 26 9c ac bd
       0.20265117 -0.28441793 -0.000900954 -0.084282205
000340 56 e8 0d 3e 18 b2 d1 bd 88 03 8a 3d 30 23 98 3d
       0.1385816 -0.10239047 0.06738955 0.074285865
000350 44 9c e0 3d 00 bb bc 3c 50 89 e8 3c 9c c6 d0 3d
       0.10967305 0.023038387 0.028385788 0.10194132
000360 fa 4f 4f 3e f0 bd 4d be 6c 02 30 3e 67 d1 83 be
       0.20245352 -0.20091987 0.17188424 -0.257457
000370 ab 9f 55 be 34 32 e4 3d 56 da 45 3e 08 91 33 3d
       -0.2086169 0.11142388 0.1932157 0.043839484
000380 e4 21 85 be 58 2c 6c bd 29 ff 25 be de 2c 98 bd
       -0.2600242 -0.057659477 -0.16210617 -0.07430433
000390 43 04 92 3e 00 6e 5f bd 20 a1 93 3d 02 e3 2b 3e
       0.28518876 -0.054548264 0.072084665 0.16785815
0003a0 78 d6 bf bd f3 82 93 3e c0 a5 84 3d 06 32 89 be
       -0.093670785 0.28810844 0.06476927 -0.26795977
0003b0 9e c0 2a 3e 83 7a 8b 3e 69 f3 9b be 3b e4 94 3e
       0.1667504 0.27241907 -0.30459145 0.29080376
0003c0 00 ef e7 bb ef 34 9d 3e 40 31 dd bb bc 5d d0 bd
       -0.0070780516 0.30704448 -0.006750256 -0.101741284
0003d0 36 ae 2f 3e 08 fa 67 bd cd 1b a1 3e be f0 1f 3e
       0.171563 -0.056634933 0.31466523 0.1561918
0003e0 83 ec 94 be 9e dd 9e bd c0 5a d0 3d cf 04 8a 3e
       -0.29086694 -0.07757114 0.10173559 0.26956794
0003f0 7e d9 4d 3e 7c 9a 83 3d a4 4c 2d be fe fb e7 bd
       0.20102498 0.0642595 -0.16923767 -0.113273606

fc1.bias f4 [64]
000000 9e 62 8d bd eb e7 77 be 08 30 7b bd 52 95 35 3e
       -0.06903575 -0.24209563 -0.061325103 0.17732742
000010 1e da c8 bd 62 53 68 3e e4 06 85 bd c3 f2 8a be
       -0.098072276 0.22688058 -0.06495455 -0.27138337
000020 00 ec 7b bb 58 77 96 be 36 12 4a 3e b0 81 2f 3e
       -0.0038440228 -0.29387927 0.1973351 0.17139316
000030 36 95 36 3e 3c 53 f2 3d 22 7b 56 3e 80 16 1f 3d
       0.17830357 0.11832282 0.20945409 0.038839817
000040 f4 84 3c be 48 70 5e 3d a4 d8 2d 3e 72 24 22 3e
       -0.18410093 0.0543063 0.16977173 0.15834215
000050 e0 02 93 bc 1a df 79 3e 92 66 4b 3e f8 39 cf 3d
       -0.017945707 0.24401513 0.19863346 0.101184785
000060 b0 c0 4b 3d 87 c4 8f 3e a5 43 95 3e 1c ed e3 3d
       0.049744308 0.28079626 0.2915317 0.111292094
000070 ba 95 93 bd 60 a5 d3 3c 48 a8 1e 3e e0 80 34 bd
       -0.072062925 0.025835693 0.15493882 -0.044068217
000080 ac ed ec bd a0 ad c6 3c fc 1a 3c 3e fa 60 65 3e
       -0.1156877 0.024252713 0.18369669 0.22400275
000090 a6 de 8c be 40 25 b3 bd b2 92 20 be cc c0 36 3e
       -0.27513617 -0.08747339 -0.1568096 0.17846984
0000a0 fa 44 54 be 78 35 4a be 18 ac 7a bd 40 6a 0c 3e
       -0.20729437 -0.19746959 -0.061199278 0.13712406
0000b0 d0 ee 09 be a0 8b 98 3d ba ba 96 bd 59 8d 9b be
       -0.13470006 0.07448506 -0.07359834 -0.30381277
0000c0 70 4d 26 bd 83 0f 98 3e 84 26 32 be b3 81 87 3e
       -0.040601194 0.29699335 -0.17397505 0.2646614
0000d0 56 f7 f9 bd 37 ef 97 3e 00 85 75 bb 30 2a 6e 3d
       -0.12205379 0.29674694 -0.0037463307 0.058145702
0000e0 e8 b4 27 3d 80 be b0 3d 97 a4 62 be 9a fd 07 3e
       0.04094401 0.08630085 -0.22133099 0.13280335
0000f0 b0 db 97 3c 4c b3 cd 3d f9 af 85 be 34 5f fe bd
       0.018537372 0.10043964 -0.2611082 -0.12420502

fc2.weight f4 [32, 64]
000000 f0 ed 45 3c b6 df 94 3d ac be 2e 3d 48 68 99 bc
       0.0120806545 0.07269232 0.042662308 -0.018726483
000010 96 18 86 3d f0 1d eb bc 08 c1 ac 3c 60 a5 bd bc
       0.06547658 -0.028700799 0.021088138 -0.023150146
000020 98 f1 be bc 8c 8b 60 3d e4 a5 7c bd 30 f0 53 bc
       -0.02330856 0.054820582 -0.061681643 -0.012935683
000030 ca 65 cb bd c4 33 87 bd 3e 26 8f bd e8 80 21 3d
       -0.09931524 -0.066016704 -0.06989716 0.039429575
000040 a0 a1 f6 3d 80 c8 05 3c 42 e2 8b bd 00 08 38 3b
       0.12042546 0.008165479 -0.06830265 0.002808094
000050 9a 48 e3 bd 14 1e d0 bd ce 89 a5 bd d0 c6 14 3d
       -0.11097832 -0.10161987 -0.08082925 0.036322415
000060 f0 f0 bd 3d 64 7b a3 bd 80 96 69 3c 0c 4a db bd
       0.09274471 -0.07982519 0.014257073 -0.10707483
000070 28 4e bb 3d c8 69 8c 3c 14 a5 a5 bd 00 31 d6 3c
       0.091457665 0.017140284 -0.08088127 0.026146412
000080 88 e8 fa bc 30 e5 92 bc cc 29 5b 3d 90 15 60 3c
       -0.030628458 -0.01793155 0.053506657 0.013677016
000090 72 ee ed 3d 40 06 cf bc 50 f4 a6 3c 5c 93 04 3d
       0.116177455 -0.025271535 0.02038017 0.032367095
0000a0 bc bf 68 3d f4 a8 48 3d f6 31 e7 3d 04 d3 e7 3d
       0.056823477 0.04898925 0.11288826 0.11319545
0000b0 58 9d 69 bd 98 99 ee 3d da ef c5 bd bc 78 64 3d
       -0.05703482 0.116503894 -0.09664889 0.055779204
0000c0 90 6d e5 3d 38 ca 7b bd 5c 84 d1 bd c8 d7 b2 bd
       0.11202538 -0.061472148 -0.10230324 -0.08732563
0000d0 d8 2d 79 3d d8 f3 92 3c 98 7d f5 3d f0 7c a8 bd
       0.060834736 0.01793854 0.11986846 -0.08226955
0000e0 80 49 a7 bb a8 17 e2 bd c0 2c 16 3d 48 c0 c5 bd
       -0.0051051974 -0.11039668 0.03666377 -0.09655815
0000f0 40 45 f2 3d 16 88 e5 3d 26 71 ff 3d 6c 7d 52 3d
       0.11829615 0.11207597 0.12472753 0.051389143
000100 6c 86 aa bd f6 2d b8 3d 06 5c 85 bd 00 74 47 bb
       -0.0832642 0.08993141 -0.06511693 -0.0030434132
000110 c8 20 d0 3c 40 1c 02 bc f0 d3 a4 bd be 40 89 bd
       0.025406256 -0.007941306 -0.08048236 -0.06701802
000120 ac c0 33 bd 18 70 57 3d 50 04 4a 3c 8c 66 82 bd
       -0.043884918 0.052597135 0.01233013 -0.063672155
000130 8e 9d ba bd 52 d8 bb 3d 1a 57 ba 3d 5c 44 3b 3d
       -0.091120824 0.09172119 0.090986446 0.04571949
000140 fe 4b a3 3d 16 77 b5 bd 28 6b bc 3d c0 53 e7 bc
       0.07973479 -0.088606045 0.09200126 -0.028238177
000150 f8 79 78 bd 58 2e fe bd 00 61 a8 bd 38 57 80 bc
       -0.060663193 -0.12411183 -0.08221626 -0.01566659
000160 68 2e d6 bc b0 ef 1b bc b0 3a 05 bd cc c2 94 bd
       -0.026145175 -0.009517595 -0.032526672 -0.07263717
000170 84 82 c8 bd 5c ce 5b bd 9e 6b 89 3d c8 e1 6d bd
       -0.09790519 -0.053663597 0.067099795 -0.05807665
000180 22 a9 c6 3d 4c c7 d6 bd c0 ad 4f 3b da ce b3 3d
       0.09700228 -0.104872316 0.0031689256 0.08779688
000190 38 cb b1 3d 88 6b 8a bd 0a f0 c4 3d ee c7 e8 bd
       0.08681339 -0.06758791 0.09616096 -0.113662586
0001a0 f8 50 73 bd 4c 29 f9 3d 10 82 af bd 3c 8f 61 bd
       -0.05940339 0.1216608 -0.08569729 -0.05506824
0001b0 e8 e9 b8 bd 1c b8 08 bd 4c fc b5 bd 98 d3 35 3d
       -0.09028989 -0.033378705 -0.088860124 0.044391245
0001c0 2e 39 e9 3d 04 8b 69 bd 08 4d df 3d e2 bd b3 3d
       0.11387859 -0.05701734 0.109033644 0.08776452
0001d0 a8 6a 37 3d be 51 ce bd 54 7d 58 bd 50 5b ff 3c
       0.04477945 -0.10074185 -0.052853897 0.03117147
0001e0 b0 c1 d3 3c 46 b9 e4 3d 5a 27 af bd a0 06 ff bb
       0.025849193 0.111681506 -0.085524276 -0.007782772
0001f0 c0 8b 77 3b 00 65 b3 3a 34 d6 69 bd 20 5d 62 3d
       0.0037772506 0.0013686717 -0.057089046 0.055264592
000200 86 3f e1 bd c6 7a b5 bd 5c c3 1b 3d 92 05 b0 bd
       -0.10998444 -0.08861308 0.038028106 -0.085948125
000210 c4 2c dc 3d 80 a7 bd 3b 50 62 ca bd 40 a6 f6 3b
       0.10750726 0.00578779 -0.09882033 0.0075271428
000220 40 5c fb bc 08 e0 65 3d f0 ff 4a bd 10 b6 af bd
       -0.030683637 0.056121856 -0.049560487 -0.085796475
000230 70 4e 9b bc aa ec e4 3d 4c 85 54 bd 94 77 e4 bd
       -0.0189583 0.111779526 -0.051884934 -0.1115562
000240 e0 04 b8 bd 50 8f 67 3c 68 c3 82 3d 20 9c 7d 3c
       -0.08985305 0.014133289 0.06384927 0.015479118
000250 24 00 9e 3d 78 c3 87 bd 68 85 97 3c 68 83 77 bd
       0.077148706 -0.066290796 0.01849623 -0.060428053
000260 48 53 55 3d b6 ed eb bd 90 a5 4e 3c 08 27 59 bd
       0.052081376 -0.11519949 0.012612715 -0.05301574
000270 2c f6 7c bd be 33 f2 3d 60 58 9d 3c b0 24 a5 3c
       -0.061758205 0.11826275 0.01920718 0.020159096
000280 80 f9 f0 3c e0 46 b2 3c 08 88 b6 3c 60 fb bc bc
       0.029415846 0.021762311 0.022281662 -0.023069084
000290 50 45 5a 3c 22 50 91 bd 92 74 e7 3d a0 a9 e8 bd
       0.013322189 -0.07095362 0.11301531 -0.113604784
0002a0 00 54 4d 3a ac b7 b3 bd 3a 4f 81 bd 80 82 09 3c
       0.00078326464 -0.08775267 -0.063139394 0.00839293
0002b0 6c ed da 3d 0a 22 d3 3d ae 2d a6 bd 50 6a 57 bd
       0.10689816 0.10309227 -0.081141815 -0.052591622
0002c0 8c 05 9f bd c0 b4 17 3d f8 51 01 3d 5e 1d a6 bd
       -0.0776473 0.03703761 0.031572312 -0.0811107
0002d0 64 ee dd bd 0c 63 dc 3d f2 43 d4 3d c8 6f 73 bd
       -0.10836485 0.10761079 0.10364522 -0.059432775
0002e0 aa 6b ff 3d 0c d0 02 3d d2 a2 f7 3d 32 d6 8d 3d
       0.12471707 0.03193669 0.120916024 0.0692562
0002f0 14 13 5e bd d4 53 ea 3d 8c 32 22 3d 40 72 8e bc
       -0.054217413 0.1144177 0.039598987 -0.017388463
000300 08 7e 88 3c be 32 8e bd 20 5a bb bd 7c 67 1d bd
       0.016661659 -0.06943272 -0.09148049 -0.03842877
000310 ea 44 85 bd e0 0d 30 3c ce 3c e4 3d 8c 57 77 3d
       -0.06507285 0.010745496 0.1114441 0.060386226
000320 14 be 6d bd 56 bb 98 3d 68 76 83 3d 20 f0 85 bd
       -0.0580426 0.074576065 0.064190686 -0.06539941
000330 34 75 25 bd 7c 92 7a 3d dc e4 e3 3d f4 f8 41 3d
       -0.040394977 0.061174855 0.11127636 0.04735656
000340 ca 54 9b 3d 40 73 c0 bc 7a 4e ae bd 80 05 cf bb
       0.075845316 -0.023492455 -0.08511062 -0.0063177943
000350 00 78 ca b9 6a f0 f6 bd e0 89 4c bc 40 cb 4d bc
       -0.0003861785 -0.12057574 -0.012484044 -0.012560666
000360 d8 59 b7 bc e8 ff 97 bc aa f7 de 3d 10 9b 96 3d
       -0.022381708 -0.018554643 0.10887082 0.073537946
000370 66 d5 83 bd 7c b4 2f bd 60 d8 b2 bd 80 7b f8 bb
       -0.06437187 -0.042896733 -0.087326765 -0.0075830817
000380 9e 00 db 3d dc 7f ab bd 58 5e e0 3d 96 a5 92 bd
       0.10693477 -0.083739966 0.10955495 -0.07160489
000390 00 12 de 3c 80 39 21 bd de a8 cb bd 9c 11 25 bd
       0.027108192 -0.039361477 -0.09944318 -0.040299997
0003a0 da 7f ae 3d 48 42 ef bd 0c 89 f3 bd 08 73 50 3d
       0.085204795 -0.11682564 -0.11891374 0.050890952
0003b0 62 7a e6 3d e0 9f 9d 3c 30 64 fc 3c cc 8e b0 bd
       0.112538114 0.019241273 0.030809492 -0.08620986
0003c0 7c 8e 2c 3d 6c 25 2b 3d 40 90 40 3d e8 7a 02 bd
       0.04212807 0.041783735 0.047012568 -0.031855494
0003d0 60 95 bf 3b 2c 66 f1 3d 60 f9 71 3d 50 b0 8a 3d
       0.0058466643 0.11787066 0.059075713 0.0677191
0003e0 e0 a4 bd 3d a4 47 c8 3d a8 f5 2c 3d 64 d9 8f 3d
       0.09259963 0.09779289 0.042226464 0.07023886
0003f0 e4 71 f3 3d cc 9a 3e 3d 10 75 2f bc b0 86 65 bc
       0.11886957 0.046534345 -0.010709062 -0.014009163

fc2.bias f4 [32]
000000 e8 48 fd bc 2a 6f be 3d 52 56 cf 3d a0 96 a5 3d
       -0.030918553 0.092985466 0.10123886 0.0808537
000010 72 a6 b0 bd 2e 0f bd bd f8 fe 50 bd 92 4c d8 3d
       -0.08625497 -0.09231411 -0.051024407 0.1056148
000020 28 f4 5d 3d 50 ef f2 3c fa ee e0 3d d4 b7 19 bd
       0.054187924 0.029655129 0.10983081 -0.037528828
000030 c4 49 04 bd fc d6 15 3d e4 7b b6 3d f8 37 dc bc
       -0.03229691 0.03658198 0.08910349 -0.026882157
000040 1c cc f4 3d 74 19 37 3d f0 9d fd 3d 18 27 88 bd
       0.11952993 0.04470201 0.1238364 -0.066480815
000050 cc 45 b6 bd 9c 97 ff 3d 8e 3e fa bd f4 00 00 bd
       -0.089000314 0.12480089 -0.122189626 -0.03125091
000060 70 2b d1 bc 08 dc 1a 3d 56 7c ba bd e8 a3 a8 3d
       -0.025533408 0.037807494 -0.091057464 0.08234388
000070 c4 e8 f1 3d 44 69 8b bd 50 cb b7 3c dc 23 3a 3d
       0.11811975 -0.06807187 0.022435814 0.045444354

fc3.weight f4 [7, 32]
000000 c8 29 86 3d a4 e3 1a be ae 16 f6 3d 9b 1b a3 bd
       0.06550938 -0.151259 0.120160446 -0.0796425
000010 cc e2 92 3d e2 62 9c 3d f4 ee d5 bd 71 01 0c 3e
       0.07172164 0.07636048 -0.10445967 0.13672425
000020 c2 19 f4 3d c5 f6 2b 3e 68 ed dc bc c4 c0 08 bd
       0.119189754 0.16793354 -0.026968673 -0.03338696
000030 02 48 0a be c2 5b 97 3d 17 47 eb bd 9b 3c ed bd
       -0.13504031 0.07390548 -0.11488169 -0.11583825
000040 00 7b 6a bb f8 a2 2d 3d 65 6f 9b bd 78 66 67 3d
       -0.003577888 0.042391747 -0.07589606 0.056494206
000050 08 b0 9b bc 0f a7 8c bd 89 00 24 3e 2f 4e 17 3e
       -0.019004837 -0.068678014 0.16015829 0.14775918
000060 f4 e6 70 3d a8 32 77 bd d4 5a 8d bd c5 40 c5 bd
       0.058814004 -0.060351044 -0.0690209 -0.096314944
000070 90 28 6f bc 23 20 d5 bd 9a 1f f9 3d 1a 85 f0 3d
       -0.014597073 -0.1040652 0.12164231 0.11744137
000080 f0 7a 26 bc 3d 15 1f be c9 cc 0c 3e e0 cf 2f 3c
       -0.0101611465 -0.15535446 0.13749994 0.010730714
000090 f8 56 3b bd 60 56 cd 3b 50 b2 5d 3c 18 ea 6b 3d
       -0.045737237 0.0062664 0.013531283 0.057596296
0000a0 7d c4 24 be 20 86 9d 3c ea f0 23 be 50 0b 95 3c
       -0.1609058 0.019228995 -0.1600987 0.01819387
0000b0 8b 55 0d be 46 32 b1 3d 7a bf ba 3d 2a be f8 3d
       -0.13802163 0.08652167 0.091185525 0.12145646
0000c0 b0 5a 99 3c 74 a5 26 be 12 83 72 bd 2a 18 0e be
       0.018720001 -0.16274053 -0.05920703 -0.13876405
0000d0 24 38 2f bd 28 3c 87 3c 28 a9 e7 bd e6 c9 9c bd
       -0.04277815 0.016508177 -0.11311561 -0.076556966
0000e0 ba 9b 9d 3d 00 53 ec bc 68 65 8a 3c 3a e3 73 bd
       0.07695718 -0.028848171 0.016894057 -0.059542872
0000f0 25 0a 2a 3e c8 f4 87 3d 47 70 05 be 2c d3 71 3d
       0.16605432 0.06638485 -0.13031112 0.05903928
000100 c8 75 7b bd 2c 04 15 bd a1 10 17 be 4b fe 0c be
       -0.06139162 -0.03638093 -0.14752437 -0.1376888
000110 44 4f 2f bd a3 4e b4 bd b0 5c 3f bc ea 90 10 be
       -0.042800203 -0.08804061 -0.011679813 -0.1411778
000120 fe cd b5 3d 26 52 d8 bd b0 46 3e 3d 16 98 80 bd
       0.088771805 -0.105625436 0.04645413 -0.06279008
000130 ae 52 94 3d ee 67 b9 3d 2c dc a7 bd 15 fa 16 3e
       0.072423324 0.09053026 -0.08196291 0.14743836
000140 20 84 e1 3b 5e ea a6 3d 35 21 90 bd b1 46 93 bd
       0.0068822056 0.08150171 -0.07037584 -0.07191218
000150 10 4d 76 3c fb c3 0c 3e a1 58 fd bd 28 4d f8 bc
       0.015033022 0.13746636 -0.1237042 -0.030310228
000160 a8 10 04 be 9b b3 95 bd ad b4 06 be c6 23 bb 3d
       -0.12896979 -0.07309648 -0.1315486 0.091376826
000170 fb 17 0d be 18 55 db bd 02 ef b6 bd cb b9 23 3e
       -0.13778679 -0.1070959 -0.08932306 0.15988843
000180 a6 f4 e1 3d 77 1c e7 bd 90 20 82 3c 2b eb 25 3e
       0.11032991 -0.11284726 0.015884668 0.1620299
000190 7b 17 27 be d6 91 c0 bd b0 c6 79 3c f6 e4 8f bd
       -0.16317551 -0.09402816 0.015245125 -0.07026093
0001a0 43 1a 0f 3e d6 05 86 3d bc 39 71 3d 05 0e 32 3e
       0.13974862 0.06544082 0.05889295 0.1738816
0001b0 c0 12 83 bb 90 78 24 bd a2 e6 a5 3d 23 99 97 bd
       -0.004000038 -0.04015404 0.0810063 -0.074022554
0001c0 52 de 57 bd ce f9 b2 3d f4 68 3a bd 2e b0 d3 3d
       -0.052702256 0.08739053 -0.045510247 0.10336338
0001d0 da b1 91 3d 20 ca 66 bc 0e 13 df 3d 34 26 57 3d
       0.071140006 -0.014086276 0.10892306 0.052526668
0001e0 60 b9 5d 3d da d9 05 be e7 61 ca bd 64 49 55 bd
       0.054131866 -0.13071385 -0.09881955 -0.052071944
0001f0 00 fb 6d 3d de 52 2b be 8c 8f 45 bd bf 5f 27 3e
       0.0581007 -0.1673083 -0.0482326 0.16345118
000200 20 e9 f7 bb c6 a8 aa 3d 55 cb 05 3e f6 cd 96 3d
       -0.0075656325 0.08332972 0.13065846 0.07363503
000210 8a bc ee 3d a2 73 1e be a9 f9 33 3e 0a 62 08 be
       0.11657055 -0.15473798 0.17575707 -0.13318649
000220 d8 54 40 3d 6d 00 05 3e 54 0b 57 3d ca d0 ea 3d
       0.046955913 0.12988444 0.052501038 0.114656046
000230 47 cf 30 3e 67 e4 85 bd 40 79 16 3c 00 e9 89 bb
       0.1726657 -0.06537705 0.009184182 -0.004208684
000240 9c 8c 8c 3d df 51 bd bd 00 9a a7 bc 45 53 0a 3e
       0.068627566 -0.09244131 -0.020459175 0.13508327
000250 86 e7 ea 3d c2 b7 c9 3d 84 62 f1 bd b4 46 21 be
       0.11469941 0.09849502 -0.117863685 -0.15749627
000260 29 70 22 3e e8 9f b8 3c f1 1a 07 3e 37 c9 8f bd
       0.15863098 0.022537187 0.13193871 -0.070208006
000270 80 a0 94 3a 32 9f cb 3d ae 2a 09 be 08 ae 35 3d
       0.0011339337 0.099424735 -0.13395187 0.044355422
000280 40 a5 51 bd b8 b1 8a bd d0 f3 09 3c d0 55 61 bd
       -0.051182985 -0.067721784 0.008419946 -0.055013478
000290 e2 da cb 3d c0 b5 bb bd bb 83 02 3e a0 6d ef bd
       0.09953858 -0.091655254 0.12745564 -0.11690831
0002a0 12 4d 81 3d 0f 1b 16 be f0 17 09 3d b4 c4 79 3d
       0.06313528 -0.1465876 0.033470094 0.060978606
0002b0 66 04 a5 3d 68 19 de bd 2d 03 dc bd 08 f8 1c be
       0.080574796 -0.108446896 -0.10742793 -0.15328991
0002c0 b6 72 b5 3d 22 b7 04 be cc 35 4d 3d 67 be 03 be
       0.0885977 -0.12960485 0.050100133 -0.12865601
0002d0 90 2a 31 bd d2 92 fa 3d 93 56 06 be 62 08 a0 3d
       -0.04325348 0.12235035 -0.13118963 0.07814099
0002e0 0b 1a 1e 3e e8 08 7b 3d 4c 8a 58 bd a8 95 81 3c
       0.15439622 0.06128779 -0.052866265 0.015818432
0002f0 3c 92 48 3d 48 33 b6 3c e8 d7 84 bc d9 06 03 3e
       0.048967585 0.02224125 -0.016216233 0.12795581
000300 1c 27 20 be 2d 4b 07 3e b7 6b 25 3e d4 8b 15 3d
       -0.15639919 0.13212271 0.16154371 0.036510304
000310 b9 85 2a be 70 b9 ad 3c f1 ed 1b 3e 4f 4a 06 3e
       -0.16652574 0.021206588 0.15227486 0.13114284
000320 50 7a 28 bc e6 74 86 bd b2 d2 85 3d 1b 0b 34 3e
       -0.010283068 -0.06565265 0.065343276 0.17582361
000330 00 d6 56 3c 34 ab 00 bd f2 06 d7 bd ec 88 d5 bd
       0.013112545 -0.031413272 -0.104993716 -0.104265064
000340 47 1e 2d be ce 22 d4 bd 22 75 fd bd ab 3d 04 3e
       -0.16906081 -0.10358201 -0.12375857 0.1291415
000350 1a e6 0d be 2c b2 49 bd d5 08 ed bd db be c7 bd
       -0.13857308 -0.049242184 -0.1157395 -0.097532
000360 12 bd f2 bd 66 9e fc 3d aa 11 fd bd db 81 1f 3e
       -0.118524686 0.123348996 -0.12356885 0.1557688
000370 fa b3 9b 3d 7e b0 d6 bd 8a 91 c9 3d 51 6a 32 3e
       0.07602687 -0.10482882 0.098422125 0.17423369

fc3.bias f4 [7]
000000 68 7d d9 3c 56 80 d0 3d e2 b7 96 3d 11 d3 03 3e
       0.026549056 0.10180728 0.073592916 0.12873484
000010 60 5d 16 bc 2e 10 b0 3d 78 e4 48 bd
       -0.009177536 0.08596836 -0.04904601
