saves/final_ai_memory_npc_1_decision.pth (torch, 27433 bytes, 6 tensors)

fc1.weight f4 [64, 20]
0	0x3c949468	0.018137172
1	0xbd3ed9ec	-0.046594545
2	0xbdc62ce0	-0.09676528
3	0xbd3c8734	-0.046027377
4	0xbe415602	-0.18880466
5	0x3e5bf35a	0.2147955
6	0xbd203d90	-0.03912121
7	0xbde0d59b	-0.10978242
8	0x3e1e7ee0	0.15478086
9	0xbe131a05	-0.14365394
10	0x3e631012	0.22174099
11	0xbb7176c0	-0.0036844462
12	0x3e6438fa	0.2228736
13	0x3e460664	0.19338375
14	0xbc3f9270	-0.011692628
15	0xbe107538	-0.14107215
16	0xbba97c00	-0.0051722527
17	0x3dbccdac	0.09218916
18	0x3c7e1820	0.015508682
19	0xbd939e66	-0.072079465
20	0xbe32f031	-0.17474438
21	0xbda03eae	-0.07824455
22	0xbe41576a	-0.18881002
23	0xbe631308	-0.22175229
24	0x3d95c71c	0.07313368
25	0x3e3c9f6a	0.18420187
26	0xbda46fe4	-0.08029154
27	0xbd0eda48	-0.034876138
28	0xbe44137c	-0.19148058
29	0xbd2c4ff8	-0.04206845
30	0xbdb73062	-0.08944775
31	0x3e5bacf2	0.21452692
32	0xbd94440e	-0.07239543
33	0x3dac5300	0.084142685
34	0xbe611c9b	-0.21983568
35	0x3e5ad3e2	0.2136989
36	0x3e22e25e	0.15906665
37	0xbda84412	-0.082161084
38	0xbe226c67	-0.15861665
39	0x3e175cec	0.1478154
40	0x3dbad468	0.091225445
41	0xbdd4c34a	-0.10388811
42	0xbd367024	-0.04454054
43	0xbdec3138	-0.11532825
44	0x3d0b2a48	0.03397587
45	0x3d19fc58	0.03759417
46	0xbc88c688	-0.01669623
47	0xbde5813f	-0.11206292
48	0xbd802adc	-0.06258175
49	0x3e1d1a74	0.15342122
50	0x3d7b7c48	0.06139782
51	0x3c67eb60	0.014155239
52	0xbe5974dc	-0.21235985
53	0xbde9c7f0	-0.11415088
54	0xbdab91a4	-0.08377388
55	0x3e3ebb1a	0.18626061
56	0x3e640d96	0.22270808
57	0xbcbe9e80	-0.023268938
58	0x3d9b6e90	0.075894475
59	0x3e020b30	0.1269958
60	0x3b89e940	0.004208714
61	0x3c95e580	0.01829791
62	0xbdeef4de	-0.116677985
63	0x3e0a4830	0.135041
64	0xbe627658	-0.22115457
65	0x3e52c3aa	0.20582452
66	0x3e5fee5c	0.2186827
67	0xbdf5714d	-0.11984501
68	0x3d99da10	0.07512295
69	0x3d9a036c	0.07520184
70	0x3d0121a0	0.031526208
71	0xbe2c73b0	-0.16841006
72	0xbdf13c0f	-0.117790334
73	0xbe3fa2b4	-0.1871441
74	0xbe050e80	-0.12993813
75	0xbde41f5f	-0.11138796
76	0x3e62de8c	0.22155207
77	0x3d9cdbcc	0.076591104
78	0x3db64484	0.08899787
79	0xbe32ceb0	-0.17461658
80	0x3e4f86a2	0.20266202
81	0xbe0198eb	-0.1265599
82	0x3d46cb60	0.048533797
83	0x3c058cf0	0.008151278
84	0x3ce74dc0	0.028235316
85	0x3e4bf4fa	0.1991767
86	0xbdf9480a	-0.121719435
87	0xbe289432	-0.16462782
88	0xbc27c710	-0.010240331
89	0x3da56364	0.08075598
90	0x3e5525f0	0.20815253
91	0x3e23309e	0.15936515
92	0x3e63ebb0	0.22257876
93	0xbe38d2db	-0.18049185
94	0x3e2ca048	0.16858017
95	0x3e61bc26	0.22044429
96	0x3c2c16e0	0.010503501
97	0xbe1e5d54	-0.1546529
98	0x3e46c4e2	0.19411042
99	0x3d9066f4	0.07050887
100	0xbb36bf80	-0.002788514
101	0xbe623f26	-0.22094402
102	0xbe271cb2	-0.1631954
103	0xbc60d000	-0.013721466
104	0xbe2d3973	-0.16916446
105	0x3e2ccd16	0.16875109
106	0x3d664308	0.05621627
107	0x3c74a420	0.014931709
108	0xbe06b1b4	-0.13153726
109	0x3d0904e0	0.033451915
110	0xbdb80cb0	-0.08986795
111	0x3de2be7c	0.11071488
112	0x3db219b4	0.08696309
113	0xbd3f1acc	-0.046656415
114	0x3e549c5e	0.20762774
115	0x3ddc5a4c	0.1075941
116	0x3d0f07b0	0.03491944
117	0x3ce0a150	0.02742067
118	0x3cdb36d0	0.026759535
119	0x3e189bb6	0.14903149
120	0x3c347530	0.011014268
121	0x3dc231e0	0.09482169
122	0xbd2f4878	-0.04279372
123	0xbd6cb25c	-0.057787284
124	0xbe209ee3	-0.1568561
125	0xbcea19a0	-0.028576672
126	0x3e6393c2	0.22224334
127	0x3cf42430	0.029802412
128	0x3d161a60	0.036646247
129	0x3e51bed4	0.20482951
130	0x3e4ab686	0.1979619
131	0xbdf74321	-0.12073351
132	0x3d6850d0	0.056717694
133	0xbdc6f796	-0.09715192
134	0x3d346258	0.0440391
135	0x3e35fa00	0.17771149
136	0xbd4e45ec	-0.05035965
137	0xbe2de14b	-0.16980474
138	0x3d780600	0.060552597
139	0xbc4af910	-0.012388483
140	0x3d25a1c0	0.04043746
141	0xbd8d57ac	-0.06901488
142	0x3d3d8028	0.046264797
143	0xbdca391c	-0.09874174
144	0xbe59cd20	-0.21269655
145	0x3d4d6c20	0.050151944
146	0xbdf6e29a	-0.120549396
147	0x3e4949f6	0.1965712
148	0xbe40a160	-0.1881156
149	0x3bf0b520	0.0073458105
150	0xbe45b9bd	-0.19309135
151	0x3dc5a0c4	0.09649804
152	0xbdb85096	-0.089997455
153	0x3e4fc128	0.20288527
154	0x3d5bacf0	0.053631723
155	0xbd90a508	-0.07062727
156	0xbe2fe035	-0.17175372
157	0x3dc7bbb4	0.097525984
158	0xbd6b90c4	-0.057511106
159	0xbd6b1338	-0.057391375
160	0xbda80d44	-0.08205655
161	0xbd707940	-0.058709383
162	0xbe31885e	-0.17337176
163	0x3e4c7cf6	0.19969544
164	0xbb1ba080	-0.0023746789
165	0x3e381e42	0.17980292
166	0xbe642eba	-0.2228345
167	0x3e51f42a	0.20503297
168	0x3ca3f9e0	0.02001661
169	0x3dec2aac	0.115315765
170	0xbe1f180c	-0.15536517
171	0x3c929950	0.01789537
172	0x3e592726	0.2120634
173	0xbe1d0618	-0.15334356
174	0xbdf4408d	-0.119263746
175	0x3df4c870	0.11952293
176	0x3dde81f4	0.1086463
177	0xbe50e0fe	-0.20398328
178	0x3dd3b134	0.10336533
179	0xbcd3b4b0	-0.025842994
180	0xbcb231f8	-0.021752343
181	0x3d892f6c	0.06698498
182	0xbd1d1f00	-0.038359642
183	0x3a793600	0.0009506643
184	0x3e34e9f2	0.17667368
185	0xbd2ec874	-0.042671636
186	0xbe158fde	-0.14605662
187	0x3e31befa	0.17358008
188	0x3d670ad0	0.056406796
189	0xbdac0604	-0.08399585
190	0xbe535852	-0.2063916
191	0x3e3e5358	0.1858648
192	0xbe00dd01	-0.12584306
193	0xbd5b48fc	-0.0535364
194	0x3e6161ca	0.2200996
195	0xbe4386cb	-0.19094388
196	0x3cdab540	0.026697755
197	0x3e2d349c	0.169146
198	0x3c996408	0.018724456
199	0xbe0eb621	-0.13936664
200	0x3b45a6c0	0.0030159205
201	0x3dec06a0	0.11524701
202	0x3e178246	0.14795789
203	0xbd32ad18	-0.043622106
204	0x3d3e3b90	0.046443522
205	0xbd8f2678	-0.06989759
206	0x3dced340	0.100988865
207	0xbe395771	-0.18099762
208	0xbd49be8c	-0.049253985
209	0xbde12e5d	-0.10995171
210	0x3e1e7764	0.15475231
211	0x3d81eaac	0.06343588
212	0x3d957c38	0.072990835
213	0x3e0f9f9a	0.14025727
214	0xbd94f21a	-0.0727274
215	0x3d5bc7d0	0.053657353
216	0x3dcb3e88	0.09924036
217	0x3d68ce40	0.05683732
218	0x3d6d7e08	0.05798152
219	0x3d1dd6a0	0.03853476
220	0x3dfea518	0.12433833
221	0x3c9ccf20	0.019141734
222	0xbe37f33c	-0.1796388
223	0xbe2887f2	-0.16458109
224	0xbb633cc0	-0.003467366
225	0x3dbedd7c	0.093195885
226	0x3e5dacd4	0.2164796
227	0xbe522c6a	-0.20524755
228	0xbe1e8e81	-0.15484048
229	0x3cff38d0	0.03115502
230	0x3d8cfd84	0.06884292
231	0xbe2ff21a	-0.17182198
232	0x3d1f1960	0.03884256
233	0x3d007980	0.03136587
234	0xbbc530c0	-0.0060177743
235	0x3cb52fd0	0.022117525
236	0x3d4b0730	0.0495674
237	0xbd561860	-0.05226934
238	0x3bf886e0	0.0075844377
239	0x3e50b324	0.20380837
240	0x3c240cb0	0.010012791
241	0xbe2c4a8c	-0.16825312
242	0x3e26d0ce	0.1629059
243	0xbd4e7e54	-0.050413445
244	0x3dc84338	0.09778446
245	0xbe228539	-0.15871133
246	0xbe603b7a	-0.21897689
247	0xbcc87cd8	-0.024473593
248	0xbe158557	-0.14601646
249	0x3e5c7d3e	0.21532151
250	0xbd81db80	-0.063406944
251	0xbcc91320	-0.024545252
252	0xbdb5717a	-0.088595346
253	0xbe20d0b4	-0.15704614
254	0x3e57f2d8	0.21088731
255	0x3e47a472	0.19496325

fc1.bias f4 [64]
0	0xbde8070c	-0.11329469
1	0x3dc6396c	0.09678921
2	0x3e1b6866	0.15176544
3	0xbe1b1292	-0.15143803
4	0x3e06f794	0.13180381
5	0xbcf7bb98	-0.030240819
6	0xbdd2fa2b	-0.10301622
7	0xbe4279b2	-0.18991736
8	0xbdbe1524	-0.09281376
9	0xbe5659b5	-0.20932658
10	0x3dce9fd0	0.100890756
11	0xbe0203b6	-0.12696728
12	0xbde8f49e	-0.11374782
13	0x3e2a867a	0.16652861
14	0xbde662e8	-0.112493336
15	0x3e241d9e	0.16026923
16	0x3e1662be	0.14686105
17	0xbe6412d8	-0.22272813
18	0x393fe000	0.00018298626
19	0xbd8f3e8c	-0.06994352
20	0xbcc0aed0	-0.023520857
21	0xbe2d157d	-0.16902728
22	0xbc27e460	-0.01024732
23	0x3e105616	0.14095339
24	0xbe5237c5	-0.20529087
25	0x3d7335b0	0.059377372
26	0xbe507cca	-0.20360103
27	0xbe50e184	-0.20398527
28	0xbd8ba974	-0.0681943
29	0xbbd2c4c0	-0.006432146
30	0xbda8db72	-0.08244981
31	0x3d030ae8	0.031992823
32	0x3d6be760	0.057593703
33	0x3e5aa76e	0.21352932
34	0xbdb90d36	-0.09035723
35	0x3d1bcbc0	0.038036108
36	0x3e43188a	0.1905233
37	0xbe0ffad4	-0.14060527
38	0xbd56f7c8	-0.052482396
39	0x38ba6000	8.8870525e-05
40	0xbd7e8b30	-0.06214446
41	0xbe382461	-0.17982627
42	0xbbbdc940	-0.005791813
43	0x3ded54ec	0.11588463
44	0xbe1197d6	-0.14218077
45	0xbbbf3c00	-0.00583601
46	0xbd9bff4c	-0.076170534
47	0x3b013ac0	0.0019718856
48	0xbdba564a	-0.090984896
49	0xbe2417e4	-0.16024739
50	0xbe02dbac	-0.1277911
51	0xbe5020be	-0.2032499
52	0x3e4353e4	0.1907497
53	0x3e3aa9fa	0.18228903
54	0x3e43da98	0.19126356
55	0x3e034bf0	0.12821937
56	0xbe5619ce	-0.20908281
57	0xbcfbcef0	-0.030738324
58	0xbb92a380	-0.004475057
59	0xbe5b1bed	-0.21397372
60	0xbdb08f56	-0.08621089
61	0xbd946d64	-0.07247427
62	0x3a5b6f00	0.00083707273
63	0xbe0297e2	-0.12753251

fc2.weight f4 [64, 64]
0	0x3d9b5d9e	0.075862154
1	0x3c6bbd10	0.014388338
2	0x3dc4db9a	0.09612198
3	0xbdc4848e	-0.09595595
4	0x3ce5e9d8	0.028065607
5	0x3d2a6160	0.04159677
6	0x3d1519b0	0.03640145
7	0x3d412e38	0.04716322
8	0x3cdca2e0	0.026933134
9	0xbdb4f3f6	-0.08835594
10	0xbd580914	-0.052743033
11	0x3c7bef80	0.0153769255
12	0x3da3b350	0.079931855
13	0x3de44808	0.11146551
14	0x3dcb75ce	0.09934579
15	0x3dfe0582	0.12403394
16	0xbc415f40	-0.0118024945
17	0x3d34ed6c	0.044171736
18	0xbdc21654	-0.09476915
19	0xbd5f3d3c	-0.054501757
20	0xbdedaea2	-0.11605574
21	0xbd4d1598	-0.05006942
22	0x3bc90200	0.0061342716
23	0xbc1ad220	-0.009449512
24	0xbdf9a8dc	-0.121904105
25	0x3dcda7b2	0.10041751
26	0x3d6e7d8c	0.0582252
27	0x3c82db90	0.015973836
28	0x3d4902d8	0.049074978
29	0x3d402a40	0.046915293
30	0xbd26f9b8	-0.040765494
31	0xbda4c8ee	-0.08046137
32	0x3cf27728	0.029597834
33	0x3dcb6cfa	0.09932895
34	0xbdebe4a8	-0.11518222
35	0x3da23678	0.07920545
36	0x3df45762	0.119307294
37	0xbd6d69c8	-0.05796221
38	0xbddb0b72	-0.106955424
39	0x3dff36b0	0.12461603
40	0x3ce44d80	0.027868986
41	0xbddcd6fa	-0.10783191
42	0x3deeb79e	0.11656116
43	0xbd29c620	-0.041448712
44	0xbd6b11b8	-0.057389945
45	0xbd2c3658	-0.042044014
46	0xbde03a94	-0.10948673
47	0xbdb73a10	-0.089466214
48	0xbdb194ca	-0.086709574
49	0xbd6c2408	-0.05765155
50	0x3dfba46e	0.12287222
51	0xbd6fc080	-0.05853319
52	0x3de735e4	0.11289576
53	0xbc81d8d0	-0.015850455
54	0xbd8ccb84	-0.06874755
55	0x3deb7620	0.1149714
56	0xbd89ea4c	-0.06734142
57	0xbcfa3ac0	-0.030545592
58	0xbdb058d6	-0.08610694
59	0xbdf7340e	-0.120704755
60	0x3d88220c	0.06647119
61	0xbda20574	-0.07911196
62	0xbcce9b38	-0.025220498
63	0xbda716bc	-0.08158633
64	0x3d6eed70	0.058331907
65	0x3dd0282e	0.10163914
66	0x3d7ed740	0.062216997
67	0x3bea7ce0	0.0071559995
68	0x3cda2538	0.026629075
69	0xbc89f150	-0.0168387
70	0xbd72aa28	-0.059244305
71	0xbd339b18	-0.04384908
72	0x3dae48cc	0.08509979
73	0xbd4dc7d8	-0.050239414
74	0x3d657054	0.056015328
75	0x3d743a84	0.059626117
76	0xbdb446ba	-0.088025525
77	0xbd669e40	-0.056303263
78	0xbcbe7e38	-0.023253545
79	0xbcb89e28	-0.022536352
80	0xbdd503d2	-0.10401119
81	0x3b0cc000	0.0021476746
82	0x3d96a0d6	0.07354896
83	0x3dd22da8	0.102626145
84	0xbd54ab60	-0.05192125
85	0x3d17b01c	0.037033185
86	0x3d1dd83c	0.038536295
87	0x3dc48b68	0.09596902
88	0xbdafd390	-0.08585274
89	0xbd8d8b28	-0.069113076
90	0x3d0457e0	0.032310367
91	0x3dd1e248	0.10248238
92	0xbdb4c692	-0.08826937
93	0x3d655010	0.055984557
94	0x3d9c17c2	0.07621719
95	0xbdd7e10c	-0.10540971
96	0xbc954840	-0.018222928
97	0x3d424900	0.0474329
98	0xbd601648	-0.05470875
99	0xbd6de988	-0.05808404
100	0x3da9ec7c	0.08297059
101	0xbde05b4c	-0.109549135
102	0xbdfffab8	-0.12498993
103	0x3da8beec	0.082395405
104	0x3d016b80	0.03159666
105	0xbd56ec90	-0.052471697
106	0xbd871726	-0.06596212
107	0xbd6641c4	-0.056215063
108	0xbcb27c70	-0.021787852
109	0xbd2df154	-0.042466477
110	0xbdede234	-0.116154104
111	0xbd8c6b4e	-0.06856404
112	0x3c8f79a0	0.01751405
113	0xbd915caa	-0.070977524
114	0xba39fd00	-0.000709489
115	0xbca7a280	-0.020463228
116	0x3ddcaaf2	0.10774793
117	0x3aa80800	0.0012819767
118	0xbdfbb926	-0.12291174
119	0x3d894a90	0.06703675
120	0x3d1cce84	0.038282886
121	0xbdc2f990	-0.095202565
122	0xbd32d674	-0.04366155
123	0x3de627f2	0.11238088
124	0x3c361db0	0.0111154765
125	0x3d3f4760	0.046698928
126	0xbd1067f4	-0.035255387
127	0xbce48328	-0.027894571
128	0xbd311540	-0.043233156
129	0xbd1b1ba0	-0.037868142
130	0xbd9daa7c	-0.07698533
131	0xbd8328b6	-0.06404249
132	0xbc1677e0	-0.009183854
133	0xbdfbe558	-0.12299603
134	0xbd2716ac	-0.040793106
135	0xbc819d68	-0.015822127
136	0xbde32362	-0.11090733
137	0x3d92d7ec	0.0717009
138	0xbca10050	-0.01965347
139	0xbced5828	-0.0289727
140	0x3bf13c40	0.0073619187
141	0xbd3e3c90	-0.046444476
142	0xbd325110	-0.04353434
143	0xbdd2c47e	-0.10291384
144	0xbd7c2388	-0.061557323
145	0x3dea187e	0.11430453
146	0xbdc152a2	-0.09439589
147	0xbd388ad4	-0.04505427
148	0xbd929b6e	-0.07158552
149	0xbde4050c	-0.11133775
150	0x3a255500	0.00063069165
151	0x3dffcfec	0.1249083
152	0x3cf88d18	0.030340716
153	0xbdb974ce	-0.09055482
154	0xbdef878e	-0.11695777
155	0xbd291830	-0.041282833
156	0x3d859090	0.06521714
157	0x3c84ff58	0.016235039
158	0xbd65130c	-0.055926368
159	0x3df92624	0.12165478
160	0xbd2b09d4	-0.04175742
161	0x3d7c0044	0.06152369
162	0xbd5dcad8	-0.054148525
163	0x3d355d0c	0.04427819
164	0xbd21a948	-0.03946808
165	0xbd99f992	-0.07518305
166	0xbdd7a1ee	-0.105289325
167	0x3dda165e	0.106487975
168	0xbdc91ec6	-0.09820323
169	0xbd6f1534	-0.05836983
170	0x3dad54be	0.08463429
171	0x3df8fbbe	0.12157391
172	0x3cfee260	0.031113803
173	0x3df9d282	0.12198354
174	0x3d80da84	0.062916785
175	0x3cc6c558	0.024264023
176	0x3cb554d8	0.022135183
177	0xbd496b80	-0.049174786
178	0x3dcdccd2	0.10048832
179	0xbdafc250	-0.08581984
180	0x3dba4a10	0.090961576
181	0x3d50d750	0.050986588
182	0xbde12292	-0.10992922
183	0x3d9f3ddc	0.077754706
184	0xbddbb0e6	-0.107271
185	0xbd0ad9b4	-0.033899024
186	0xbc835b30	-0.016034693
187	0x3c1c2600	0.009530544
188	0x3df8fa64	0.12157133
189	0x3d284e30	0.04109019
190	0x3db8e478	0.09027952
191	0x3d768dcc	0.06019382
192	0xbcc7f220	-0.024407446
193	0xbdd0b3e8	-0.101905644
194	0xbd38a684	-0.045080677
195	0x3c13f620	0.009030849
196	0xbd320468	-0.043461233
197	0x3dfa67cc	0.12226829
198	0xbca45f80	-0.02006507
199	0x3bf9e7a0	0.007626489
200	0x3aa5f780	0.0012662262
201	0x3aa6f180	0.0012736768
202	0xbdf9f5e0	-0.122051
203	0xbcc37bb0	-0.02386269
204	0xbdeb35d2	-0.11484875
205	0xbdde3cc8	-0.10851437
206	0x3cd24980	0.025669813
207	0xbda2d4fe	-0.07950781
208	0x3df1311e	0.117769465
209	0x3d85bde4	0.065303594
210	0x3c9dc580	0.019259214
211	0xbd31e2e8	-0.043429285
212	0x3db4b22a	0.088230446
213	0xbdf49d56	-0.11944072
214	0xbd2f066c	-0.042730734
215	0xbd033b38	-0.032038897
216	0xbc1166a0	-0.008874565
217	0xbd2d2b40	-0.042277575
218	0x3dbbf058	0.09176701
219	0xbd39920c	-0.045305297
220	0xbd8a5952	-0.06755318
221	0x3dcb7e6c	0.099362224
222	0x3dbdb060	0.092621565
223	0xbdbc0914	-0.09181419
224	0x3d8389b0	0.06422746
225	0x3b4b6d80	0.003104061
226	0xbc194200	-0.0093541145
227	0x3d175360	0.036944747
228	0xbd913732	-0.07090606
229	0xbd8779c6	-0.06615023
230	0xbdf775ce	-0.12083016
231	0x3d2254f8	0.039631814
232	0xbd064b80	-0.032786846
233	0x3d540ef4	0.051772073
234	0x3dc3ddac	0.09563765
235	0x3dc17cd2	0.09447636
236	0xbc16aee0	-0.009196967
237	0xbcb95db0	-0.022627681
238	0x3d112dd0	0.03544408
239	0x3d4f527c	0.050615773
240	0xbd650668	-0.055914313
241	0x3dfb3970	0.12266815
242	0xba72ea00	-0.0009266436
243	0x3debef24	0.11520222
244	0x3dc4c184	0.09607223
245	0x3d6907d8	0.056892246
246	0xbc627400	-0.013821602
247	0xbc978cd8	-0.018499777
248	0xbb41a1c0	-0.0029545873
249	0x3c4770a0	0.012172848
250	0x3d8d6860	0.069046736
251	0x3c6188a0	0.013765484
252	0x3d602b78	0.054728955
253	0x3c0e2d50	0.0086777955
254	0x3ddc600e	0.107605085
255	0xbdb9a37a	-0.09064384

fc2.bias f4 [64]
0	0x3d211be8	0.039333254
1	0xbdbbb18a	-0.09164722
2	0xbcb9e8c0	-0.022693992
3	0x3dfecf9c	0.12441942
4	0xbddcaede	-0.10775541
5	0xbb90e720	-0.0044220835
6	0xbdf3d930	-0.119066596
7	0xbdb34b30	-0.08754575
8	0xbdf017d2	-0.11723293
9	0xbdc4136a	-0.095740154
10	0x3bac2f00	0.0052546263
11	0xbd773064	-0.060348883
12	0x3cd7ac80	0.026327372
13	0xbde5dcea	-0.11223777
14	0xbdc70d9e	-0.09719394
15	0xbdfcc7fc	-0.123428315
16	0xbde712ea	-0.112829044
17	0x3d9705ce	0.07374154
18	0x3c19a610	0.009377971
19	0xbdd5bd48	-0.10436493
20	0x3c666b80	0.014063716
21	0x3d8c8910	0.0686208
22	0x3dadd22a	0.08487351
23	0x3de00dd2	0.10940136
24	0x3d09f03c	0.03367637
25	0xbc145fb0	-0.009056017
26	0x3dcd8886	0.100358054
27	0xbdb8f442	-0.090309635
28	0xbd7389d8	-0.05945763
29	0xbcfaa448	-0.030595914
30	0x3de33a8e	0.11095153
31	0xbd21a06c	-0.03945963
32	0x3d777938	0.060418338
33	0xbd99bdb4	-0.07506886
34	0xbde923aa	-0.113837555
35	0x3d4d5b08	0.050135642
36	0xbdb10cda	-0.08645029
37	0xbcb6e840	-0.022327542
38	0x3ddca79c	0.107741565
39	0xbd99002c	-0.07470736
40	0x3da64fd4	0.08120695
41	0xbd98249e	-0.07428859
42	0xbd0edd84	-0.034879223
43	0xbccaae90	-0.024741441
44	0xbbd7f640	-0.0065906346
45	0x3d0aba4c	0.033869073
46	0xbbf53c80	-0.007484019
47	0x3da3239a	0.07965775
48	0xbdcad8f2	-0.0990466
49	0x3cc03bf0	0.02346608
50	0x3d43cc3c	0.047802195
51	0x3da91276	0.08255474
52	0xbdfb0ba2	-0.12258078
53	0x3a5d0c00	0.0008432269
54	0x3dccf64c	0.10007915
55	0x3a24ca00	0.0006286204
56	0xbb11c6c0	-0.0022243708
57	0x3d27ba64	0.04094924
58	0x3deb122c	0.114780754
59	0xbccd3b70	-0.025052756
60	0xbdf85328	-0.12125236
61	0x3d3be43c	0.045871958
62	0xbd95bc1a	-0.07311268
63	0x3d960986	0.07326035

fc3.weight f4 [8, 64]
0	0x3df08be4	0.11745432
1	0xbcf5c4d8	-0.030001089
2	0xbd3da7d8	-0.046302646
3	0xbd433794	-0.047660425
4	0xbdb41906	-0.08793835
5	0x3d7e8ba4	0.06214489
6	0xbd3dbc2c	-0.046322033
7	0xbdac5f7e	-0.08416651
8	0x3d43a420	0.047763944
9	0x3d820dbc	0.06350276
10	0xbd8cfe66	-0.0688446
11	0xbd4f9ed4	-0.05068858
12	0x3c0da4c0	0.0086452365
13	0x3d8ab3e0	0.0677259
14	0xbd9af0d0	-0.075654626
15	0x3d7575c4	0.059926763
16	0x3deccaac	0.11562094
17	0x3ccf0138	0.025269136
18	0x3da07d66	0.07836418
19	0x3d697210	0.056993544
20	0x3c327b30	0.010893628
21	0x3cb57b00	0.022153378
22	0xbd4001fc	-0.046876892
23	0x3c8aa7a0	0.016925633
24	0x3d9f5ede	0.07781766
25	0xbd61d5b4	-0.055135444
26	0xbd5f9960	-0.05458963
27	0xbd8188a8	-0.06324893
28	0x3ddda9b6	0.108233854
29	0xbd52dba4	-0.051478997
30	0x3cfd0b28	0.030889109
31	0xbdc03a68	-0.0938614
32	0x3d5607bc	0.05225347
33	0xbdd5f0f0	-0.10446346
34	0xbdd3c892	-0.1034099
35	0x3d8ba8fe	0.06819342
36	0xbbcf6e40	-0.0063302815
37	0x3d0e5884	0.034752384
38	0xbdc68838	-0.096939504
39	0xbdf44c52	-0.119286194
40	0x3d81258c	0.063059896
41	0xbb83d0e0	-0.0040227026
42	0xbd5e7afc	-0.054316506
43	0x3c7ad5d0	0.015309766
44	0xbd193610	-0.037405074
45	0x3d3b8910	0.04578501
46	0x3b636500	0.0034697652
47	0xbd38ded4	-0.04513438
48	0xbd9a3e12	-0.0753137
49	0xbc3b98a0	-0.011449963
50	0x3da31b4a	0.07964189
51	0x3df8979e	0.12138294
52	0xbdfe47d2	-0.124160424
53	0xbde760b4	-0.112977415
54	0xbd7d991c	-0.061913595
55	0xbb5e5280	-0.0033923686
56	0xbde061da	-0.10956164
57	0xb9bb3000	-0.00035703182
58	0xbc059930	-0.0081541985
59	0x3dbcb226	0.092136666
60	0xbd80e67c	-0.062939614
61	0xbd42d67c	-0.04756783
62	0xbd9148ce	-0.070939645
63	0x3d7248f8	0.05915162
64	0xbcd62f38	-0.026145563
65	0xbde98316	-0.11401956
66	0x3de8ab4c	0.11360797
67	0x3dc5a7d2	0.0965115
68	0xbdbf2c70	-0.09334648
69	0x3cda4ba0	0.026647389
70	0xbd77361c	-0.060354337
71	0xbdab7a34	-0.08372918
72	0x3df97aac	0.12181601
73	0xbc0998c0	-0.008398235
74	0x3d870ff2	0.06594838
75	0xbd469144	-0.04847838
76	0xbc8f6c90	-0.017507821
77	0xbcd0df40	-0.025497079
78	0xbd7f9664	-0.062399283
79	0xbd2dbb60	-0.042415023
80	0xbd7d574c	-0.06185083
81	0xbbd18e80	-0.006395161
82	0xbdc89092	-0.097931996
83	0xbdfdf74e	-0.12400685
84	0xbdf04bd0	-0.1173321
85	0x3cf64310	0.030061275
86	0xbd0b9610	-0.034078658
87	0xbd9d5fa6	-0.07684259
88	0xbbe287c0	-0.0069131553
89	0xbd0813e0	-0.03322208
90	0xbdc42ce0	-0.09578872
91	0x3cb10248	0.021607533
92	0xbdcb22bc	-0.099187344
93	0xbda461a2	-0.080264345
94	0xbddffbbe	-0.10936688
95	0xbdfb12f0	-0.122594714
96	0xbd9f2fd2	-0.07772793
97	0xbd27e208	-0.040987045
98	0x3dd97a70	0.10619056
99	0xbdd5d25e	-0.10440515
100	0x3d972788	0.07380587
101	0x3dd03a1e	0.10167335
102	0x3dfa5f3e	0.12225197
103	0xbdd11766	-0.10209541
104	0xbd31e750	-0.043433487
105	0xbdcc40fc	-0.09973332
106	0xbde71908	-0.11284071
107	0x3d51a010	0.051178038
108	0xbd766d48	-0.060162812
109	0x3d37d39c	0.04487954
110	0xbd2cb480	-0.042164326
111	0xbd9acd78	-0.07558721
112	0xbd105484	-0.03523685
113	0xbdab9cd6	-0.083795235
114	0xbdc3e0a4	-0.09564331
115	0xbded41e4	-0.11584833
116	0x3d99a9d4	0.07503095
117	0x3dcfc6e8	0.1014536
118	0x3db92794	0.09040752
119	0x3d023e78	0.031797856
120	0xbd2907f0	-0.041267335
121	0xbd70eb78	-0.05881831
122	0xbbaad2c0	-0.0052131116
123	0xbdb26762	-0.08711125
124	0xbd783654	-0.060598686
125	0xbdc23368	-0.09482461
126	0xbdb86a46	-0.09004645
127	0xbdb31070	-0.087433696
128	0xbc035e60	-0.008018106
129	0xbd022344	-0.031771913
130	0xbd969a40	-0.073536396
131	0x3bf5f560	0.0075060576
132	0x3cbac388	0.022798315
133	0x3dd3106c	0.103058666
134	0xbdf65e04	-0.12029651
135	0xbd6a97e0	-0.057273746
136	0x3d85c082	0.065308586
137	0x3cd88da0	0.02643472
138	0x3dc9d28e	0.09854613
139	0xbdcc75b0	-0.099833846
140	0x3df59d2e	0.1199287
141	0xbdcdaf30	-0.1004318
142	0xbcdf3000	-0.027244568
143	0x3dc8fdd0	0.09814036
144	0xbcb88ff8	-0.022529587
145	0xbb1e21c0	-0.0024129003
146	0xbc33efc0	-0.010982454
147	0x3d5d6e88	0.05406049
148	0x3c33c5e0	0.01097247
149	0xbcb9b0b0	-0.022667259
150	0xbd7b8064	-0.06140174
151	0x3de05922	0.10954501
152	0x3daa3b76	0.083121225
153	0xbd54d080	-0.051956654
154	0xbdb2142c	-0.08695254
155	0xbdc46c0a	-0.09590919
156	0x3d15eb6c	0.03660147
157	0xbd5f9068	-0.054581076
158	0xbd8f6546	-0.07001738
159	0xbcd531c8	-0.026024714
160	0x3df49434	0.1194233
161	0x3db95b7e	0.09050654
162	0x3c808850	0.015689999
163	0xbdb8f744	-0.09031537
164	0x3dcbd804	0.09953311
165	0xbd34cbb8	-0.044139594
166	0xbd43f904	-0.0478449
167	0xbc804448	-0.015657559
168	0xbd6e76ec	-0.05821888
169	0xbdfe2066	-0.12408523
170	0xbd762494	-0.060093477
171	0xbdfdc27e	-0.12390612
172	0xbdfd3e2e	-0.123653755
173	0x3df7dfc2	0.12103225
174	0xbd326c64	-0.0435604
175	0xbcb8cb40	-0.022557855
176	0xbde143b4	-0.109992415
177	0x3d17bad8	0.037043422
178	0x3dc6bd76	0.097041056
179	0x3d2b4f88	0.041823894
180	0xbcf64368	-0.030061439
181	0x3d8f1cec	0.06987938
182	0x3db91a30	0.09038198
183	0x3d80d06a	0.06289752
184	0x3c01f7e0	0.007932633
185	0x3de526ea	0.11189063
186	0xbc6ffa40	-0.014647067
187	0x3d14b628	0.03630653
188	0x3d422ed8	0.047407955
189	0x3bec8800	0.007218361
190	0xbd8972bc	-0.06711337
191	0xbdb86ec8	-0.09005505
192	0xbd97d436	-0.07413523
193	0xbdb4ee58	-0.08834523
194	0x3d762f64	0.06010379
195	0x3d8b5504	0.06803325
196	0x3b8f2260	0.0043681115
197	0xbddef6ca	-0.10886915
198	0xbd44f2b8	-0.048083037
199	0x3cf2e750	0.029651314
200	0xbd3b78ec	-0.045769617
201	0x3d92c03a	0.071655706
202	0xbc346c90	-0.011012211
203	0xbd40b91c	-0.047051534
204	0x3c9f8480	0.01947236
205	0xbd08b7e8	-0.03337851
206	0xbcb67910	-0.022274524
207	0x3d8edc1e	0.06975578
208	0xbcc68068	-0.02423115
209	0xbd377658	-0.044790596
210	0xba343900	-0.0006874949
211	0x3d9017b4	0.07035771
212	0x3d30ba48	0.0431464
213	0xbdce2c90	-0.10067093
214	0xba90d700	-0.0011050403
215	0xbd3a5acc	-0.045496747
216	0x3cda3e48	0.026641026
217	0xbda38a94	-0.07985416
218	0xbac07d00	-0.001468569
219	0xbd16228c	-0.03665404
220	0x3d890c58	0.066918075
221	0x3db4411c	0.08801481
222	0x3da361c2	0.0797763
223	0x3d877100	0.0661335
224	0x3d270d00	0.040783882
225	0x3de79ca2	0.11309172
226	0xbdf0c088	-0.117554724
227	0xbddc306e	-0.10751425
228	0xbc949538	-0.01813756
229	0xbdf5f23c	-0.12009093
230	0x3dc81110	0.097688794
231	0x3de2cf2e	0.11074673
232	0x3d6e2e8c	0.05814986
233	0xbd06e6bc	-0.03293489
234	0x3d1145c0	0.03546691
235	0x3d1bbe60	0.038023353
236	0xbdbd95fc	-0.09257123
237	0x3d762e54	0.060102776
238	0x3de1db16	0.110281155
239	0xbd12cba8	-0.035838753
240	0x3da59ff2	0.08087148
241	0xbdc1cebc	-0.094632596
242	0xbd2bda38	-0.041956156
243	0x3ce910e0	0.02845043
244	0x3de39abe	0.11113499
245	0xbd8c1e80	-0.06841755
246	0xbdc4bd0c	-0.0960637
247	0xbc6eb6f0	-0.014569983
248	0xbc00e940	-0.007868111
249	0x3c8c7b18	0.01714854
250	0xbd8eb958	-0.06968945
251	0xbb8a0b00	-0.004212737
252	0x3dd738ec	0.10508904
253	0xbd6839b0	-0.05669564
254	0x3de524d6	0.111886665
255	0x3d8a16da	0.0674264

fc3.bias f4 [8]
0	0x3dcbeb66	0.09957008
1	0xbd4ca338	-0.049960345
2	0x3db8c04a	0.09021051
3	0xbbed6640	-0.007244855
4	0xbc7a3630	-0.015271708
5	0x3dcb4500	0.0992527
6	0xbd9c1918	-0.07621974
7	0x3da09d2c	0.07842478
