saves/final_ai_memory_npc_2_emotion.pth (torch, 15389 bytes, 6 tensors)

fc1.weight f4 [64, 10]
0	0x3e4322d2	0.19056252
1	0xbe1fe7f8	-0.15615833
2	0x3ccbdfe0	0.024887025
3	0x3d0c8528	0.034306675
4	0xbe7cc1be	-0.24683282
5	0xbe908cca	-0.28232414
6	0x3e1a1c56	0.15049872
7	0xbe79fd1c	-0.2441296
8	0xbe48cf7a	-0.19610396
9	0xbe3021ca	-0.1720039
10	0xbb086480	-0.0020811856
11	0xbe79c7d0	-0.24392629
12	0xbd5569d0	-0.052102864
13	0x3e75f202	0.240181
14	0xbcd9b0b0	-0.026573509
15	0x3e67c43a	0.22633448
16	0x3de3328c	0.110936254
17	0x3e8b0649	0.27153233
18	0xbe23d545	-0.15999325
19	0x3de99ddc	0.114070624
20	0x3e9b01a9	0.30274704
21	0x3e38d2ea	0.18049207
22	0x3e3ba118	0.18323171
23	0xbe679df4	-0.22618848
24	0x3e81e30d	0.25368538
25	0x3dff0660	0.12452388
26	0xbe22eec5	-0.15911396
27	0x3e2ad53e	0.16682908
28	0xbe03469a	-0.12819901
29	0x3e857a69	0.26069954
30	0x3e85bd6b	0.26121077
31	0xbc8c2030	-0.017105192
32	0xbe88f5ba	-0.26749974
33	0xbe753262	-0.23945001
34	0x39b44400	0.0003438294
35	0x3d1c10b8	0.03810188
36	0x3d9a194c	0.07524356
37	0xbe5692fa	-0.20954505
38	0xbe58a214	-0.21155578
39	0xbe2248f2	-0.15848139
40	0x3e22eb3e	0.1591005
41	0xbe0bad79	-0.13640393
42	0xbe0031a2	-0.12518933
43	0x3d68a6e0	0.05679977
44	0xbe123d77	-0.1428126
45	0x3e13fc06	0.14451608
46	0x3d98e330	0.074652076
47	0x3e4d35ea	0.20040098
48	0xbe67816c	-0.22607964
49	0xbe0d547f	-0.13801764
50	0x3e9efa5f	0.31050393
51	0x3dd4d77c	0.10392663
52	0x3e9af6b7	0.30266353
53	0x3e35b7d8	0.17745912
54	0x3c4640e0	0.012100428
55	0x3df49560	0.119425535
56	0x3e5c6036	0.21521077
57	0x3e869e51	0.2629266
58	0xbd7b3c78	-0.061336964
59	0x3d177c78	0.036983937
60	0xbe02c023	-0.12768607
61	0x3cda93b0	0.026681751
62	0x3e9e5829	0.30926636
63	0x3dddb050	0.108246446
64	0x3ca39420	0.019968092
65	0xbe8c5cf0	-0.27414656
66	0xbe53a0e7	-0.20666848
67	0xbe34f627	-0.17672025
68	0xbe589ad8	-0.21152818
69	0xbe1b1c16	-0.15147433
70	0xbdf70824	-0.120620996
71	0xbde91134	-0.11380234
72	0x3ab2d700	0.0013644397
73	0x3e41804e	0.188966
74	0x3e93feb7	0.2890527
75	0xbdfd6d0e	-0.12374316
76	0x3e84dc85	0.25949493
77	0xbe58d5c3	-0.21175294
78	0x3e704096	0.23462138
79	0x3e594866	0.21219024
80	0xbe87967c	-0.26481998
81	0xbd5df3c0	-0.054187536
82	0x3dd1929c	0.10233042
83	0x3d9d45b4	0.076793104
84	0x3d707238	0.058702677
85	0x3e95f5ed	0.2928919
86	0xbe0878e2	-0.13327363
87	0x3e35de82	0.17760661
88	0xbcce1720	-0.025157511
89	0xbdff97e4	-0.12480143
90	0xbe3dd88b	-0.18539636
91	0xbe1058c1	-0.14096357
92	0xbe7b39da	-0.24533787
93	0x3de180f0	0.11010921
94	0xbd93049e	-0.07178615
95	0xbe9181fb	-0.2841948
96	0x3d460e90	0.04835373
97	0xbe32f7b9	-0.17477311
98	0xbcff3f00	-0.03115797
99	0x3cf06720	0.029346049
100	0xbdcc3b16	-0.09972207
101	0xbde6f6c8	-0.112775385
102	0xbd935c9c	-0.07195398
103	0x3e17333a	0.14765635
104	0x3dd1d890	0.10246384
105	0xbd1d1cf0	-0.038357675
106	0x3b3bbd80	0.0028646886
107	0x3af68d00	0.0018810332
108	0xbd1f00d0	-0.038819134
109	0xbea05929	-0.31318024
110	0xbe94f52a	-0.29093295
111	0xbe8b12e8	-0.27162862
112	0xbd02dea0	-0.031950593
113	0xbe5b9198	-0.21442258
114	0x3e01486e	0.12625286
115	0xbe95aa02	-0.29231268
116	0xbdc29c06	-0.09502415
117	0xbe5da7c0	-0.21646023
118	0xbe8b78ae	-0.2724051
119	0x3daa51b4	0.08316365
120	0xbe52c6e2	-0.2058368
121	0x3e9265d5	0.28593317
122	0x3cf77f10	0.030211955
123	0xbe50a74c	-0.20376319
124	0xbe5b05f6	-0.21388993
125	0x3e4f3ef6	0.20238861
126	0x3e11bcb0	0.14232135
127	0xbe98667e	-0.29765695
128	0x3d19a060	0.03750646
129	0xbcf78e70	-0.030219287
130	0xbe6edb2c	-0.23325795
131	0xbe8369b5	-0.25666586
132	0xbe287484	-0.16450697
133	0x3d8b406c	0.06799397
134	0x3dcce138	0.100038946
135	0x3ea04329	0.3130124
136	0x3d9434a8	0.07236606
137	0xbc099780	-0.008397937
138	0x3d978388	0.073981345
139	0x3e78f286	0.24311265
140	0x3e7b16a2	0.24520352
141	0xbe29e6ef	-0.16592
142	0x3e509d56	0.20372519
143	0x39423800	0.00018522143
144	0x3e02f6f8	0.12789524
145	0xbdefe6ea	-0.11713965
146	0xbe4767b0	-0.19473147
147	0xbe6e362a	-0.2326285
148	0x3c332180	0.01093328
149	0x3e3e07a6	0.18557605
150	0xbd242c88	-0.04008153
151	0xbd9b3414	-0.075782925
152	0x3e1f1048	0.15533555
153	0x3e5f270e	0.21792242
154	0x3e906f09	0.28209713
155	0x3e7e2546	0.24818906
156	0xbe443c40	-0.19163609
157	0x3daf7648	0.08567482
158	0xbcdf9770	-0.02729389
159	0x3dcc84e0	0.099862814
160	0xbda5d2c6	-0.080968425
161	0x3cc1e740	0.023669839
162	0xbe819ea2	-0.2531634
163	0xbdf9d61c	-0.12199041
164	0xbe4d5e15	-0.2005542
165	0x3e56535a	0.20930234
166	0x3e9f0a5b	0.31062588
167	0xbe9169f0	-0.28401136
168	0x3e9f5c79	0.3112524
169	0x3d702a58	0.058634132
170	0xbe77af4e	-0.24187967
171	0xbe0894d2	-0.1333802
172	0x3e788806	0.24270639
173	0x3bfb6dc0	0.0076729953
174	0xbe7bab54	-0.24577075
175	0xbe4ab79e	-0.19796607
176	0xbe6fa8c6	-0.23404226
177	0xbcb84560	-0.022494018
178	0xbd6f0aa0	-0.058359742
179	0xbdd1afc4	-0.10238603
180	0x3e69003e	0.22753999
181	0xbe739320	-0.23786592
182	0x3e6da3da	0.23207036
183	0x3e96a6d3	0.29424152
184	0x3e1b4734	0.1516388
185	0x3e731656	0.23738989
186	0x3e9343e7	0.28762743
187	0x3d412308	0.04715255
188	0xbe370639	-0.17873468
189	0x3e48835e	0.19581363
190	0xbc820780	-0.015872717
191	0x3e0a70d4	0.13519603
192	0xbc59ed80	-0.013301253
193	0xbe2739e6	-0.1633068
194	0xbdb5a99a	-0.088702396
195	0x3e281940	0.16415882
196	0xbdc5fe46	-0.096676394
197	0xbe1b8453	-0.15187196
198	0xbbeeaf00	-0.007284045
199	0xbd061b38	-0.0327408
200	0x3db080f8	0.08618349
201	0x3d1970e8	0.03746119
202	0xbe9d83f4	-0.30764735
203	0x3d6b9028	0.057510525
204	0x3cd8ce30	0.026465505
205	0xbe76cea4	-0.24102265
206	0x3d00efd0	0.031478703
207	0xbd554c98	-0.052075
208	0xbe515888	-0.20443928
209	0x3e9c1253	0.3048273
210	0xbe2ce8e9	-0.16885723
211	0xbd593390	-0.05302769
212	0xbd553c50	-0.05205947
213	0xbd2000a0	-0.039063096
214	0x3e3c310a	0.18378082
215	0x3e900641	0.2812977
216	0x3e091150	0.1338551
217	0x3e492542	0.19643119
218	0x3d0d8700	0.034552574
219	0xbdfdcd58	-0.12392682
220	0x3e4fbd3a	0.20287028
221	0x3e8fec6d	0.28110066
222	0xbe00b893	-0.1257041
223	0xbe942436	-0.28933877
224	0x3e361870	0.1778276
225	0x3e9ece25	0.3101665
226	0x3dafdd94	0.085871845
227	0xbe7e8503	-0.24855427
228	0x3e9aa2c7	0.30202314
229	0x3d9cfaf0	0.0766505
230	0x3e8c0995	0.2735106
231	0xbe3414a2	-0.17585996
232	0x3d8b1ea0	0.06792951
233	0xbe88822a	-0.26661807
234	0xbdb5c0ce	-0.08874665
235	0xbe64eade	-0.2235522
236	0xbd5c01e8	-0.053712755
237	0x3d907ba4	0.070548326
238	0xbe5db1ce	-0.21649858
239	0x3cc3c310	0.023896724
240	0x3d2018a8	0.039086014
241	0x3e7215ee	0.23641178
242	0xbca90c10	-0.020635635
243	0x3d1b1f80	0.037871838
244	0xbe40b603	-0.18819432
245	0xbddc4992	-0.1075622
246	0x3e88e337	0.2673585
247	0x3e1ad8f8	0.1512183
248	0x3e8ff181	0.2811394
249	0x3da85200	0.08218765
250	0xbe1d5331	-0.15363766
251	0xbdaa8ae2	-0.08327271
252	0xbd2e77f0	-0.04259485
253	0x3e40770a	0.1879541
254	0xbc891740	-0.01673472
255	0x3e84c3e3	0.259307

fc1.bias f4 [64]
0	0x3d22d348	0.039752275
1	0xbe32bdec	-0.17455262
2	0x3cabd320	0.020974696
3	0xbe8c612d	-0.2741789
4	0x3e007c28	0.12547362
5	0xbe9c4226	-0.30519217
6	0x3e447c66	0.19188079
7	0x3d4f4e38	0.050611705
8	0x3e452cf2	0.19255427
9	0x3cc8bba0	0.02450353
10	0x3e00aca6	0.1256586
11	0xbe279a49	-0.16367449
12	0x3e72590a	0.23666778
13	0xbe628cdd	-0.22124048
14	0xbe03fc9f	-0.12889336
15	0xbe9a9d1f	-0.30198
16	0xbde22ea0	-0.11044049
17	0x3e29abb8	0.16569412
18	0x3d9a0ca0	0.07521939
19	0xbe01e734	-0.12685853
20	0x3e3bf0d0	0.18353581
21	0xbe8cee32	-0.2752548
22	0x3e1d2328	0.15345442
23	0x3e130ee8	0.14361155
24	0x3de1d9b0	0.11027849
25	0xbe080453	-0.132829
26	0xbe80f9d0	-0.25190592
27	0x3e94c2a3	0.29054746
28	0xbe3ecaa0	-0.18631983
29	0xbe4ce9d2	-0.2001107
30	0xbe3e98a9	-0.18612923
31	0x3db849b8	0.08998436
32	0x3e94b39b	0.29043278
33	0xbd889e28	-0.06670791
34	0xbe998c81	-0.29990008
35	0x3e4eea52	0.20206574
36	0x3e68452a	0.22682634
37	0xbe52c34e	-0.20582315
38	0xbe945427	-0.28970453
39	0xbe755155	-0.23956807
40	0x3e56123a	0.2090539
41	0xbdd7d166	-0.105379865
42	0xbe0ba90c	-0.13638705
43	0xbcbfef10	-0.023429424
44	0x3d8ba768	0.068190396
45	0xbd80762c	-0.062725395
46	0xbe92de95	-0.28685442
47	0x3e44edfe	0.19231412
48	0x3e95a94b	0.29230723
49	0x3cb808d0	0.02246514
50	0xbe082bd2	-0.13297966
51	0x3e6eef02	0.23333362
52	0x3e8fd293	0.28090343
53	0xba57f600	-0.0008238256
54	0x3d6f10e0	0.058365703
55	0x3e5dfc02	0.21678165
56	0xbdb941f2	-0.09045781
57	0x3e5344e6	0.20631751
58	0xbd0e6858	-0.03476748
59	0xbb6fe080	-0.0036602318
60	0x3d858888	0.06520182
61	0x3e03b4fa	0.12862006
62	0xbe35b9e8	-0.17746699
63	0x3e839ebd	0.25707045

fc2.weight f4 [32, 64]
0	0x3d1d4c58	0.038402885
1	0x3d5a1dc0	0.053251028
2	0x3d8478ce	0.06468354
3	0x3d127918	0.035760015
4	0x3d0af43c	0.033924326
5	0xbd4f3e64	-0.05059661
6	0x3cb02200	0.021500587
7	0x3df96ec2	0.121793285
8	0x3ceca250	0.02888599
9	0x3da17904	0.0788441
10	0xbdac5dbe	-0.084163174
11	0xbd8f65ac	-0.07001814
12	0x3d352838	0.04422781
13	0x3df4d5e4	0.11954859
14	0xbcbd9bd0	-0.023145586
15	0x3d933b98	0.07189101
16	0x3d3a8ec0	0.045546293
17	0xbd9faf2c	-0.07797083
18	0x3c811988	0.015759245
19	0xbd8224e2	-0.06354691
20	0x3dc8267e	0.09772967
21	0x3dc81f98	0.09771651
22	0xbd66b664	-0.056326285
23	0xbd2065a8	-0.039159447
24	0xbdff7fa8	-0.1247552
25	0xbd1a1f6c	-0.037627622
26	0x3d8c6288	0.06854731
27	0xbcbfc238	-0.02340804
28	0x3dc12ad6	0.094319984
29	0x3ba65c00	0.005076885
30	0x3d9a886c	0.07545552
31	0xbd0f34b8	-0.034962386
32	0xbcb1f238	-0.021721944
33	0xbdfabfa2	-0.12243582
34	0xbc3fa8a0	-0.011697918
35	0xbd22b258	-0.039720863
36	0x3d1bb1d0	0.038011372
37	0x3dde46aa	0.10853322
38	0x3da97f46	0.082762286
39	0x3da5db6c	0.08098492
40	0xbdc6718a	-0.096896246
41	0x3c227c10	0.009917274
42	0x3d539ad4	0.051661327
43	0x3d351578	0.044209927
44	0x3d67523c	0.05647491
45	0xbd1fb250	-0.03898841
46	0x3debcca8	0.115136445
47	0xbd87f8a4	-0.06639221
48	0xbd1d63f4	-0.0384254
49	0xbdc087ec	-0.09400925
50	0xbdadc064	-0.08483961
51	0xbdc89c5c	-0.09795448
52	0xbdb4467c	-0.08802506
53	0x3d501910	0.05080515
54	0x3dfe79f4	0.124256045
55	0x3d8ad95c	0.06779739
56	0xbdc2a264	-0.0950363
57	0x3d9d94ce	0.07694398
58	0xbd8bc92c	-0.0682548
59	0xbdd7c044	-0.10534719
60	0x3db31250	0.08743727
61	0x3dac7b1c	0.08421919
62	0x3db6edd6	0.08932082
63	0xbd947534	-0.07248917
64	0xbc03f9a0	-0.008055121
65	0x3dfb733a	0.12277837
66	0x3d81f6d6	0.06345908
67	0xbdea7b3c	-0.11449286
68	0x3dc4f912	0.09617819
69	0xbcea3308	-0.028588787
70	0xbcb29f28	-0.021804407
71	0x3de7215c	0.1128566
72	0xbdc93b2e	-0.09825741
73	0xbd167640	-0.036733866
74	0x3de80a64	0.11330107
75	0xbd81b552	-0.06333412
76	0xbdcbf720	-0.09959245
77	0x3db59ce2	0.08867814
78	0x3d025d18	0.031827062
79	0x3bf26ae0	0.0073979944
80	0xbdd2bd16	-0.102899715
81	0xbc4c9220	-0.012486011
82	0x3d15c254	0.03656228
83	0xbc3a16b0	-0.011357948
84	0x3d445818	0.047935575
85	0xbdd94e4c	-0.10610637
86	0xbd9dd9fa	-0.07707591
87	0xbd65dda8	-0.05611959
88	0xbdfd3044	-0.123627216
89	0xbd54db7c	-0.05196713
90	0x3d5455f4	0.051839784
91	0x3df2dfc6	0.11859088
92	0xbdba0d7a	-0.09084602
93	0xbd225a04	-0.039636627
94	0xbd4670fc	-0.048447594
95	0x3cbffd48	0.023436204
96	0x3c8c9f88	0.017165914
97	0x3d04a030	0.03237933
98	0x3c1db8f0	0.009626612
99	0xbdf9cdfe	-0.12197493
100	0xbc2296e0	-0.009923667
101	0xbd8b629e	-0.06805919
102	0xbd8b1bbe	-0.06792401
103	0xbdb6962a	-0.0891536
104	0xbb1f9ac0	-0.0024353713
105	0xbd1ee77c	-0.03879498
106	0x3c7f0430	0.015564963
107	0x3d439cb8	0.04775688
108	0xbdf5fd6e	-0.120112285
109	0xbdb6beae	-0.08923088
110	0xbd07ec60	-0.03318441
111	0xbdc12166	-0.09430198
112	0x3c8fcbb0	0.01755318
113	0xbd11bd28	-0.035580784
114	0x3ddaa1f2	0.1067542
115	0x3da7bb1e	0.08189987
116	0x3dff8af4	0.12477675
117	0x3d136b80	0.035991192
118	0xbcf7cf78	-0.030250296
119	0x3de4fb28	0.11180717
120	0x3c414200	0.011795521
121	0x3dc7db88	0.09758669
122	0x3c554910	0.013017908
123	0x3dd56a6c	0.10420689
124	0x3c8dcf68	0.017310813
125	0x3d7937d0	0.060844243
126	0xbc863a30	-0.016385168
127	0xbd8828b0	-0.066483855
128	0x3dd131dc	0.10214588
129	0xbd4b1724	-0.049582615
130	0x3da4d762	0.080488935
131	0x3d7f5bb4	0.062343314
132	0x3d6bdf98	0.057586282
133	0x3d9a0afe	0.07521628
134	0x3d4ea32c	0.05044858
135	0xbc1fe970	-0.009760246
136	0xbd84275a	-0.06452818
137	0x3d192bb4	0.037395194
138	0x3d1f429c	0.038881883
139	0xbd8b3d84	-0.067988425
140	0x3d0e8cdc	0.034802303
141	0x3cbfb328	0.023400858
142	0xbde40312	-0.11133398
143	0x3d52d70c	0.051474616
144	0xbd10e330	-0.035372913
145	0xbdf13280	-0.1177721
146	0x3d8efcee	0.06981836
147	0x3d353b20	0.04424584
148	0xbdb92cc8	-0.090417445
149	0xbd4d293c	-0.050088152
150	0x3d3b36cc	0.045706555
151	0xbdf40602	-0.119152084
152	0x3ce47400	0.027887344
153	0xbddd2c68	-0.107994854
154	0x3db14f3a	0.086576894
155	0x3da02494	0.07819477
156	0xbdfc62a2	-0.123235
157	0xbc8e9cc8	-0.017408744
158	0x3d8ad6a6	0.06779222
159	0x3cda8630	0.026675314
160	0x3d9ef6d2	0.07761921
161	0x3df2291a	0.11824246
162	0xbc5c0460	-0.013428777
163	0xbdb84e4e	-0.089993104
164	0x3d9db2f2	0.07700147
165	0xbdb30018	-0.08740252
166	0x3c879a00	0.016552925
167	0xbd533ae0	-0.05156982
168	0xbcdb8410	-0.02679637
169	0x3da3f8ee	0.08006464
170	0x3dd71f7e	0.105040535
171	0xbd536180	-0.051606655
172	0xbd25b88c	-0.0404592
173	0xbd5ed4e0	-0.054402232
174	0x3bb2b740	0.005453974
175	0x3df454a6	0.11930208
176	0x3df20484	0.118172675
177	0xbab78200	-0.0014000535
178	0x3d92d4be	0.071694836
179	0x3dcdbca0	0.10045743
180	0xbdab5fce	-0.08367883
181	0x390a3000	0.00013178587
182	0xbd904b80	-0.070456505
183	0x3d1a43cc	0.037662312
184	0x3d3e7114	0.04649456
185	0xbd7bc99c	-0.061471567
186	0x3d290794	0.041266993
187	0x3d883a3c	0.06651732
188	0xbd5e38c4	-0.054253355
189	0xbd543228	-0.051805645
190	0xbde3fcbc	-0.1113219
191	0x3cee9ba0	0.029126942
192	0x3ccc67d8	0.02495186
193	0x3daf7762	0.08567692
194	0x3d854bec	0.065086216
195	0xbba2ede0	-0.0049722046
196	0xbd62e9e8	-0.05539885
197	0x3cfb8120	0.03070122
198	0x3dc082cc	0.093999475
199	0x3d1ee498	0.038792223
200	0xbdab7afe	-0.08373068
201	0xbd278244	-0.040895715
202	0xbdc06f70	-0.09396255
203	0xbd95889a	-0.07301445
204	0xbd0d1238	-0.034441203
205	0x3c280f90	0.010257617
206	0x3d884f9c	0.06655809
207	0x3c47dd00	0.012198687
208	0xbd864eae	-0.06557976
209	0x3dc72390	0.0972358
210	0x3d750f8c	0.05982928
211	0xbd1b0d78	-0.03785464
212	0x3c555f30	0.013023183
213	0xbd9445a8	-0.072398484
214	0xbdd47316	-0.103735134
215	0xbdc720ac	-0.097230285
216	0xbde7245e	-0.11286233
217	0x3a505100	0.000794664
218	0x3dd1270c	0.10212526
219	0x3cb32c18	0.021871611
220	0xbde02e82	-0.10946371
221	0xbdfacdde	-0.12246297
222	0x3d0437bc	0.032279715
223	0x3d3ab668	0.045584112
224	0x3d800d62	0.062525526
225	0x3d221124	0.039567128
226	0xbdc84334	-0.09778443
227	0x39a57e00	0.0003156513
228	0x3d80ba58	0.06285542
229	0xbcd5de68	-0.026107028
230	0x3df48928	0.11940223
231	0x3df851cc	0.121249765
232	0x3cd25ac8	0.025678053
233	0x3dd67742	0.104719654
234	0x3de35f26	0.111021325
235	0xbcb9f128	-0.022698
236	0x3ce12e50	0.027487904
237	0x3c86f6a0	0.016475022
238	0x3cd99710	0.02656129
239	0x3de348f6	0.110979006
240	0x3bd59d00	0.00651896
241	0x3cdb5458	0.026773617
242	0x3d9862be	0.074407086
243	0x3d5a657c	0.05331944
244	0x3dbbc13e	0.091677174
245	0xbc1da410	-0.009621635
246	0xbc9d11c0	-0.019173503
247	0xbdda9482	-0.10672857
248	0x3db578b6	0.088609144
249	0xbda3ab98	-0.07991713
250	0xbc496550	-0.012292221
251	0xbce99fe0	-0.028518617
252	0x3d2c587c	0.042076573
253	0x3ca01970	0.01954338
254	0xbde002a6	-0.10938005
255	0x3d884b90	0.066550374

fc2.bias f4 [32]
0	0x3dad9562	0.08475758
1	0xbddb02cc	-0.10693893
2	0x3df80d3c	0.12111899
3	0x3dda6734	0.10664216
4	0xbda8723a	-0.08224912
5	0xbcb106b0	-0.021609634
6	0x3d771050	0.06031829
7	0xbd8bcdaa	-0.06826337
8	0xbcd15278	-0.02555202
9	0x3ddbef6a	0.10739024
10	0xbd5ce6e8	-0.053931147
11	0x3b3370c0	0.0027380437
12	0xbd27fe3c	-0.04101394
13	0x3c9dcb50	0.019261986
14	0xbdd6046e	-0.10450064
15	0xbdd3cb0a	-0.10341461
16	0x3cdbd1a0	0.026833355
17	0x3dcc5598	0.09977263
18	0x3de3321c	0.11093542
19	0xbd38d9f0	-0.045129716
20	0x3cf0f340	0.029412866
21	0x3de6d0d6	0.11270301
22	0xbdf49014	-0.11941543
23	0xbd868638	-0.06568569
24	0xbde863ea	-0.11347182
25	0x3de10802	0.109878555
26	0xbdf50a38	-0.1196484
27	0xbd0f9884	-0.03505756
28	0x3d6d3744	0.057914034
29	0x3dc73508	0.09726912
30	0x3dbe8eec	0.09304604
31	0xbcf206b0	-0.029544204

fc3.weight f4 [7, 32]
0	0xbe32de3b	-0.17467587
1	0xbdc9be3a	-0.09850736
2	0x3caee7a0	0.021350682
3	0xbcd08fa8	-0.025459126
4	0xbdcae093	-0.099061154
5	0x3da0a98e	0.0784484
6	0xbe16eac0	-0.14737988
7	0x3dfc31be	0.12314175
8	0xbcc609c8	-0.024174586
9	0x3e1b7dfd	0.1518478
10	0x3dc0c9b2	0.0941347
11	0xbda28553	-0.07935586
12	0xbcb6da08	-0.022320762
13	0x3d495754	0.04915555
14	0xbc872d38	-0.016501054
15	0x3d104fec	0.03523247
16	0x3df0408a	0.1173106
17	0x3e207165	0.15668257
18	0xbde9b358	-0.1141116
19	0xbd21b464	-0.039478675
20	0x3e0cd13f	0.13751696
21	0x3e1d13bb	0.15339558
22	0x3d30ebe8	0.043193728
23	0xbe279a21	-0.1636739
24	0xbdc3913d	-0.095491864
25	0xbe0ea7e6	-0.13931236
26	0x3e3006ed	0.17190142
27	0x3e0433fd	0.12910457
28	0xbe21818b	-0.15772073
29	0x3e0c3c65	0.13694914
30	0x3e024627	0.12722073
31	0x3db970e6	0.09054737
32	0x3cddf838	0.027095899
33	0xbdc5d9ac	-0.09660658
34	0x3e180a3b	0.14847653
35	0xbe18c296	-0.14917979
36	0x3e13cc4f	0.14433406
37	0xbd82e321	-0.06390978
38	0x3e097289	0.13422598
39	0xbe1b2f80	-0.15154839
40	0x3d51bae8	0.05120364
41	0xbd6452c6	-0.055743
42	0x3c9e5eb8	0.019332275
43	0x3db1ffc2	0.0869136
44	0x3d6093f4	0.0548286
45	0xbc92df50	-0.01792875
46	0x3d934328	0.071905434
47	0x3c1804f0	0.009278521
48	0x3c46cb30	0.012133405
49	0xbe2006b3	-0.15627556
50	0xbe157859	-0.1459669
51	0x3caa7200	0.020806313
52	0xbe09165c	-0.13387436
53	0x3c2c0c60	0.010500997
54	0xbe22c01b	-0.15893595
55	0x3e2e10ab	0.16998546
56	0xbddea808	-0.10871893
57	0xbd442c00	-0.047893524
58	0x3df19d76	0.117976114
59	0x3e11fc6f	0.14256452
60	0x3dbc5b4a	0.091970995
61	0x3de62dbe	0.112391934
62	0x3dcf7da6	0.101313874
63	0xbd9cebda	-0.076621726
64	0x3da7201a	0.0816042
65	0xbe283122	-0.16424993
66	0xbe18ef46	-0.14935026
67	0xbdd967f4	-0.106155306
68	0x3cf9f6e8	0.030513242
69	0xbd8f183e	-0.06987046
70	0xbe2db7c3	-0.16964631
71	0xbdd92d24	-0.10604313
72	0x3d7f3608	0.062307388
73	0x3da4bdae	0.08043991
74	0x3e1131b3	0.14179115
75	0x3b442280	0.002992779
76	0x3d8bb912	0.06822409
77	0xbd9ad1ee	-0.07559572
78	0xbdc90850	-0.098160386
79	0x3dd0b5ce	0.101909265
80	0xbda76bda	-0.08174868
81	0x3de1dfe2	0.110290304
82	0xbe0ce248	-0.13758194
83	0x3d3b3bd4	0.045711353
84	0xbdd5e4bf	-0.104440205
85	0xbdc2407d	-0.094849564
86	0xbb857220	-0.0040724427
87	0x3dd025da	0.101634696
88	0xbe28cd20	-0.16484499
89	0xbdb64f4a	-0.08901842
90	0x3de99f02	0.114072815
91	0xbe15f1b4	-0.14642984
92	0xbdfb8692	-0.122815266
93	0xbdf6312a	-0.12021096
94	0x3d802a26	0.06258039
95	0xbc940ca0	-0.018072426
96	0x3dbdaeae	0.09261833
97	0x3cf6d0e8	0.030128911
98	0xbcd75db8	-0.026289806
99	0x3e2fc04d	0.171632
100	0x3e017c47	0.12645064
101	0x3d85f8ee	0.0654162
102	0xbe0d04d5	-0.13771375
103	0x3e1c4571	0.15260865
104	0x3e04e3cb	0.12977521
105	0xbe28a45c	-0.16468948
106	0x3e1bf3ed	0.15229769
107	0xbcb6f710	-0.022334605
108	0x3dffd502	0.124918
109	0xbe059d4d	-0.13048287
110	0xbda805ef	-0.08204257
111	0x3e2f4ce5	0.17119177
112	0xbd52c588	-0.05145791
113	0xbd3dddcc	-0.0463541
114	0xbd10f988	-0.03539422
115	0x3dc19e46	0.094540164
116	0xbd56d000	-0.052444458
117	0x3e341ee1	0.17589904
118	0x3cca08b8	0.02466236
119	0x3e09810b	0.13428132
120	0x3cfc28b8	0.030781135
121	0x3b728680	0.0037006438
122	0xbe3471cf	-0.1762154
123	0xbb1f8980	-0.002434343
124	0x3e2d3e07	0.16918193
125	0xbdad2418	-0.0845415
126	0xbe343403	-0.17597966
127	0xbe26c81d	-0.16287275
128	0xbe2567bf	-0.16152857
129	0x3c8b1f68	0.01698275
130	0x3e20c6ad	0.15700789
131	0x3d4fc814	0.05072792
132	0x3d0cd830	0.03438586
133	0xbd27ef94	-0.040999964
134	0xbd92ebaf	-0.07173859
135	0x3d95847c	0.0730066
136	0x3c3bcd80	0.011462569
137	0x3e09ec87	0.13469134
138	0xbc867608	-0.016413704
139	0x3d6b48d4	0.0574425
140	0x3d324eec	0.043532297
141	0x3e0326d5	0.12807782
142	0x3ca93198	0.020653531
143	0x3dfe590a	0.124193266
144	0x3d8c1f78	0.0684194
145	0xbda86987	-0.08223253
146	0x3dcc64b6	0.099801466
147	0xbd61c7b4	-0.055122092
148	0xbe2223a7	-0.15833913
149	0x3d845bea	0.06462844
150	0x3da5a486	0.08088021
151	0x3e234671	0.1594484
152	0x3e0d05c5	0.13771732
153	0x3c406020	0.011741668
154	0x3d19d838	0.037559718
155	0x3dc84a92	0.09779848
156	0xbdeb2967	-0.11482506
157	0x3e14934d	0.14509316
158	0xbccc4ad8	-0.024938032
159	0xbbde32a0	-0.0067809373
160	0xbc76bc60	-0.015059561
161	0x3cefd750	0.029277474
162	0x3d3a5f18	0.045500845
163	0xbe1f4275	-0.15552695
164	0xbdf8abb2	-0.12142123
165	0x3de2f342	0.11081554
166	0x3d5a6af0	0.05332464
167	0xbe116c1b	-0.14201395
168	0x3c867a40	0.016415715
169	0xbb106740	-0.0022034198
170	0xbd886d0b	-0.06661423
171	0xbb2b1640	-0.0026105791
172	0x3c9952c8	0.018716231
173	0xbe270577	-0.16310678
174	0xbcaa2120	-0.020767748
175	0x3ddeb392	0.10874094
176	0xbe15deec	-0.14635819
177	0xbd140700	-0.03613949
178	0xbd40281c	-0.04691325
179	0xbd204124	-0.039124623
180	0x3d75546c	0.059894964
181	0xbe015d6e	-0.12633297
182	0x3db5cbfe	0.08876799
183	0x3da46cca	0.08028562
184	0x3dd50f1e	0.10403274
185	0x3c6f9d70	0.014624938
186	0x3da887f2	0.082290545
187	0x3d2015dc	0.039083347
188	0x3dc73412	0.097267285
189	0xbdd6776d	-0.104719974
190	0x3dc9486e	0.09828268
191	0x3d775a9c	0.060389146
192	0xbd9e4154	-0.07727304
193	0xbc433760	-0.011915058
194	0xbd4813f0	-0.04884714
195	0xbdd15704	-0.10221675
196	0xbc76fd20	-0.015074998
197	0x3e324169	0.17407764
198	0xbdfe4396	-0.12415235
199	0xbd126efc	-0.035750374
200	0x3e316f33	0.17327575
201	0xbda848ec	-0.08217034
202	0x3e1c3a29	0.15256561
203	0xbce527b0	-0.027973026
204	0xbd93fbf4	-0.072257906
205	0x3d95fbb2	0.07323398
206	0xbd8196c1	-0.06327582
207	0x3db64272	0.08899392
208	0x3dfce0ee	0.123475894
209	0x3ded0fc6	0.11575274
210	0x3c9b8c70	0.018987864
211	0xbe1e508c	-0.15460414
212	0x3bf79c40	0.0075564682
213	0x3dd01dce	0.10161935
214	0xbe225699	-0.15853347
215	0xbd7ee87a	-0.062233426
216	0xbdee93f8	-0.116493165
217	0xbd7ef7a8	-0.062247902
218	0xbad8de00	-0.0016545653
219	0x3df0fa1e	0.11766456
220	0x3e3479b9	0.17624559
221	0x3dd3879a	0.10328598
222	0xbd6f1100	-0.05836582
223	0x3e1e321f	0.15448807

fc3.bias f4 [7]
0	0x3d25faac	0.040522262
1	0x3d4e32fc	0.05034159
2	0xbd011610	-0.03151518
3	0xbe0caeca	-0.13738552
4	0xbd263194	-0.040574625
5	0xbddab703	-0.10679438
6	0x3bd5c4a0	0.0065236837
